0709_181238_actor.pth (torch_old, 548296 bytes, 10 tensors)

fc1.weight f4 [400, 33]
0.80665535 -0.5205287 0.2680768 -0.13870484 0.7849718 0.6933558 0.7475393 0.25428268
0.14262746 -0.6632754 1.0822738 0.837522 -0.76216483 0.2152459 0.8608875 -0.59081286
0.7426196 0.2520159 -1.3635046 -1.4028335 -0.952612 1.5766715 -0.5561713 0.0702267
-1.3846145 0.5599938 0.12413435 0.0079689 -0.7848805 0.020806227 0.047982723 -0.042119574
-1.6128918 -0.58685887 -2.52982 -0.41837895 1.9326075 -0.14981289 -0.11949731 -0.48915207
0.86665237 0.6488211 -0.10544603 0.10457572 -0.7327079 -0.3000925 0.7181354 2.604865
0.9128614 -1.730114 1.5957673 -0.040044725 1.7843657 -0.66597426 -0.2311961 0.49844393
-0.17858405 0.45987886 -0.37407526 -0.40799063 -0.0020249987 -1.6424198 -0.037695933 0.04106565
-0.027711553 1.1161119 -1.2371513 -3.2513018 0.2821037 1.9681561 0.16936302 0.060319774
1.7027646 0.18406461 -0.34074003 0.624758 0.2239301 -0.69888073 0.103855364 -0.91977465
2.2546487 0.2328398 0.21494727 -0.5291345 0.4915103 -1.1245805 0.09417078 -0.05527665
-0.40298396 -0.50537854 0.49368057 0.6538112 2.1833875 -0.009950843 -0.4018557 0.0061887614
-0.043406364 0.04751611 -1.167341 -0.91659606 -2.4548173 0.11917861 2.6828954 -1.6606035
-0.08051165 1.6448534 0.015290599 0.99253714 0.44920042 -0.20879388 -0.13024281 0.10790779
0.9203163 3.1677127 -0.29665068 0.2702171 0.54450935 -0.17756818 1.2386154 -0.060160853
-0.10383599 0.19429034 -0.23055668 0.7054216 0.41547847 -1.0232447 -0.041860096 1.158522
0.012251586 0.03582465 -0.039011635 -1.4717329 0.35603812 0.46043545 0.39296448 -1.2756058
1.391818 -3.3481786 0.6157966 0.50277287 0.7153301 1.1061668 0.65231967 -0.0126213655
-0.7106339 0.28028962 0.9853315 -0.9745393 2.1802375 0.70280886 1.8926078 5.3799143
-0.5488271 -0.13478035 -0.94719803 0.011218596 0.96931076 0.0738324 0.58323205 0.03200174
-0.111154266 0.043541368 -0.04235693 0.044651728 -2.654719 0.22878431 1.97806 1.6810937
-1.1795934 -0.7009441 -1.627393 -3.0449378 0.360985 -0.3112747 1.6454636 -0.1879979
0.81584895 -0.9759539 -0.38514555 0.9204699 -0.72286123 1.0190735 -1.3197498 -1.1171012
0.6392291 -0.66163915 -0.77597433 -0.5257475 2.3585513 0.24479392 -0.69593614 0.4233607
-0.017309863 0.196177 0.03879455 -0.04420322 -0.017833628 -3.5018067 -1.0956291 -0.9614749
0.5831646 -1.8474913 -3.5224805 0.6567903 2.460148 0.564228 -1.898281 0.038833875
0.84619313 -0.03438266 -1.0424855 -3.311066e-05 -2.4215531 -0.65480673 2.688607 -2.4652524
-0.4820033 -1.3216153 -0.16537462 -0.17330109 -0.27527416 -0.31466988 -0.75690585 0.5051223
-0.59655094 -0.015779179 -0.7742182 0.027785841 -0.012812328 -0.04191185 0.42985925 0.53281146
-0.65205866 -1.1527022 3.3588302 1.5650094 1.9146951 -3.4194415 2.0399623 -2.7209544
0.6064285 0.30796304 0.7626732 0.55652124 0.331296 1.9177264 -0.2627268 -2.6713114
1.8988768 3.2436929 -0.5341893 0.3272445 -0.13046734 0.102611355 0.20278695 1.6239514
00000000: f780 4e3f 5e41 05bf 5d41 893e a408 0ebe
00000010: e9f3 483f c47f 313f bc5e 3f3f 5731 823e
00000020: ef0c 123e 6bcc 29bf f387 8a3f d767 563f
00000030: 3c1d 43bf 6c69 5c3e 2063 5c3f 833f 17bf
00000040: 511c 3e3f 3a08 813e 5287 aebf 0c90 b3bf
00000050: 61de 73bf 5fd0 c93f 3e61 0ebf 04d3 8f3d
00000060: 0c3b b1bf c15b 0f3f 263a fe3d fd8f 023c
00000070: eeed 48bf d271 aa3c 8889 443d 9385 2cbd
00000080: 3d73 cebf 623c 16bf 92e8 21c0 c435 d6be
00000090: af5f f73f 8d68 19be 01bb f4bd 2472 fabe
000000a0: eedc 5d3f 2419 263f 17f4 d7bd cc2b d63d
000000b0: bf92 3bbf b9a5 99be b9d7 373f 1cb6 2640
000000c0: 49b1 693f 6074 ddbf 1a42 cc3f f005 24bd
000000d0: 1866 e43f 4a7d 2abf acbe 6cbe 0b34 ff3e
000000e0: bdde 36be 3e75 eb3e cb86 bfbe 26e4 d0be
000000f0: d7b5 04bb d03a d2bf 0d67 1abd 7434 283d
00000100: 5703 e3bc c1dc 8e3f f95a 9ebf 5415 50c0
00000110: e56f 903e 8aec fb3f 806d 2d3e de11 773d
00000120: 31f4 d93f 6f7b 3c3e 7a75 aebe 24f0 1f3f
00000130: ef4d 653e d9e9 32bf 1fb2 d43d 5a76 6bbf
00000140: 2a4c 1040 8e6d 6e3e 231b 5c3e 5c75 07bf
00000150: 3da7 fb3e 41f2 8fbf 9cdc c03d c569 62bd
00000160: ea53 cebe 7d60 01bf b3c3 fc3e 2c60 273f
00000170: 9fbc 0b40 dc08 23bc 08c0 cdbe 18cb ca3b
00000180: dfca 31bd 41a0 423d 6e6b 95bf 0aa6 6abf
00000190: ba1b 1dc0 ea13 f43d 8fb4 2b40 a88e d4bf
000001a0: 4be3 a4bd 8e8a d23f 6c85 7a3c ea16 7e3f
000001b0: 99fd e53e 10ce 55be 5f5e 05be c2fe dc3d
000001c0: d999 6b3f cebb 4a40 99e2 97be e559 8a3e
000001d0: f764 0b3f 6fd4 35be f38a 9e3f 3a6b 76bd
000001e0: f7a7 d4bd 0cf4 463e 0d17 6cbe 8396 343f
000001f0: 98b9 d43e aff9 82bf 7e75 2bbd 734a 943f
00000200: e0ba 483c debc 123d aaca 1fbd be61 bcbf
00000210: a14a b63e 32be eb3e a432 c93e 0d47 a3bf
00000220: 1827 b23f 8f48 56c0 d9a4 1d3f b9b5 003f
00000230: e01f 373f e096 8d3f 6cfe 263f d8c9 4ebc
00000240: 1aec 35bf 1f82 8f3e af3e 7c3f 687b 79bf
00000250: 0389 0b40 48eb 333f f940 f23f 4228 ac40
00000260: ef7f 0cbf dc03 0abe 927b 72bf 34ce 373c
00000270: c024 783f 7135 973d b24e 153f 4214 033d
00000280: d9a4 e3bd 6f58 323d 767e 2dbd bbe4 363d
00000290: ebe6 29c0 6f46 6a3e 1231 fd3f 142e d73f
000002a0: ebfc 96bf 1371 33bf 6a4e d0bf 43e0 42c0
000002b0: 07d3 b83e 665f 9fbe 8d9e d23f 8682 40be
000002c0: 7adb 503f 1dd8 79bf cc31 c5be eaa3 6b3f
000002d0: 6f0d 39bf 0071 823f 90ed a8bf 2cfd 8ebf
000002e0: 85a4 233f 2f61 29bf 41a6 46bf 6397 06bf
000002f0: 81f2 1640 42ab 7a3e df28 32bf bcc2 d83e
00000300: 6acd 8dbc a0e2 483e 09e7 1e3d 700e 35bd
00000310: d417 92bc 9a1d 60c0 933d 8cbf 3823 76bf
00000320: 464a 153f 987a ecbf 5270 61c0 6923 283f
00000330: 1173 1d40 3f71 103f dffa f2bf 4510 1f3d
00000340: 1da0 583f d5d4 0cbd 2a70 85bf 4de0 0ab8
00000350: bafa 1ac0 6aa1 27bf 2312 2c40 b2c6 1dc0
00000360: 23c9 f6be b12a a9bf f757 29be d775 31be
00000370: bcf0 8cbe 691c a1be 95c4 41bf b24f 013f
00000380: 90b7 18bf 5643 81bc 2a33 46bf 229f e33c
00000390: ccea 51bc c3ab 2bbd 8316 dc3e 5566 083f
000003a0: 51ed 26bf bf8b 93bf 13f7 5640 3a52 c83f
000003b0: bb14 f53f 21d8 5ac0 be8e 0240 1e24 2ec0
000003c0: e63e 1b3f 55ad 9d3e 8d3e 433f 2d78 0e3f
000003d0: a19f a93e 0f78 f53f 2184 86be c4f6 2ac0
000003e0: 650e f33f aa98 4f40 a1c0 08bf 978c a73e
000003f0: 3b99 05be e725 d23d 62a7 4f3e a4dd cf3f

fc1.bias f4 [400]
0.04885182 0.1540606 0.091366276 0.030193448 -0.118069865 0.11561248 0.00055221986 0.057705797
-0.08410946 -0.14421445 -0.15531275 -0.053666107 -0.12937362 -0.14907677 0.16989943 0.06970882
-0.023228971 -0.15420505 -0.12408084 -0.16474336 -0.04385286 0.12377529 -0.022925304 0.038873985
-0.013286581 0.10557398 0.1668495 -0.070633225 -0.13453777 0.10160219 0.11537229 0.014213824
-0.07808127 -0.04151281 0.09911456 0.052943867 -0.06129896 0.049352918 0.054543197 -0.050267074
-0.09991662 0.043834623 0.04228422 0.1667068 -0.02845827 0.025550932 0.03789832 0.07818224
0.0813216 -0.12043048 0.14776206 0.034413647 0.1750681 -0.13418315 0.1572392 0.12806748
-0.06653637 -0.16076 0.028481472 0.10600896 -0.08865882 0.07287911 0.031169124 0.14777742
0.17050885 0.07852541 -0.029780585 -0.057918336 0.12288255 -0.091827884 -0.0650577 -0.1015167
-0.17393704 0.15696733 0.11091554 0.07126079 0.12865755 0.12424206 0.11976268 -0.1121492
0.1129341 -0.0114793945 0.16353792 0.15319176 0.038419202 -0.093782604 0.1644223 -0.17250992
-0.07551879 0.05108141 0.020298406 -0.13195579 -0.10145136 0.03403922 -0.032400306 -0.14048183
0.10047115 0.12898175 -0.016243875 0.08812135 0.035971753 0.09620759 -0.00013516253 0.053092778
0.12068953 -0.054152332 0.12539534 0.04816842 -0.14036945 0.13900706 -0.06889804 -0.17046706
-0.04485041 -0.17404349 -0.049820527 -0.04386595 -0.124539 0.14119077 0.10907797 0.08736731
0.16120848 -0.07033212 0.0662354 0.12958612 0.14035068 0.06336723 0.07870929 0.15719861
0.14596508 -0.13870738 0.14320248 -0.06809859 0.1124387 -0.16545397 0.1553184 0.14205849
-0.049680777 0.15908079 0.034921132 -0.113937065 0.06886948 -0.10990772 -0.092043534 0.15037721
0.005765101 -0.095315725 -0.16598609 -0.008728892 0.01966304 -0.030311711 0.008576067 0.14186963
-0.15808247 0.040846866 -0.020244487 -0.15380952 -0.1689289 -0.009181147 -0.16771178 0.17179999
-0.148609 -0.0051434203 -0.004171194 -0.10218934 0.16253297 -0.023800151 -0.06742723 0.1408585
0.05648489 -0.0523229 -0.17164046 -0.033894394 -0.04601196 -0.04755221 0.103220716 -0.012427777
0.047504686 0.14156039 0.0028565917 0.16384767 0.07294625 -0.13023685 0.086957514 -0.07200443
0.13715741 0.049124796 -0.10585197 -0.10598361 -0.17150895 -0.16670816 -0.10982435 0.04592109
-0.050616644 0.0334479 -0.14865637 -0.0007872982 -0.08252784 0.045247532 -0.12080849 0.0823454
-0.07187242 0.018999789 -0.0739117 0.14791052 0.016251313 0.08435771 -0.068092965 0.13878854
-0.06436202 0.11090636 0.16550426 -0.08815163 0.039511003 0.03526814 -0.00059977843 0.07593386
0.15408914 -0.0015549831 0.04284081 0.10783111 -0.14271548 0.10225414 0.0049373023 -0.1264811
0.071932256 -0.07883425 -0.12830138 -0.06024922 0.02289463 0.10055516 -0.0760353 0.145311
-0.12515123 -0.12730518 0.06768948 0.16408718 0.13257934 0.12698418 0.009601289 -0.06325406
-0.12958674 -0.12382456 0.053482793 -0.012637314 -0.027354946 -0.032954942 0.0008187517 -0.10219531
-0.03936982 0.14298527 -0.092122115 -0.012644441 -0.13710052 -0.07015704 0.05931742 0.074501984
00000000: d918 483d 10c2 1d3e 3e1e bb3d 4058 f73c
00000010: 9dce f1bd 3cc6 ec3d d9c2 103a ea5c 6c3d
00000020: 9541 acbd f4ac 13be 4e0a 1fbe fed0 5bbd
00000030: 857a 04be 95a7 18be 1efa 2d3e 7fc3 8e3d
00000040: af4a bebc eee7 1dbe 181e febd 7cb2 28be
00000050: 0e9f 33bd e67d fd3d d9cd bbbc 543a 1f3d
00000060: f6af 59bc 2c37 d83d 98da 2a3e 27a8 90bd
00000070: 45c4 09be cf14 d03d 4f48 ec3d 19e1 683c
00000080: 13e9 9fbd 5609 2abd 93fc ca3d abdb 583d
00000090: 9e14 7bbd 4926 4a3d b068 5f3d d9e4 4dbd
000000a0: 16a1 ccbd ef8b 333d 3832 2d3d 30b5 2a3e
000000b0: 5121 e9bc 3050 d13c 453b 1b3d 031e a03d
000000c0: f08b a63d 41a4 f6bd f04e 173e 53f5 0c3d
000000d0: 0d45 333e 4f67 09be 5003 213e 1f24 033e
000000e0: 3844 88bd 459e 24be fa51 e93c 3a1b d93d
000000f0: c192 b5bd a541 953d 6456 ff3c f752 173e
00000100: df99 2e3e eed1 a03d 6af6 f3bc c73b 6dbd
00000110: d9a9 fb3d 4210 bcbd f93c 85bd fde7 cfbd
00000120: 8d1c 32be 0bbc 203e b027 e33d 2df1 913d
00000130: cebe 033e 9f72 fe3d 2346 f53d 7bae e5bd
00000140: fe49 e73d 1214 3cbc 7c76 273e 4dde 1c3e
00000150: 745d 1d3d 1811 c0bd 525e 283e 71a6 30be
00000160: 98a9 9abd be3a 513d d848 a63c 6b1f 07be
00000170: bbc5 cfbd b66c 0b3d 2fb6 04bd 78da 0fbe
00000180: d1c3 cd3d cb13 043e e011 85bc f778 b43d
00000190: 1e57 133d 7c08 c53d 6aba 0db9 d077 593d
000001a0: 132c f73d d6ce 5dbd a367 003e 404c 453d
000001b0: 02bd 0fbe de57 0e3e 6a1a 8dbd eb8e 2ebe
000001c0: 10b5 37bd 7538 32be 9c10 4cbd c8ac 33bd
000001d0: 4e0e ffbd 5094 103e 4564 df3d a2ed b23d
000001e0: d613 253e 490a 90bd 6da6 873d 39b2 043e
000001f0: 17b8 0f3e aec6 813d 5632 a13d acf8 203e
00000200: df77 153e 4f09 0ebe aca3 123e 4677 8bbd
00000210: 4346 e63d c46c 29be c90b 1f3e c877 113e
00000220: 127e 4bbd 13e6 223e 7609 0f3d d657 e9bd
00000230: 710b 8d3d 4c17 e1bd 5281 bcbd 7cfc 193e
00000240: 2ce9 bc3b e434 c3bd 42f8 29be a003 0fbc
00000250: 6214 a13c 4450 f8bc a282 0c3c 4646 113e
00000260: 5fe0 21be 0b4f 273d c4d7 a5bc 3e80 1dbe
00000270: b3fb 2cbe 866c 16bc a3bc 2bbe 56ec 2f3e
00000280: f52c 18be 238a a8bb 83ae 88bb a548 d1bd
00000290: 0b6f 263e 89f8 c2bc 4a17 8abd 363d 103e
000002a0: b35c 673d 8a50 56bd 84c2 2fbe d9d4 0abd
000002b0: 0977 3cbd 1bc6 42bd 6265 d33d e09d 4bbc
000002c0: 4694 423d 35f5 103e a835 3b3b afc7 273e
000002d0: d864 953d cf5c 05be c816 b23d 0f77 93bd
000002e0: fe72 0c3e 1537 493d ebc8 d8bd ef0d d9bd
000002f0: 0ba0 2fbe 8bb5 2abe 97eb e0bd c117 3c3d
00000300: 6653 4fbd aa00 093d 6039 18be b062 4eba
00000310: 5b04 a9bd 7a55 393d 716a f7bd b4a4 a83d
00000320: d931 93bd 72a5 9b3c 045f 97bd db75 173e
00000330: 7921 853c bcc3 ac3d 5374 8bbd 951e 0e3e
00000340: 3cd0 83bd e022 e33d f379 293e d788 b4bd
00000350: 4ad6 213d 5375 103d 733a 1dba 3683 9b3d
00000360: 8bc9 1d3e 93d0 cbba d879 2f3d 8fd6 dc3d
00000370: 0224 12be 9e6a d13d 18c9 a13b 4384 01be
00000380: 3851 933d da73 a1bd 7061 03be e3c7 76bd
00000390: 858d bb3c ddef cd3d 65b8 9bbd 68cc 143e
000003a0: a527 00be 4a5c 02be c8a0 8a3d 7806 283e
000003b0: e1c2 073e 2408 023e ba4e 1d3c 588b 81bd
000003c0: 63b2 04be bb97 fdbd c610 5b3d bd0c 4fbc
000003d0: 7b17 e0bc c3fb 06bd 7fa1 563a c64b d1bd
000003e0: 4042 21bd bb6a 123e 85aa bcbd a12a 4fbc
000003f0: 1464 0cbe 7fae 8fbd d3f6 723d 7f94 983d

bn1.weight f4 [400]
0.39661023 1.1879234 1.144093 1.6403211 -0.8811636 0.6716279 0.71790147 0.7518517
1.1875985 1.6356705 1.4298164 1.1958562 1.5097963 1.4557905 1.0490434 1.3538328
0.13214897 0.3178753 0.81805027 1.1831434 0.7420467 0.48911315 1.3474523 0.8575366
0.47645044 0.27522457 1.1015433 0.5720003 0.91434586 0.67528856 0.28358907 0.39379725
0.7648545 0.96715397 0.8523759 0.49936303 0.6531867 0.9844653 0.7860942 1.1947836
0.6429827 0.7771771 1.1344557 1.3815575 1.4635798 0.5681807 -0.072037615 0.5181292
0.90937585 0.8728645 0.65138596 0.2567773 0.9174438 0.8389796 0.8458062 0.703672
0.8129629 0.68064713 0.21618173 0.6530811 0.85419494 1.1413699 1.1024903 0.3389017
0.7772459 1.6413329 0.68436694 0.7222293 0.2098281 0.58547807 0.82320297 0.49750358
0.78555363 0.6806517 1.0855026 1.408729 1.0624177 0.7761408 1.0629964 1.0383067
1.1298964 1.0991348 1.8863288 0.6791145 0.33907226 0.0020098125 0.9717886 1.7163676
0.8181217 1.0172483 0.27419394 1.1311176 0.83373463 0.37127724 0.6039002 0.24931566
0.8941942 0.68862987 0.62766725 0.001222086 0.53694105 0.41987786 0.95015824 0.8191977
0.67070144 0.39042148 1.1398427 1.0091717 0.9379719 0.91782194 0.53797984 1.6864285
1.3245246 1.2607143 0.80099696 1.2989311 0.90856844 0.65951467 0.3509495 0.28302965
1.0898397 0.27229458 0.11074059 0.97904265 1.0894431 0.26068202 0.78471726 0.035778563
1.1529671 0.91390073 0.35826877 0.300451 1.2386546 1.6293 0.40486246 1.4664539
-0.023961285 0.8824586 1.535792 0.5487422 0.21184413 0.62470704 1.0747347 0.34139308
0.870849 1.7257174 0.5394776 0.9271488 0.54454774 1.3348426 1.4974729 0.7134151
0.60932046 0.8785877 0.19586533 0.3366792 0.93970066 0.58518046 0.35538188 1.5642742
0.7282721 0.71514136 0.8368709 0.85643584 0.15331212 1.4849614 1.323362 0.47409803
1.0716914 0.8452288 1.2311975 0.31784445 0.8493392 0.07757425 0.92092085 0.9644267
0.4729171 0.9131393 0.33629164 0.94571096 1.0600119 0.25735384 1.084835 0.9313658
0.5476191 0.46739957 0.845576 1.0435895 1.0763849 0.84505206 1.1642866 1.4062276
0.7836858 0.98541784 0.0012782427 0.8730327 0.68189627 0.85551786 1.2258039 0.8401968
2.6245391 0.5554108 0.71948314 0.45999187 0.38577926 0.30693156 1.6279074 0.98275924
0.7865896 0.9973545 1.5261548 0.76896363 1.1480775 0.5085071 0.8953243 0.46728468
0.8446054 0.89062804 0.54837525 0.1561571 0.92667854 0.36453527 1.1196512 0.9393052
0.7046195 1.4302254 1.004081 0.85918844 0.35826012 0.99833614 0.53814435 0.664053
1.3838203 -0.0007854899 0.030960219 0.7447045 1.2221991 0.8472812 1.3846103 1.4043036
0.8165852 0.88299346 0.8398317 0.97852993 0.9381939 1.1528901 0.68794584 0.65892535
0.7685599 0.89912194 1.470612 0.6258737 1.1321807 0.9903199 1.4179487 0.833648
00000000: 7f10 cb3e e00d 983f a471 923f 0bf6 d13f
00000010: f093 61bf ceef 2b3f 64c8 373f 5a79 403f
00000020: 3a03 983f a75d d13f 3904 b73f d111 993f
00000030: 0141 c13f 5857 ba3f 0e47 863f 654a ad3f
00000040: 0f52 073e 8dc0 a23e be6b 513f 3e71 973f
00000050: c6f6 3d3f 0a6d fa3e 5179 ac3f 8587 5b3f
00000060: 50f1 f33e 3cea 8c3e 5fff 8c3f 9d6e 123f
00000070: 9212 6a3f b6df 2c3f 9632 913e cb9f c93e
00000080: 81cd 433f 6797 773f 4f35 5a3f 83ac ff3e
00000090: 3e37 273f eb05 7c3f 783d 493f abee 983f
000000a0: 849a 243f 14f5 463f d835 913f e0d6 b03f
000000b0: 9556 bb3f 4a74 113f 7588 93bd 1ea4 043f
000000c0: dbcc 683f 0c74 5f3f 3bc1 263f 5078 833e
000000d0: 99dd 6a3f 5ec7 563f c186 583f d923 343f
000000e0: 561e 503f e43e 2e3f be5e 5d3e 5330 273f
000000f0: 85ac 5a3f 6918 923f 671e 8d3f 8684 ad3e
00000100: 96f9 463f 3217 d23f ac32 2f3f 05e4 383f
00000110: 2ddd 563e e4e1 153f 6ebd 523f cab8 fe3e
00000120: 0b1a 493f 313f 2e3f c0f1 8a3f 3b51 b43f
00000130: 4efd 873f 2ab1 463f 4410 883f 3ce7 843f
00000140: 72a0 903f 73b0 8c3f 3973 f13f 73da 2d3f
00000150: e19a ad3e 0fb7 033b 23c7 783f efb1 db3f
00000160: 6c70 513f 3135 823f 2663 8c3e 76c8 903f
00000170: a26f 553f 0d18 be3e 3499 1a3f 9b4c 7f3e
00000180: e9e9 643f 0c4a 303f cdae 203f 672e a03a
00000190: f874 093f 3bfa d63e 923d 733f f1b6 513f
000001a0: 17b3 2b3f 53e5 c73e 5ee6 913f 8a2c 813f
000001b0: ed1e 703f 61f6 6a3f 0cb9 093f e4dc d73f
000001c0: 068a a93f 165f a13f 230e 4d3f 6043 a63f
000001d0: f197 683f f4d5 283f a7af b33e 43e9 903e
000001e0: de7f 8b3f 326a 8b3e f6cb e23d 8aa2 7a3f
000001f0: df72 8b3f 1d78 853e 3be3 483f 8b8c 123d
00000200: 6d94 933f 66f5 693f 016f b73e b7d4 993e
00000210: 3c8c 9e3f e78c d03f 224a cf3e c3b4 bb3f
00000220: 754a c4bc cfe8 613f d594 c43f 5e7a 0c3f
00000230: abed 583e cdec 1f3f e890 893f 13cb ae3e
00000240: f6ef 5e3f 4fe4 dc3f 341b 0a3f a059 6d3f
00000250: 7b67 0b3f 1fdc aa3f 31ad bf3f 5fa2 363f
00000260: 6dfc 1b3f 20eb 603f ec90 483e 3761 ac3e
00000270: 3990 703f 63ce 153f 9df4 b53e 233a c83f
00000280: 0a70 3a3f 8113 373f 2c3d 563f 613f 5b3f
00000290: dafd 1c3e 3713 be3f ed63 a93f fabc f23e
000002a0: 2f2d 893f ea60 583f e197 9d3f 82bc a23e
000002b0: 4b6e 593f 40df 9e3d 78c1 6b3f abe4 763f
000002c0: 3122 f23e 7fc3 693f 6b2e ac3e 1d1a 723f
000002d0: 78ae 873f e2c3 833e e0db 8a3f fd6d 6e3f
000002e0: c430 0c3f ff4e ef3e ab77 583f 5794 853f
000002f0: fbc6 893f 5555 583f 5807 953f 44ff b33f
00000300: a29f 483f 5844 7c3f b58a a73a 127f 5f3f
00000310: c190 2e3f 3803 5b3f 24e7 9c3f 2317 573f
00000320: 73f8 2740 672f 0e3f 0c30 383f 0e84 eb3e
00000330: dc84 c53e 2226 9d3e 455f d03f 1c96 7b3f
00000340: f05d 493f a052 7f3f 0a59 c33f cdda 443f
00000350: 34f4 923f 852d 023f f933 653f f03f ef3e
00000360: 0f38 583f 3300 643f 5262 0c3f a6e7 1f3e
00000370: ce3a 6d3f 5ea4 ba3e bb50 8f3f 4e76 703f
00000380: f261 343f a011 b73f ba85 803f c6f3 5b3f
00000390: df6d b73e f592 7f3f d4c3 093f 61ff 293f
000003a0: 0621 b13f 56e9 4dba 49a0 fd3c f4a4 3e3f
000003b0: 0571 9c3f 6ce7 583f e93a b13f 38c0 b33f
000003c0: ba0b 513f dc0b 623f 36ff 563f f080 7a3f
000003d0: 7a2d 703f e791 933f 381d 303f 55af 283f
000003e0: 57c0 443f db2c 663f 043d bc3f 4239 203f
000003f0: 4ceb 903f 9b85 7d3f 587f b53f f569 553f

bn1.bias f4 [400]
-1.6863377 -1.5059526 -0.9905161 -1.3246266 -0.7959868 -1.2731214 -0.8195026 -1.462329
-1.0946168 -0.71090835 -0.3646505 -1.3070878 -2.0537705 0.2236769 -1.6174765 -1.0946262
-1.0121443 -1.793966 -0.9651773 -0.61342996 -1.2404369 -1.7608145 -1.7073057 -0.9605201
2.2785602 -1.3082582 -0.567447 -0.70228076 -0.96609026 -0.7592157 -1.5192541 -0.546687
-0.8204958 -1.1770147 -1.6231887 -1.2217342 -0.76226175 -1.1868544 -1.2036103 -1.6163449
-1.0038531 -0.8650932 -1.6571125 -2.1906254 -1.166386 -0.93603235 0.20613918 -0.5025486
-0.22968267 -0.86595076 -1.0295615 -1.1948555 -1.33495 -1.2321358 -0.6732184 -0.39687482
-1.0741981 -0.8527578 -1.1670886 -0.047675848 -1.083339 -1.6347504 -1.4104131 -1.358613
-0.9472238 -1.1174003 -1.6572006 -0.85054046 -1.4334579 -0.10620215 -0.7772127 -0.6999117
-0.75295144 -0.59865034 -1.2785316 -1.5058808 -1.0271125 -1.1820685 -0.6630692 -0.8728793
-0.586777 -1.6786674 -2.1181843 -0.95920974 -1.281383 -0.022255298 -1.709516 -0.21735254
-1.0712566 -1.198614 -1.0374794 -1.1160715 -1.1541896 -1.5806297 -0.99148625 -1.0557042
-0.91200274 -1.1536068 -1.3475595 -0.082731314 -1.4045293 -0.5542349 -1.208144 -1.0467857
-1.830193 -1.8610748 -1.50696 -1.0192839 -0.71244115 -0.76385266 -1.1610572 -0.27352762
-0.39680865 -1.118474 -1.1199337 -0.88000536 -1.2543863 -0.8408186 -1.2240292 -1.0407758
-1.2883778 -1.3605393 0.033726677 -1.6534159 -0.8490169 -1.3160248 -1.3803014 0.6458396
-0.8866569 -0.6402285 -1.7881432 -1.3177434 -1.2918414 -1.7303629 -1.6111091 -0.690491
1.6551324 -1.2762426 -0.8016378 -1.7249458 -1.1921012 -1.2513508 -1.0954503 -1.7098424
-0.780974 -1.3410299 -1.4696974 -1.0695515 -1.9235051 -1.4081005 -1.2587148 -1.4185263
-0.73251206 -1.081765 -1.303766 -1.2321852 -0.9187451 -0.6545078 -1.7228699 -1.2539866
-0.5158132 -1.2827961 -0.8962302 -1.2057458 -0.9039084 -1.7215371 -0.92565477 -2.0033917
1.4850966 -0.59050006 -1.0089892 -1.0710249 -0.78301764 -0.36803636 -1.7059839 -0.8236013
-1.714875 -1.2719038 0.80840844 -0.760159 -1.373223 -1.2915161 -1.1823013 -0.69862133
-0.13726647 -1.4707494 -0.83310497 -0.17374836 -0.6457351 -1.0233446 -1.3273172 -1.3903698
-1.1042658 -1.151778 -0.022074778 -0.74068964 -1.0255172 -1.0609465 -1.1207408 -0.95408076
-0.7277682 0.21215807 -0.48063874 -1.4325377 -1.5429479 -1.4387803 -0.5774133 -1.203763
-1.3995868 -0.9917373 -1.1571805 -0.9907709 -0.39091298 -0.766044 -0.8643734 -0.58046013
-1.082528 -1.5532434 -0.594523 -1.0026351 -1.1956729 -1.6782472 -0.87778676 -1.0009989
0.23719852 -0.7090669 -1.1648535 -0.8758695 -0.7830761 -0.8872704 -1.6659548 -0.27094913
-1.1380266 -0.08384015 -0.08598633 -1.1223534 -0.4177641 -0.7512765 -1.1544179 -1.1653217
-0.33828598 -0.5773305 -1.1976297 -1.286036 -0.91760087 -0.8880368 -0.95678693 -1.3980058
-1.3201252 -0.84321785 -1.2460145 -1.0418074 -0.4561594 -1.268421 -1.4469205 -0.77463937
00000000: ead9 d7bf 0ec3 c0bf 7792 7dbf 5d8d a9bf
00000010: cac5 4bbf a4f5 a2bf ecca 51bf 992d bbbf
00000020: 671c 8cbf 17fe 35bf 78b3 babe a74e a7bf
00000030: fa70 03c0 8f0b 653e 7809 cfbf b61c 8cbf
00000040: f28d 81bf aea0 e5bf dc15 77bf bf09 1dbf
00000050: a3c6 9ebf 5f62 e1bf fe88 dabf a5e4 75bf
00000060: eed3 1140 0175 a7bf 3544 11bf acc8 33bf
00000070: b151 77bf f65b 42bf eb76 c2bf aef3 0bbf
00000080: 030c 52bf 6ba8 96bf a6c4 cfbf c961 9cbf
00000090: 9623 43bf d8ea 97bf e70f 9abf 64e4 cebf
000000a0: 427e 80bf bf76 5dbf 431c d4bf 3533 0cc0
000000b0: 234c 95bf d19f 6fbf 2616 533e 06a7 00bf
000000c0: ef31 6bbe f3ae 5dbf acc8 83bf 06f1 98bf
000000d0: a4df aabf a0b6 9dbf 0b58 2cbf 2d33 cbbe
000000e0: 537f 89bf 564e 5abf 2963 95bf c047 43bd
000000f0: daaa 8abf 803f d1bf 6b88 b4bf 08e7 adbf
00000100: 427d 72bf f906 8fbf 261f d4bf 05bd 59bf
00000110: 8c7b b7bf 8380 d9bd 69f7 46bf 6a2d 33bf
00000120: 6dc1 40bf 2641 19bf eca6 a3bf b4c0 c0bf
00000130: 6c78 83bf 054e 97bf e7be 29bf 0575 5fbf
00000140: 0437 16bf 93de d6bf 5590 07c0 c58e 75bf
00000150: 5c04 a4bf be50 b6bc 6cd1 dabf aa91 5ebe
00000160: f01e 89bf 2f6c 99bf 20cc 84bf 6edb 8ebf
00000170: 7cbc 93bf 1352 cabf 0bd2 7dbf 5121 87bf
00000180: 0379 69bf 63a9 93bf d47c acbf 096f a9bd
00000190: 9ec7 b3bf 57e2 0dbf 76a4 9abf 13fd 85bf
000001a0: c443 eabf b337 eebf 11e4 c0bf e577 82bf
000001b0: 8b62 36bf d98b 43bf 869d 94bf d00b 8cbe
000001c0: 812a cbbe 282a 8fbf fd59 8fbf 0848 61bf
000001d0: bb8f a0bf e33f 57bf fdac 9cbf 2438 85bf
000001e0: 90e9 a4bf 2726 aebf fc24 0a3d 22a3 d3bf
000001f0: 2c59 59bf 8073 a8bf b7ad b0bf be55 253f
00000200: f2fb 62bf 04e6 23bf e0e1 e4bf d1ab a8bf
00000210: 0f5b a5bf 887c ddbf d338 cebf 05c4 30bf
00000220: 61db d33f eb5b a3bf 2338 4dbf 06cb dcbf
00000230: c696 98bf 432c a0bf b737 8cbf 1edc dabf
00000240: e9ed 47bf dea6 abbf 0b1f bcbf 10e7 88bf
00000250: 6a35 f6bf a33c b4bf 911d a1bf 4592 b5bf
00000260: e985 3bbf 4777 8abf cee1 a6bf 3fb8 9dbf
00000270: e132 6bbf d38d 27bf 0087 dcbf a282 a0bf
00000280: 550c 04bf aa32 a4bf 586f 65bf e155 9abf
00000290: 8a66 67bf 545b dcbf b6f7 6cbf 9237 00c0
000002a0: a517 be3f 032b 17bf 8f26 81bf 5817 89bf
000002b0: d873 48bf 436f bcbe ae5d dabf 89d7 52bf
000002c0: 0681 dbbf becd a2bf dbf3 4e3f c899 42bf
000002d0: c5c5 afbf 6650 a5bf a655 97bf d9d8 32bf
000002e0: 958f 0cbe 8441 bcbf 5e46 55bf 17eb 31be
000002f0: e54e 25bf f5fc 82bf 88e5 a9bf a3f7 b1bf
00000300: 9558 8dbf 766d 93bf 2ad6 b4bc d69d 3dbf
00000310: 2644 83bf 18cd 87bf 6f74 8fbf a33e 74bf
00000320: 044f 3abf f73f 593e 4816 f6be 655d b7bf
00000330: 517f c5bf f429 b8bf 5cd1 13bf e814 9abf
00000340: a925 b3bf 7fe2 7dbf 7e1e 94bf 29a3 7dbf
00000350: bf25 c8be 761b 44bf 9347 5dbf 0999 14bf
00000360: 4790 8abf aed0 c6bf a932 18bf 5956 80bf
00000370: cf0b 99bf ced0 d6bf a2b6 60bf bb20 80bf
00000380: 2be4 723e 6985 35bf eb19 95bf fc38 60bf
00000390: ad77 48bf 2724 63bf 023e d5bf d8b9 8abe
000003a0: dbaa 91bf 62b4 abbd 9a19 b0bd 47a9 8fbf
000003b0: 2de5 d5be a853 40bf f7c3 93bf 4329 95bf
000003c0: d233 adbe efcb 13bf ee4b 99bf d49c a4bf
000003d0: e4e7 6abf 6156 63bf fdef 74bf dbf1 b2bf
000003e0: ddf9 a8bf 20dd 57bf 677d 9fbf f259 85bf
000003f0: ba8d e9be 9f5b a2bf b134 b9bf c44e 46bf

bn1.running_mean f4 [400]
-0.78901625 1.109861 3.0631812 0.16676162 -4.3768106 -9.3455305 6.983201 0.8297827
-0.035308078 -2.8711705 5.344993 -3.3482394 -1.213368 -1.1316906 -1.4925828 -2.092076
-3.1101813 -6.5404363 3.4662213 -4.701422 -3.870136 -5.3280535 -3.794829 -3.2801962
10.172467 -6.8053694 5.8390727 -9.416206 7.2227955 1.1783512 -1.5289174 10.031461
-1.6872822 -0.8909111 -2.5928915 2.67205 -5.9815507 -2.8647788 -3.9052258 3.3049088
-0.18622276 -4.701193 0.45652586 -4.3760705 -2.524106 1.1994017 10.971823 -5.753479
1.7304447 -10.329601 2.3938303 -4.3881555 5.149665 -10.48715 2.8531716 1.9432011
-9.442832 1.015918 -2.2432168 -1.6515566 -7.4611864 -1.95792 -1.9573287 -4.206977
-5.2933893 -2.4432268 -2.494439 -6.7299833 -2.7509658 -4.7726965 -5.2565956 3.939755
6.1550922 -5.4015284 -3.5441163 -4.1114373 2.0527313 -12.992515 -0.31921962 -6.8689733
4.6011534 -6.9189568 1.8495789 0.1405885 -7.0975704 -0.21532208 0.6662844 0.1735997
-2.392259 2.4066744 -2.466321 -4.5651317 -12.302848 -3.8458018 -3.1972253 -6.816878
1.4441645 -7.370219 -1.4658519 -0.110584356 -5.0054846 6.967179 -6.8727307 -10.728125
0.78955275 -4.9176216 -1.8836973 -5.227086 -3.1637917 -3.3097634 -6.4048085 0.54576045
-3.6554842 0.40309447 -4.3116245 -3.8020651 -6.415789 -0.22690134 -12.362286 -2.62807
-5.9535537 -1.269478 3.054005 -3.5660326 -2.486614 -1.6301025 -3.7090914 5.598625
-0.9862903 -8.986531 1.0617268 -0.7182528 4.242748 2.4139135 -7.7731915 0.48326877
9.493097 -1.803993 -0.75962555 0.7416569 -6.4821043 -4.1297903 1.9658033 -6.038398
-0.91688126 -4.382074 -3.45417 7.675367 -1.7279857 -2.817847 0.17571868 -8.522977
1.8256977 -2.3921497 3.4570765 5.085193 -8.405939 -2.6951756 -2.2655427 -0.7470575
-1.4435551 -7.18791 -6.1576204 4.779288 -3.2248867 -2.338696 -2.9044137 -5.9663324
-4.705836 -1.9988523 -1.2940489 -1.2258109 8.729071 0.080623984 -6.8614054 -2.2777786
-5.8762236 -4.6697826 1.9836947 1.961898 5.3405347 -7.8264046 2.0885222 -5.475674
0.25427353 2.4292984 6.2843685 5.617309 -5.316327 2.9115617 -3.7544978 3.303729
-2.0492067 1.2922283 -0.19815594 0.2111941 -8.420806 -3.5183225 -0.7068211 0.067981265
1.6702178 -2.8634722 5.10669 -3.468128 -2.130127 -8.343153 -2.6057584 -1.6464025
-1.9527116 5.7900186 4.744608 -8.473431 8.977908 -1.2768959 0.9416356 -3.7471886
-3.1670172 3.5632613 4.8754272 -0.34776953 -6.9738574 1.8694817 -0.63772625 5.953092
2.96292 5.6032443 3.9459035 -8.53609 8.50857 -0.56638825 -1.3363827 -8.476306
-0.3374841 0.10433975 1.5194345 0.05415737 3.308216 3.7373722 -1.7956557 2.0459101
6.3752184 -2.516487 -3.2653692 0.51504654 -0.68092793 -5.477152 -6.3578663 -4.211958
-6.343709 -2.1390762 -0.9575338 -12.481561 0.26600304 -2.6284702 -0.48765364 5.6591616
00000000: f8fc 49bf ed0f 8e3f 290b 4440 8fc3 2a3e
00000010: d50e 8cc0 4b87 15c1 6276 df40 a46c 543f
00000020: 349f 10bd 42c1 37c0 2f0a ab40 8e49 56c0
00000030: a54f 9bbf 3ddb 90bf f40c bfbf 93e4 05c0
00000040: 360d 47c0 414b d1c0 92d6 5d40 0d72 96c0
00000050: 4fb0 77c0 6a7f aac0 7ade 72c0 bcee 51c0
00000060: 6dc2 2241 96c5 d9c0 afd9 ba40 c8a8 16c1
00000070: 2421 e740 36d4 963f 91b3 c3bf dd80 2041
00000080: ddf8 d7bf c012 64bf eff1 25c0 de02 2b40
00000090: dd68 bfc0 8958 37c0 38ef 79c0 a083 5340
000000a0: 2eb1 3ebe 2c70 96c0 c2bd e93e c508 8cc0
000000b0: f48a 21c0 ff85 993f 968c 2f41 801c b8c0
000000c0: 367f dd3f 0c46 25c1 8434 1940 c56b 8cc0
000000d0: 0eca a440 5ecb 27c1 5d9a 3640 d0ba f83f
000000e0: d715 17c1 9a09 823f dd90 0fc0 3566 d3bf
000000f0: 0ac2 eec0 1f9d fabf bf89 fabf 8e9f 86c0
00000100: 7263 a9c0 d45d 1cc0 e3a4 1fc0 065c d7c0
00000110: d30f 30c0 eeb9 98c0 0836 a8c0 f224 7c40
00000120: 84f6 c440 52d9 acc0 cdd2 62c0 e590 83c0
00000130: f35f 0340 57e1 4fc1 c170 a3be a1ce dbc0
00000140: a63c 9340 1868 ddc0 00bf ec3f 6ff6 0f3e
00000150: 4c1f e3c0 647d 5cbe 9d91 2a3f 1fc4 313e
00000160: c51a 19c0 f406 1a40 34d8 1dc0 8f15 92c0
00000170: 77d8 44c1 9e21 76c0 579f 4cc0 dd23 dac0
00000180: 62da b83f d6d8 ebc0 09a1 bbbf 0d7a e2bd
00000190: ee2c a0c0 21f3 de40 69ed dbc0 66a6 2bc1
000001a0: 2120 4a3f 285d 9dc0 fe1c f1bf 4a44 a7c0
000001b0: 907b 4ac0 2ad3 53c0 31f4 ccc0 f5b6 0b3f
000001c0: 74f3 69c0 6662 ce3e d4f8 89c0 0955 73c0
000001d0: 254e cdc0 d358 68be eccb 45c1 4d32 28c0
000001e0: 8383 bec0 417e a2bf d174 4340 e139 64c0
000001f0: af24 1fc0 33a7 d0bf c161 6dc0 f027 b340
00000200: 857d 7cbf d5c8 0fc1 aae6 873f 6adf 37bf
00000210: 97c4 8740 8f7d 1a40 fcbd f8c0 016f f73e
00000220: bae3 1741 3ee9 e6bf d276 42bf 3add 3d3f
00000230: 666d cfc0 3e27 84c0 719f fb3f 8e3a c1c0
00000240: bbb8 6abf f339 8cc0 1f11 5dc0 9b9c f540
00000250: a32e ddbf 9b57 34c0 99ef 333e 1d5e 08c1
00000260: 76b0 e93f fb18 19c0 be40 5d40 e7b9 a240
00000270: ba7e 06c1 c27d 2cc0 a7fe 10c0 293f 3fbf
00000280: 6ac6 b8bf 5c03 e6c0 3a0b c5c0 edef 9840
00000290: 8b64 4ec0 32ad 15c0 eae1 39c0 32ec bec0
000002a0: 3596 96c0 64da ffbf 65a3 a5bf 5fe7 9cbf
000002b0: 46aa 0b41 301e a53d a290 dbc0 20c7 11c0
000002c0: 060a bcc0 dc6e 95c0 b5e9 fd3f 791f fb3f
000002d0: a9e5 aa40 e871 fac0 59aa 0540 b938 afc0
000002e0: 2430 823e a079 1b40 8c19 c940 ffc0 b340
000002f0: 5a1f aac0 0757 3a40 b149 70c0 4c70 5340
00000300: 3426 03c0 bd67 a53f 64e9 4abe 4443 583e
00000310: 9fbb 06c1 322c 61c0 3af2 34bf c339 8b3d
00000320: b2c9 d53f 2143 37c0 016a a340 cff5 5dc0
00000330: 0054 08c0 8e7d 05c1 bfc4 26c0 51bd d2bf
00000340: 74f2 f9bf d547 b940 d4d3 9740 2c93 07c1
00000350: 83a5 0f41 5371 a3bf 080f 713f f0d1 6fc0
00000360: 69b0 4ac0 790c 6440 8003 9c40 d90e b2be
00000370: d729 dfc0 2d4b ef3f 0742 23bf bb7f be40
00000380: 7ba0 3d40 c74d b340 af89 7c40 d393 08c1
00000390: 1a23 0841 d2fe 10bf 970e abbf f39e 07c1
000003a0: b7ca acbe 14b0 d53d d47c c23f 1ed4 5d3d
000003b0: d0b9 5340 1b31 6f40 0cd8 e5bf 31f0 0240
000003c0: ca01 cc40 1f0e 21c0 cffb 50c0 17da 033f
000003d0: 4b51 2ebf d444 afc0 a473 cbc0 5cc8 86c0
000003e0: aaff cac0 a0e6 08c0 ef20 75bf 79b4 47c1
000003f0: 8d31 883e db38 28c0 bdad f9be da17 b540

bn1.running_var f4 [400]
68.62897 53.626995 67.117645 57.89484 79.19625 80.294044 92.70866 68.308586
52.453167 18.768639 25.275253 10.246203 45.529938 54.60748 159.64598 53.16875
48.947613 79.189514 27.45911 37.00458 80.2699 112.087814 49.2023 70.15659
69.20394 101.187904 99.980965 49.036335 60.31987 81.8781 85.33434 29.510431
34.105274 34.934387 72.97223 297.0312 20.48199 46.491898 22.133518 139.82474
88.39468 73.99019 42.151627 46.02491 82.65329 254.69275 96.780235 41.90713
18.644812 145.93585 118.38175 106.9923 43.479538 98.8689 11.454431 78.15035
63.920036 77.200066 57.96262 44.30838 61.745415 65.68673 42.95999 48.25635
81.32977 29.959154 70.63201 44.31835 35.781887 229.48708 120.74909 54.915253
74.97643 58.755783 8.00079 75.85627 57.15645 55.85388 80.40066 139.44308
33.979557 80.38065 60.21033 46.410927 244.6929 0.1365902 106.295746 80.72247
35.72065 78.08552 38.896797 68.36601 83.12514 103.11322 55.463253 104.36476
51.855938 69.174446 57.431335 101.375824 175.39792 69.057655 74.4544 61.058884
28.84032 113.01088 38.617825 30.833408 56.987087 25.629274 35.722626 70.96071
67.82333 20.419264 55.075024 71.94725 47.081543 93.0738 179.27054 77.578995
62.87713 89.7789 205.34914 39.00698 60.506336 136.27612 23.829172 86.637856
22.056864 30.556643 74.81099 37.9807 81.36608 20.401222 76.02445 8.636442
40.688637 90.343 47.426125 78.21881 72.77303 82.67417 25.293955 75.882744
45.17774 55.272133 115.70229 103.6629 130.26016 110.21979 47.007 141.3669
56.969147 98.62766 81.27989 68.49112 23.381445 27.938774 73.63485 19.47069
59.32306 25.10115 81.108505 102.43481 42.07382 78.54403 94.561646 59.759483
9.543014 24.109106 24.651093 95.240326 70.97278 8.729371 171.63547 26.0799
65.45435 42.62959 25.371084 153.15497 62.244175 43.650894 126.491035 76.807465
18.508684 251.54349 79.40801 71.58742 49.124844 59.019726 62.541435 31.359118
63.651955 122.63826 0.027715197 69.84782 105.57299 40.561264 43.45494 57.832344
11.758602 74.50364 24.55352 159.93001 65.76938 100.29462 7.6940784 59.056232
62.66177 129.76303 9.222046 27.495869 30.196756 90.884125 93.36095 50.976467
70.100655 41.01527 99.790375 58.259647 76.20295 209.8626 37.480762 116.82224
20.469917 50.948654 45.90041 24.653973 58.523262 27.963028 56.153126 35.51402
90.72084 0.3829099 136.92079 60.47709 157.689 44.836056 36.30811 43.55556
45.43085 46.588177 53.089497 36.84789 60.05669 78.30753 51.38413 85.98337
85.70287 45.158222 26.12278 72.47505 41.95649 30.403183 93.46505 21.22851
00000000: 0842 8942 0b82 5642 3c3c 8642 5194 6742
00000010: 7b64 9e42 8d96 a042 d56a b942 ff9d 8842
00000020: 0bd0 5142 2c26 9641 b833 ca41 73f0 2341
00000030: a81e 3642 0f6e 5a42 5fa5 1f43 cdac 5442
00000040: 5bca 4342 0861 9e42 42ac db41 b104 1442
00000050: 308a a042 f62c e042 28cf 4442 2d50 8c42
00000060: 6b68 8a42 3560 ca42 41f6 c742 3525 4442
00000070: 8c47 7142 96c1 a342 2fab aa42 5d15 ec41
00000080: cd6b 0842 d0bc 0b42 c8f1 9142 fe83 9443
00000090: 1edb a341 b4f7 3942 7211 b141 22d3 0b43
000000a0: 13ca b042 fafa 9342 449b 2842 8219 3842
000000b0: 7c4e a542 58b1 7e43 7b8f c142 e7a0 2742
000000c0: 9328 9541 94ef 1143 75c3 ec42 0ffc d542
000000d0: 0ceb 2d42 e0bc c542 5945 3741 fb4c 9c42
000000e0: 1eae 7f42 6f66 9a42 b9d9 6742 c83b 3142
000000f0: 4efb 7642 9b5f 8342 08d7 2b42 8106 4142
00000100: d8a8 a242 59ac ef41 9743 8d42 fe45 3142
00000110: a720 0f42 b17c 6543 897f f142 38a9 5b42
00000120: eff3 9542 ec05 6b42 3c03 0041 69b6 9742
00000130: 34a0 6442 606a 5f42 23cd a042 6e71 0b43
00000140: 11eb 0742 e5c2 a042 61d7 7042 caa4 3942
00000150: 62b1 7443 4dde 0b3e 6c97 d442 e871 a142
00000160: f2e1 0e42 c92b 9c42 5296 1b42 66bb 8842
00000170: 1240 a642 f839 ce42 5fda 5d42 c2ba d042
00000180: 7b6c 4f42 5159 8a42 b0b9 6542 6cc0 ca42
00000190: de65 2f43 851d 8a42 a7e8 9442 4c3c 7442
000001a0: fab8 e641 9205 e242 a778 1a42 d2aa f641
000001b0: c7f2 6342 c108 cd41 f8e3 0e42 e2eb 8d42
000001c0: 8ca5 8742 a75a a341 d34c 5c42 fee4 8f42
000001d0: 8053 3c42 c925 ba42 4245 3343 7228 9b42
000001e0: 2e82 7b42 cc8e b342 6159 4d43 2607 1c42
000001f0: 7d06 7242 b046 0843 25a2 be41 9546 ad42
00000200: 7574 b041 0174 f441 3a9f 9542 3dec 1742
00000210: 6fbb a242 b435 a341 850c 9842 de2e 0a41
00000220: 2ac1 2242 9eaf b442 5ab4 3d42 0870 9c42
00000230: cb8b 9142 2d59 a542 055a ca41 f7c3 9742
00000240: 01b6 3442 aa16 5d42 9367 e742 6853 cf42
00000250: 9a42 0243 8870 dc42 2b07 3c42 ed5d 0d43
00000260: 68e0 6342 5d41 c542 4e8f a242 74fb 8842
00000270: 330d bb41 9c82 df41 0b45 9342 f9c3 9b41
00000280: d04a 6d42 28cf c841 8e37 a242 9fde cc42
00000290: 974b 2842 8b16 9d42 901f bd42 b609 6f42
000002a0: 2fb0 1841 73df c041 7035 c541 0c7b be42
000002b0: 10f2 8d42 81ab 0b41 aea2 2b43 a3a3 d041
000002c0: a1e8 8242 b384 2a42 fbf7 ca41 ac27 1943
000002d0: 09fa 7842 849a 2e42 69fb fc42 6c9d 9942
000002e0: c911 9441 228b 7b43 e7d0 9e42 c22c 8f42
000002f0: d77f 4442 3314 6c42 6e2a 7a42 79df fa41
00000300: 9a9b 7e42 ca46 f542 fb0a e33c 15b2 8b42
00000310: 5f25 d342 bc3e 2242 dcd1 2d42 5254 6742
00000320: 3c23 3c41 dd01 9542 9c6d c441 15ee 1f43
00000330: ec89 8342 d896 c842 e435 f640 9539 6c42
00000340: a7a5 7a42 56c3 0143 808d 1341 8af7 db41
00000350: f592 f141 acc4 b542 ceb8 ba42 e7e7 4b42
00000360: 8933 8c42 a30f 2442 ac94 c742 e109 6942
00000370: e967 9842 d3dc 5143 4dec 1542 fda4 e942
00000380: 64c2 a341 6ccb 4b42 059a 3742 563b c541
00000390: d217 6a42 48b4 df41 cd9c 6042 5b0e 0e42
000003a0: 1271 b542 c40c c43e b9eb 0843 8ae8 7142
000003b0: 62b0 1d43 1f58 3342 813b 1142 e538 2e42
000003c0: 31b9 3542 4b5a 3a42 a55b 5442 3d64 1342
000003d0: 0d3a 7042 759d 9c42 5989 4d42 7cf7 ab42
000003e0: df67 ab42 05a2 3442 74fb d041 3af3 9042
000003f0: 72d3 2742 b839 f341 1bee ba42 fdd3 a941

fc2.weight f4 [300, 400]
-0.27640653 0.59679633 0.44218674 0.31796563 0.68717647 0.16291875 -0.38957596 -0.8189894
-1.9603183 -0.6610265 -2.3301923 -1.3502353 -2.6581762 -0.1229005 -1.5331194 1.2684696
0.3719341 -0.7276543 -0.6331413 -3.1272597 1.7667327 -0.6319081 -1.3433915 -0.5385495
-1.0663784 -0.894038 -1.4964875 -0.5153842 1.9609157 1.6443735 1.017114 2.450501
2.1730597 -2.0871208 -0.627459 -0.21568172 -3.4667134 0.8563352 -1.2225894 -0.32205585
-0.32948428 0.5448558 -0.12888609 -3.242151 -1.5915827 0.44650713 -0.7578734 -0.57555526
0.14996755 -1.3891265 -0.53982705 -0.2967551 -1.827186 -0.21868934 -1.2777344 0.2211389
-1.9866388 0.9256788 -0.7786569 -1.583893 0.8670052 -0.96922255 -5.1982417 0.88842434
-0.8380195 -1.2676585 3.1010842 -1.2109606 0.014540627 -0.27961484 1.1994712 2.3726904
1.2283235 -0.42819825 -0.8854635 2.9115663 0.35086972 -0.7243756 -1.6208957 1.172441
0.94789016 0.53692865 -5.3422337 1.3179594 -0.51727206 0.002927248 -0.90706676 1.1440245
-0.5249551 1.0181383 -0.17269737 2.1887457 -0.4189509 1.7823739 -1.4181552 -0.5067441
-1.9800113 -1.6527016 -1.8394887 -0.7419626 0.93233544 0.67108685 -0.8911074 0.22685203
-0.48741516 -0.45903844 -0.44133207 0.03454692 0.34614888 1.8247646 -1.4359864 1.977361
-1.5227475 -0.9423388 0.5824012 1.3226774 -1.9552327 1.3593647 -0.51698524 -1.3507816
0.40338007 -0.6154054 0.8873655 -0.19110557 -0.43934795 1.804113 -1.1118586 -0.4151425
-0.016160587 -1.513984 0.36028984 -1.3752881 -0.77479047 -1.8143866 -0.3221736 0.5195058
0.6830476 -1.9717126 -0.12157378 -0.87162584 -0.8013567 0.09733587 -3.4696703 -0.31534323
1.4449532 -1.2844245 -1.1686748 1.3015908 0.0015213756 -0.03409811 1.1244564 0.604211
-0.09971155 0.08523636 -1.4805428 -0.654027 -0.19640122 -1.1963234 -0.51458836 -4.103904
1.102472 -1.9615141 -1.5636631 -0.7981199 0.84034705 1.2736375 1.7162395 -1.8296044
-0.31201425 -1.7020358 0.7575829 0.19571367 -0.26275855 -0.53801644 -2.2917123 -1.0186167
0.5312854 1.0317919 -0.4758291 -0.16998833 0.5632879 0.06494792 -1.045077 -0.3554306
-0.15922178 0.31751493 -0.90681714 0.0936742 0.2089283 0.5630701 -2.1119561 -1.2521847
-0.59056944 -1.4310316 -0.03945403 0.8978465 0.6393118 -1.8627422 -0.31647038 2.0011914
-0.7784453 2.1175854 3.302588 1.1949517 0.026798105 0.21999907 -1.7697892 1.9398426
-0.08516764 -1.9450268 0.044370428 -0.2957623 -1.2606071 0.606645 -2.1120293 1.4496952
-0.151784 -0.54186714 0.86575645 -0.8104179 -0.094011515 -0.26023272 -0.25202262 -0.14612648
0.9289121 0.24810164 -0.38912493 -1.5065076 -0.09262006 -1.8673958 -1.0927821 -4.1476207
-1.5015111 0.045974243 0.46739724 1.3382424 0.84418106 0.785636 -0.6389824 -1.145348
-1.542627 1.0262376 -1.4525963 -0.6796822 -2.254899 -1.2751671 1.322035 -0.24688861
-1.4817228 -1.4489042 -3.303993 -2.0262377 -3.071846 1.8175246 0.5042391 -0.94994485
00000000: 2885 8dbe a5c7 183f 4d66 e23e 64cc a23e
00000010: ccea 2f3f 2cd4 263e 8076 c7be 4aa9 51bf
00000020: b6eb fabf 0839 29bf df21 15c0 83d4 acbf
00000030: 8f1f 2ac0 42b3 fbbd 423d c4bf 365d a23f
00000040: 256e be3e 8d47 3abf 8c15 22bf 0625 48c0
00000050: 4c24 e23f bbc4 21bf 41f4 abbf 61de 09bf
00000060: 167f 88bf addf 64bf e78c bfbf 38f0 03bf
00000070: 49ff fa3f d57a d23f cb30 823f 02d5 1c40
00000080: 6913 0b40 6393 05c0 27a1 20bf abdb 5cbe
00000090: a2de 5dc0 c938 5b3f cf7d 9cbf 81e4 a4be
000000a0: 2ab2 a8be ab7b 0b3f b7fa 03be 677f 4fc0
000000b0: fbb8 cbbf 959c e43e fe03 42bf 9757 13bf
000000c0: 1891 193e e6ce b1bf 1b32 0abf 49f0 97be
000000d0: 3be1 e9bf 19f0 5fbe cd8c a3bf 3c72 623e
000000e0: 2e4a febf 49f9 6c3f 0f56 47bf 01bd cabf
000000f0: 0ef4 5d3f f81e 78bf ff57 a6c0 c76f 633f
00000100: 7288 56bf a242 a2bf 2a78 4640 c200 9bbf
00000110: cf3b 6e3c ad29 8fbe 4688 993f 29da 1740
00000120: b439 9d3f cd3c dbbe bcad 62bf 1a57 3a40
00000130: 32a5 b33e ae70 39bf 8379 cfbf 8c12 963f
00000140: eea8 723f 2874 093f 94f3 aac0 e5b2 a83f
00000150: f16b 04bf 12d7 3f3b 8735 68bf 656f 923f
00000160: 7563 06bf 5b52 823f 94d7 30be 6914 0c40
00000170: bb80 d6be d424 e43f 1c86 b5bf fbb9 01bf
00000180: 0371 fdbf ba8b d3bf 5e74 ebbf 43f1 3dbf
00000190: 89ad 6e3f 59cc 2b3f 9d1f 64bf e64b 683e
000001a0: 7b8e f9be 1607 ebbe 47f6 e1be 1281 0d3d
000001b0: 6d3a b13e e391 e93f 67ce b7bf 2a1a fd3f
000001c0: 64e9 c2bf 1e3d 71bf 3f18 153f 7e4d a93f
000001d0: 1145 fabf aaff ad3f 2559 04bf 69e6 acbf
000001e0: d587 ce3e 358b 1dbf 632a 633f 2eb1 43be
000001f0: 37f2 e0be 2ded e63f 6251 8ebf 8f8d d4be
00000200: 3563 84bc 3aca c1bf e977 b83e 7109 b0bf
00000210: ab58 46bf d23d e8bf f0f3 a4be 55fe 043f
00000220: 35dc 2e3f 1461 fcbf adfb f8bd df22 5fbf
00000230: b625 4dbf 0758 c73d 140f 5ec0 ab74 a1be
00000240: 3af4 b83f 0668 a4bf 2397 95bf 879a a63f
00000250: e568 c73a 76aa 0bbd 30ee 8f3f 92ad 1a3f
00000260: 9235 ccbd 6790 ae3d 6d82 bdbf 506e 27bf
00000270: 671d 49be 2021 99bf 10bc 03bf 2e53 83c0
00000280: cd1d 8d3f e512 fbbf 1d26 c8bf 9651 4cbf
00000290: fc20 573f 8e06 a33f bcad db3f 7a30 eabf
000002a0: 55c0 9fbe 4fdc d9bf f4f0 413f 2a69 483e
000002b0: 4a88 86be 72bb 09bf 6aab 12c0 0862 82bf
000002c0: 5202 083f c211 843f df9f f3be 6c11 2ebe
000002d0: a333 103f 6a03 853d 15c5 85bf 00fb b5be
000002e0: 090b 23be 5191 a23e 2b25 68bf 42d8 bf3d
000002f0: 4df1 553e 5d25 103f 4a2a 07c0 9747 a0bf
00000300: 8f2f 17bf 0b2c b7bf 8d9a 21bd 45d9 653f
00000310: f0a9 233f 566e eebf 6808 a2be 8513 0040
00000320: 3148 47bf 8586 0740 9a5d 5340 2df4 983f
00000330: b387 db3c 7047 613e 7488 e2bf c34c f83f
00000340: 5f6c aebd a3f6 f8bf c4bd 353d 286e 97be
00000350: 935b a1bf 164d 1b3f 7d2b 07c0 9d8f b93f
00000360: 446d 1bbe ceb7 0abf 37a2 5d3f 8c77 4fbf
00000370: 1c89 c0bd 393d 85be 1c09 81be 2ea2 15be
00000380: 2fcd 6d3f 5b0e 7e3e 623b c7be 3ed5 c0bf
00000390: 96af bdbd d306 efbf 49e0 8bbf 4fb9 84c0
000003a0: 8431 c0bf 7d4f 3c3d b14e ef3e 874b ab3f
000003b0: 401c 583f 711f 493f 5a94 23bf c39a 92bf
000003c0: cd74 c5bf c15b 833f adee b9bf a7ff 2dbf
000003d0: 4450 10c0 ad38 a3bf 7138 a93f 5ed0 7cbe
000003e0: 18a9 bdbf b175 b9bf 9f74 53c0 e1ad 01c0
000003f0: 2099 44c0 a5a4 e83f d015 013f 962f 73bf

fc2.bias f4 [300]
-0.93932027 -0.36966038 -0.989204 -0.11678689 -0.99461263 -0.049258377 -0.4120033 -0.7321676
-1.4880548 -0.76681423 -0.05348973 0.15444365 -0.6726236 -0.7212326 0.08465014 -0.16566105
-0.10050179 -1.3589354 1.2413771 -0.14708537 -1.668627 -0.93906766 -0.14773992 -0.49488273
-1.2643654 -0.7621573 -0.1792642 -1.4006839 0.21798451 -0.03535311 -1.4220546 0.36175957
-1.2495843 -1.0844665 -1.0492253 -0.6246485 -0.036053598 -0.42319155 -0.08458346 -1.4429609
-1.7443895 0.026879622 -1.2888762 0.38802704 -1.0946218 -1.2795895 -0.30658758 -0.23905274
-0.8089709 -0.22114384 -1.5250502 -0.0652947 -0.012140435 -0.98352456 0.023541078 -0.03593268
-0.21993397 -0.592297 0.2266076 -0.56442124 -1.082312 -1.3712142 -0.30915835 0.6639761
-1.4336735 -2.4446595 -0.5262719 -0.30988902 -0.7072396 -0.7095244 0.17451818 -1.3397486
0.30149603 -1.4092957 -0.26186725 -0.11752956 -0.023088353 -0.1005915 -1.4395956 -0.031895764
-0.08558038 -0.121927164 -0.23050472 -1.6157117 -1.1011941 -0.13044992 -0.54254913 -0.6586657
-1.0083971 -0.009301177 -1.0342774 -1.1422848 -0.12520523 -0.030379875 -0.06214055 -0.6041016
-1.6479561 -0.291478 -0.46793327 -0.38140583 -1.4090832 -0.50997275 0.12523733 -0.9017642
-0.042159386 -1.1748877 -1.4058039 -0.11697586 -0.17440842 -1.0855715 -1.7257352 -2.2073357
-1.9903728 0.41647857 -1.1394116 -0.6975236 -1.161232 -0.719342 -1.2021827 -0.03231172
-0.03564169 -0.29916877 -1.5639488 -0.12421109 -0.091508396 -0.48300627 -0.11308413 -1.1043972
-0.7338483 0.1632248 -0.43803996 -0.08159402 -0.13938704 -0.74000454 0.22222963 0.31296092
-0.22673589 -0.5706446 -1.4366331 -0.19696264 -0.16082668 -0.044178836 -1.0695307 -0.025666116
-1.0740675 -0.7406527 -0.5455294 0.5877976 -1.6900371 -1.4688305 0.6323682 -0.012945387
0.47044498 -0.6422176 -1.1622949 -0.11209054 -0.6058124 -0.60786307 -1.1536788 0.48766926
-0.15949795 0.030913824 -0.55898684 -0.44125623 -2.1901135 0.16110319 -0.53199136 0.426988
-0.8244423 -1.0324154 -0.9838105 -0.3819786 -0.46591604 -0.10189066 -0.713417 -0.2807308
-0.14744638 -1.0958393 -1.5451678 -0.027781181 -0.72242767 -0.5339517 -1.3310474 -0.703461
-1.0350866 -0.5874002 -0.30235872 -0.026621606 -0.4059184 -1.3147614 -0.3968579 -0.0026566032
-0.30444828 -1.2307699 -0.7711447 -0.3111182 -0.2618425 -1.2902709 -0.48840836 -0.6597599
-0.966671 0.029043863 -0.4049717 -0.090251505 0.10988775 -0.5804926 -0.6171282 0.13662283
-0.56979096 -1.1277968 -1.964164 -0.8524766 -0.757776 -1.4081714 -0.7924391 0.2635249
0.21468814 -1.1765039 -0.8938435 -0.51635665 -1.8557351 -0.101925164 -2.0335076 -0.68648595
-1.4729372 -0.5823287 -0.5311842 -0.2371861 -0.06571075 0.36543015 -0.053818855 1.0452943
-1.2080641 -0.001344109 -0.93166727 -1.1882998 -0.60638624 -0.17595324 -1.1456566 -0.11243867
0.04821242 -1.4734457 -0.17961107 -0.2570897 -0.12944902 -1.6249506 -1.2797042 -0.5221537
-0.076968014 0.20180444 -0.18546693 0.009679181 -1.4761165 -0.94625634 -0.10671817 -0.80671173
00000000: 4b77 70bf 2044 bdbe 793c 7dbf f72d efbd
00000010: ef9e 7ebf 27c3 49bd 19f2 d2be 566f 3bbf
00000020: 9478 bebf f04d 44bf 0c18 5bbd 7a26 1e3e
00000030: 0f31 2cbf b3a2 38bf 0d5d ad3d 0da3 29be
00000040: e2d3 cdbd 98f1 adbf 72e5 9e3f 8c9d 16be
00000050: 9295 d5bf bd66 70bf 2249 17be 4561 fdbe
00000060: bad6 a1bf be1c 43bf 0991 37be 9c49 b3bf
00000070: 5537 5f3e 6cce 10bd e305 b6bf 8d38 b93e
00000080: 61f2 9fbf cccf 8abf 044d 86bf f7e8 1fbf
00000090: f0ac 13bd 90ac d8be 183a adbd f1b2 b8bf
000000a0: 2848 dfbf a732 dc3c e5f9 a4bf 7bab c63e
000000b0: 911c 8cbf 97c9 a3bf 0cf9 9cbe 3eca 74be
000000c0: b818 4fbf 8873 62be d834 c3bf 3ab9 85bd
000000d0: ade8 46bc 44c8 7bbf 38d9 c03c 252e 13bd
000000e0: 5f36 61be c7a0 17bf d30b 683e e97d 10bf
000000f0: 3389 8abf f283 afbf 014a 9ebe 56fa 293f
00000100: 9d82 b7bf 4d75 1cc0 c1b9 06bf c6a9 9ebe
00000110: a80d 35bf 64a3 35bf e5b4 323e e27c abbf
00000120: b05d 9a3e cd63 b4bf 7713 86be 57b3 f0bd
00000130: c923 bdbc eb02 cebd ab44 b8bf 22a5 02bd
00000140: c444 afbd f3b4 f9bd 6e09 6cbe a4cf cebf
00000150: eef3 8cbf aa94 05be 80e4 0abf 519e 28bf
00000160: 2813 81bf f763 18bc 3463 84bf 6336 92bf
00000170: cd35 00be 37df f8bc 1787 7ebd 67a6 1abf
00000180: 3af0 d2bf 9b3c 95be f394 efbe a047 c3be
00000190: d75c b4bf 938d 02bf 373e 003e 05da 66bf
000001a0: 52af 2cbd b862 96bf 62f1 b3bf 0a91 efbd
000001b0: 1f98 32be 02f4 8abf e4e4 dcbf fd44 0dc0
000001c0: 89c4 febf ae3c d53e 3dd8 91bf e890 32bf
000001d0: 40a3 94bf cc26 38bf 1fe1 99bf 4b59 04bd
000001e0: 05fd 11bd a62c 99be 792f c8bf 6262 febd
000001f0: c168 bbbd 994c f7be a798 e7bd e35c 8dbf
00000200: 7bdd 3bbf 6724 273e c646 e0be c41a a7bd
00000210: 7abb 0ebe f070 3dbf 2a90 633e 6a3c a03e
00000220: 742d 68be c415 12bf 98e3 b7bf 93b0 49be
00000230: c0af 24be def4 34bd 62e6 88bf bf41 d2bc
00000240: 0b7b 89bf 6a9b 3dbf d1a7 0bbf e779 163f
00000250: 2353 d8bf a302 bcbf e2e2 213f e318 54bc
00000260: 2ade f03e 5f68 24bf 14c6 94bf ba8f e5bd
00000270: 8516 1bbf ea9c 1bbf bfab 93bf c9af f93e
00000280: 6e53 23be fd3e fd3c c319 0fbf 56ec e1be
00000290: d22a 0cc0 3cf8 243e 9630 08bf 2c9e da3e
000002a0: a70e 53bf 3026 84bf 01db 7bbf b392 c3be
000002b0: 8c8c eebe 0dac d0bd 7fa2 36bf f3bb 8fbe
000002c0: 2ffc 16be 7644 8cbf 0fc8 c5bf 5c95 e3bc
000002d0: 05f1 38bf 0fb1 08bf c35f aabf 0516 34bf
000002e0: b87d 84bf dc5f 16bf c3ce 9abe 8e15 dabc
000002f0: 89d4 cfbe 1a4a a8bf f530 cbbe 681a 2ebb
00000300: a5e0 9bbe de89 9dbf bd69 45bf e24a 9fbe
00000310: 3810 86be 9927 a5bf a910 fabe 06e6 28bf
00000320: c077 77bf 65ed ed3c 7358 cfbe c8d5 b8bd
00000330: d40c e13d 2a9b 14bf 1dfc 1dbf dbe6 0b3e
00000340: d2dd 11bf a55b 90bf ba69 fbbf e83b 5abf
00000350: 9cfd 41bf f63e b4bf 4add 4abf bcec 863e
00000360: 35d7 5b3e ae97 96bf edd2 64bf f32f 04bf
00000370: ba88 edbf 24be d0bd fd24 02c0 8bbd 2fbf
00000380: 3589 bcbf 7e13 15bf b0fb 07bf eae0 72be
00000390: 5c93 86bd a919 bb3e 2971 5cbd 34cc 853f
000003a0: d8a1 9abf d02c b0ba bf81 6ebf 351a 98bf
000003b0: 213c 1bbf 162d 34be e0a4 92bf 3f46 e6bd
000003c0: 637a 453d de99 bcbf f7eb 37be 43a1 83be
000003d0: 498e 04be 62fe cfbf 59cd a3bf ddab 05bf
000003e0: 68a1 9dbd d3a5 4e3e 0beb 3dbe 6d95 1e3c
000003f0: 63f1 bcbf db3d 72bf 0e8f dabd a984 4ebf
