0709_181238_critic.pth (torch_old, 549487 bytes, 9 tensors)

fcs1.weight f4 [400, 33]
000000 f8 d6 81 3e f6 a6 6c bf 29 a7 d1 3e f5 22 77 40
       0.2535932 -0.9244226 0.40947846 3.8615086
000010 4a b8 ce bd b0 25 e3 3d ee ca a4 bf dd 40 81 3d
       -0.10093744 0.11091173 -1.2874429 0.063112
000020 e6 3e 43 be ec 17 ca bd 14 78 ea 3d 29 64 3d bd
       -0.19066963 -0.09867844 0.11448684 -0.0462381
000030 ce 41 96 3e c0 80 10 3e 6b fd a3 3f 03 d2 c9 3c
       0.2934708 0.14111614 1.2811712 0.024636274
000040 a6 f7 89 3e ec c4 c3 3e 06 86 1b 40 ce 3a 0a 40
       0.26946753 0.38236177 2.4300551 2.1598392
000050 99 6f 24 3d ba b6 11 3e 9b 13 3b be 6b 70 9a 3e
       0.04014549 0.14229861 -0.18269198 0.30163893
000060 4d 40 f6 3d 51 fc ba 3b 81 17 ea 3b 23 85 ab 3c
       0.12023983 0.005706348 0.007143915 0.020937508
000070 6f e4 01 bf 3d 42 17 bd ab 79 e7 3b ca 47 c9 3c
       -0.50739187 -0.036928404 0.0070640645 0.024570365
000080 91 3d 42 41 bf 4b e5 be 7a 89 b8 bf 70 55 7b 3f
       12.140031 -0.44784352 -1.4416955 0.9817724
000090 fb 69 a4 bf 3a e9 12 c0 c9 d1 1c c0 c3 d6 a2 3f
       -1.2844843 -2.295485 -2.4503043 1.272179
0000a0 0b 84 8d bf aa 25 fd be 50 07 81 3f f5 72 88 3d
       -1.1055921 -0.49442798 1.0080357 0.06662551
0000b0 da ce af bf 9e 4f b1 3f d0 bf 02 3f dd cd 68 3f
       -1.3735001 1.3852422 0.5107393 0.9093912
0000c0 71 1b 8e bf 55 9e 81 bf 6a f2 8d 3e 7d 3e 66 bf
       -1.1102124 -1.0126444 0.2772401 -0.899391
0000d0 9c c1 fa bf e0 ad ad be ea 3b e7 bf b3 74 67 3f
       -1.9590335 -0.3392172 -1.8065159 0.90412444
0000e0 a2 40 40 bf be 0e 5c bf d0 92 94 3f 04 58 4a be
       -0.7509862 -0.85959995 1.1607304 -0.19760138
0000f0 c3 34 e9 bc 77 86 27 bf 24 8d 59 3c e5 39 d4 3c
       -0.028467542 -0.6543955 0.013278279 0.025906513
000100 70 70 96 bb 43 4c 1e c0 e9 c7 25 3f 63 6c f4 bf
       -0.0045910403 -2.4734046 0.64758164 -1.9095577
000110 b4 36 9c 3f dc 39 0a 40 07 cf fd 3f 4f fc 16 c0
       1.2204194 2.1597815 1.9828805 -2.3591497
000120 ce 20 85 3f 01 ce dc bd 4e 4a d8 3e 4c 8a 3c bf
       1.0400636 -0.107814796 0.4224419 -0.73648524
000130 89 d6 2d 3e 72 a3 82 be d4 a7 2b bf 44 9a 0b bf
       0.1697637 -0.25515324 -0.6705296 -0.54532266
000140 5b 1f 9a 3f 1e 83 7c bf 5f fe 28 bf df 6f 5a be
       1.2040819 -0.9863757 -0.6601314 -0.21331738
000150 9d ec 08 c0 35 42 5d bf 14 df f2 be 02 3e 93 be
       -2.1394417 -0.8642915 -0.4743582 -0.28758246
000160 12 7d ef 3e e3 04 33 bd 6a 56 aa be 51 cc b3 be
       0.4677511 -0.043705832 -0.33269054 -0.3511682
000170 b8 ca 82 3f 3a 5a 1b 3d ec be c2 bc 4c 36 09 bd
       1.0218115 0.037927844 -0.02377268 -0.033499047
000180 74 72 8f bc c0 01 d4 bb f0 32 39 bf 90 20 bc 3f
       -0.01751063 -0.006469935 -0.7234335 1.4697437
000190 4c 3c b5 be f0 5d cc bf 3e cd 21 be 4c 22 f2 3f
       -0.35397565 -1.5966167 -0.1580095 1.8916717
0001a0 77 34 11 c0 e4 f0 f7 bf 85 e8 b6 bd 84 9a 63 bf
       -2.2688272 -1.9370389 -0.08931068 -0.8890765
0001b0 1f 66 53 be db 39 ce 3d 2d 5d 76 3e fe ab a8 be
       -0.20644425 0.10069629 0.24058981 -0.3294372
0001c0 37 6f 46 3e 41 d5 18 3f 4c 7d 64 3f c0 0e f3 be
       0.19378363 0.597004 0.8925369 -0.4747219
0001d0 84 31 00 c0 8a 49 22 c0 1a ab f0 bf 80 8f 93 3e
       -2.0030222 -2.5357385 -1.8802216 0.2882042
0001e0 e8 bd 68 be 44 ea ac 3d 81 67 07 3d d0 c9 ff 3e
       -0.22728693 0.0844312 0.033057693 0.49958658
0001f0 4c 80 8a be c8 d1 3b 3f 42 25 87 3c 98 48 e8 3d
       -0.27051008 0.73366976 0.016497258 0.11341971
000200 5d 5f dc bc 4e c8 f3 3c 2a 92 a7 bc 27 a8 6b c0
       -0.026900942 0.029758599 -0.020455439 -3.6821382
000210 4e b6 0e bf d4 37 c5 be 0d 83 9e 3f f1 5b 9e 40
       -0.55746925 -0.38519156 1.2383744 4.9487233
000220 23 31 1c c0 45 4e 60 c0 5c 84 ea bd 88 2a 9c 3e
       -2.440499 -3.5047772 -0.11451027 0.305012
000230 5b 13 45 bf 8e b5 1d bc 7d fb c4 3e dd 50 1b be
       -0.7698266 -0.009625806 0.3847312 -0.15167566
000240 a2 e6 b4 3d 93 ab 9a 3f 8d e0 ae bf 97 95 02 3f
       0.08833052 1.208361 -1.3662277 0.51009506
000250 3e e4 db 3f 9b 5b 6e be 16 ff 24 bf 7c b8 98 3f
       1.7179029 -0.23277132 -0.6445173 1.19313
000260 83 dd dc be 03 95 8a be e3 e5 52 bf f5 97 4f 3c
       -0.4313775 -0.27066812 -0.8238203 0.012670507
000270 ee 1c a6 bd cc 5b 9c be 6c fc 25 bd f6 cb 18 3d
       -0.08110987 -0.30538785 -0.04052393 0.037303887
000280 f5 ce b8 bf 88 40 79 bc 0f 1a 85 3c 17 77 e3 bc
       -1.4438158 -0.015213139 0.016247777 -0.027766747
000290 b0 7b a6 3e 6d 04 7c bf 18 92 04 40 53 a0 89 3e
       0.3251624 -0.98444253 2.0714169 0.2688013
0002a0 a4 35 90 bf bd 34 b8 c0 9a 37 8f bf 7d 21 9c 3f
       -1.126637 -5.756438 -1.1188843 1.219772
0002b0 d8 b6 15 3e ef 2e d4 3f 00 75 85 bf 61 d6 d6 be
       0.1462053 1.6576823 -1.042633 -0.41960433
0002c0 49 10 d4 3d d5 09 6c 3f a3 b0 55 bf 88 9b b1 3f
       0.10354669 0.922025 -0.8347265 1.3875589
0002d0 3c 72 93 3f 39 72 0f 40 90 f9 ff 3e 5a 2e 08 c0
       1.1519237 2.2413466 0.4999509 -2.127829
0002e0 54 87 7d 3f 6f af b6 3e 9b 62 0c bf 20 20 f4 3e
       0.9903462 0.3568072 -0.5483796 0.4768076
0002f0 9e 92 29 be fc 6a 86 3f 09 57 74 3f ae c6 15 3f
       -0.16559836 1.0501399 0.95445305 0.58506286
000300 86 23 9c 3b 61 25 40 3e 00 f1 c1 b9 4b d6 06 bc
       0.004764977 0.18764259 -0.00036991388 -0.008229802
000310 21 49 2a 3d af 3c 3e 3f 7e 2b d2 bf 0b 68 d6 3f
       0.041573647 0.74311346 -1.6419523 1.6750501
000320 54 e0 2c 3b 5a 30 ad be 56 8c 95 bf 07 3b bf bf
       0.0026378827 -0.33825952 -1.1683452 -1.4939889
000330 ca 6c d9 bd 7d 0b 80 be 41 9f b9 3f 47 25 82 bf
       -0.10616453 -0.25008765 1.4501725 -1.0167626
000340 71 5b 4d 3e 65 f2 89 bd 76 c3 6d bd 5f c0 34 40
       0.20054413 -0.06735686 -0.058047734 2.8242414
000350 3b e9 d3 bf 09 d1 51 3f 8e 58 9d bf 0d 40 9b 3f
       -1.6555551 0.8195959 -1.229265 1.2128922
000360 05 cb 65 3f 6d bd 95 be 91 d7 bf be 91 91 4c 3e
       0.8976291 -0.29246083 -0.37469152 0.19977404
000370 40 88 13 be f9 82 36 3f 47 1d 9d bd 89 6d 23 be
       -0.14407444 0.712936 -0.076716 -0.15959753
000380 62 76 ab be 6b 75 bc 3b 86 51 46 3e 44 f2 71 3c
       -0.33488756 0.005751302 0.19367036 0.014767233
000390 6d 73 36 bd 82 cf da 3c 48 b9 37 c0 83 81 0e 3e
       -0.044543672 0.026710276 -2.8706837 0.13916592
0003a0 7a 84 0e c0 ee bd 57 3f 4d ac 1f 40 ef ab 80 bf
       -2.2268357 0.84274185 2.4948914 -1.005247
0003b0 06 a5 a9 3e e7 54 4b bd 7f 48 8c 3f d8 1c 90 3f
       0.33133715 -0.049641516 1.0959624 1.1258802
0003c0 ad 56 46 be 5a ca 83 be 1d 08 e6 bd 7e b4 d2 3e
       -0.19369002 -0.2574032 -0.11232016 0.4115333
0003d0 3d ad f7 be 63 d1 84 3f b6 e8 17 3e 8f d4 7a bf
       -0.48374358 1.03764 0.14834866 -0.9798059
0003e0 cb 36 16 c0 cb c1 11 40 6c f4 77 c0 80 49 b2 bd
       -2.3470943 2.2774532 -3.8742933 -0.08705425
0003f0 3e 47 53 be f7 e1 7c bd 47 6a b7 be 88 07 be 3e
       -0.20632645 -0.061738934 -0.3582327 0.3711512

fcs1.bias f4 [400]
000000 86 d3 29 3d cd 70 20 3e fa 7b bd 3d 9a e6 ef 3c
       0.04146149 0.1566803 0.09252162 0.029284764
000010 d9 d6 ef bd 61 07 ed 3d 2e e3 22 ba bb 6d 6c 3d
       -0.11710901 0.11573673 -0.0006213662 0.057721835
000020 ea 6c aa bd d7 17 14 be 3a ad 1e be 07 02 34 bd
       -0.08321555 -0.14462219 -0.15495768 -0.043947246
000030 f5 1c 04 be ef b9 1a be f5 8b 2d 3e 98 9f 8d 3d
       -0.12901671 -0.1510999 0.1694792 0.06915206
000040 28 37 bd bc e2 02 1e be dc dc fd bd 18 38 28 be
       -0.02309759 -0.15430787 -0.12395641 -0.16427648
000050 2b b2 31 bd 7c 33 fa 3d d0 85 ba bc c1 0f 1e 3d
       -0.043382805 0.12216851 -0.022768885 0.038589243
000060 e8 41 45 bc 72 c2 f7 3d 76 b9 2a 3e 72 73 91 bd
       -0.012039639 0.120976344 0.1667231 -0.071020976
000070 86 36 09 be 5e 1b d3 3d 13 02 f1 3d 10 e4 6d 3c
       -0.13399705 0.10307954 0.11767974 0.014519706
000080 84 da 9f bd 14 bc 2c bd 11 fa c9 3d a9 77 57 3d
       -0.078053504 -0.042171553 0.098621495 0.05260435
000090 9c bf 77 bd a7 38 49 3d 22 90 5e 3d 72 99 49 bd
       -0.060485467 0.049126294 0.054336675 -0.049218602
0000a0 34 e5 ca bd 85 1c 32 3d 75 d5 31 3d 41 99 2e 3e
       -0.09906998 0.04348423 0.04341646 0.17050649
0000b0 cd 53 e6 bc 37 da de 3c d5 c0 21 3d 54 64 a2 3d
       -0.028116131 0.027203662 0.03949054 0.07929292
0000c0 b5 7d a6 3d 07 a2 01 be 23 9c 17 3e ba 6c 0b 3d
       0.081294455 -0.12659465 0.14805655 0.034039237
0000d0 fb 12 32 3e ca 2c 0a be 36 40 1f 3e b3 44 02 3e
       0.17390053 -0.13493648 0.15551838 0.12721519
0000e0 f0 ae 89 bd 90 e2 23 be 3f 80 e7 3c 5d 24 db 3d
       -0.0672282 -0.16004395 0.028259395 0.10700295
0000f0 b9 cf ae bd 58 a4 94 3d f7 13 e6 3c 39 4f 17 3e
       -0.08535714 0.072579086 0.028085692 0.14776315
000100 1d 96 2d 3e a0 6d a2 3d b4 52 00 bd f6 01 76 bd
       0.16951795 0.079310656 -0.03132887 -0.060060464
000110 14 c0 00 3e f0 f2 ab bd e2 bd 81 bd 68 05 d4 bd
       0.12573272 -0.08395946 -0.063350454 -0.10352594
000120 2c e8 30 be 5e e1 1f 3e ff 7f e3 3d 5a 98 90 3d
       -0.17276067 0.15613315 0.11108398 0.07060309
000130 50 cd 02 3e ee a9 ff 3d 8c d1 e5 3d 7c 78 e5 bd
       0.12773633 0.124835834 0.112216085 -0.11204621
000140 58 74 e9 3d 56 9a 47 bc 6a 0a 29 3e 3e 68 1c 3e
       0.11399144 -0.012182793 0.16507879 0.1527414
000150 a2 12 1d 3d 18 11 c0 bd 05 ba 27 3e 18 be 2e be
       0.038347848 -0.093782604 0.16379555 -0.17064703
000160 bf ae 99 bd 48 00 4e 3d 4b 86 b2 3c 19 a8 06 be
       -0.07504033 0.050293237 0.021792552 -0.13150062
000170 9b eb cf bd ab 6c 05 3d 23 cb 08 bd 38 df 0f be
       -0.1015236 0.032574337 -0.03339685 -0.14049995
000180 a7 97 ce 3d 12 37 03 3e ba b8 8a bc 0a 98 b0 3d
       0.10087519 0.12813976 -0.016933788 0.08622749
000190 55 77 0e 3d cf 80 c7 3d d1 2a ef 38 e4 48 55 3d
       0.034781773 0.09741365 0.00011404383 0.052071467
0001a0 f7 6d f9 3d 03 21 58 bd 7b 7d 00 3e 3f c9 4a 3d
       0.12179177 -0.052765857 0.12547867 0.04950833
0001b0 fc 2f 10 be 63 8e 0d 3e d8 1b 8e bd 92 8c 2d be
       -0.14080805 0.13823847 -0.069389045 -0.16948155
0001c0 ae de 32 bd 43 52 30 be d4 9c 47 bd cd 60 34 bd
       -0.043669395 -0.1721888 -0.048733547 -0.04403763
0001d0 13 9e ff bd e9 e1 10 3e 4b 0f de 3d fa 98 b2 3d
       -0.12481322 0.14148678 0.10842761 0.08720584
0001e0 dd 23 24 3e be 9f 91 bd 78 43 89 3d 5d 61 07 3e
       0.16029306 -0.071105465 0.06702322 0.13220735
0001f0 c2 81 0e 3e 7f 48 7d 3d 40 ea a6 3d 25 1c 21 3e
       0.13916686 0.061836716 0.081501484 0.15733393
000200 3c 6a 15 3e 5e 20 0e be a2 c2 12 3e 67 9a 8c bd
       0.14591306 -0.13879535 0.14332059 -0.068653874
000210 93 75 e4 3d 8a 68 2d be e0 4c 1f 3e c5 e3 14 3e
       0.11155238 -0.1693441 0.15556669 0.14540012
000220 9d 21 49 bd 85 25 23 3e 22 f7 0d 3d c9 69 ec bd
       -0.04910432 0.15932281 0.034659512 -0.115436144
000230 e8 7a 8b 3d 0b 49 dd bd 88 f8 bc bd 1e 21 19 3e
       0.06810552 -0.108049475 -0.09227091 0.1495404
000240 35 b2 99 3b 8c 98 c1 bd 41 3f 2b be a0 7d 22 bc
       0.0046904334 -0.09452924 -0.16723348 -0.009917647
000250 9f 42 96 3c 41 67 ec bc 81 7a e2 3b d6 94 11 3e
       0.018342314 -0.028857829 0.0069115763 0.14216933
000260 a8 d1 22 be f4 a1 25 3d 44 1c 9f bc a9 ea 1c be
       -0.1590029 0.040437654 -0.019422658 -0.15323891
000270 eb 9e 2d be 62 39 55 bc 2d 35 2c be 7c c4 31 3e
       -0.16955154 -0.013014169 -0.1681716 0.17360109
000280 97 58 18 be 40 d8 ff bb 44 b5 f5 bb 74 a3 d0 bd
       -0.14877544 -0.0078077614 -0.007498415 -0.10187426
000290 0e a2 28 3e f3 47 dc bc d1 23 89 bd e6 24 10 3e
       0.16468069 -0.026889777 -0.066962846 0.14076576
0002a0 fa fe 66 3d 46 6d 55 bd af ee 2d be f2 a6 0a bd
       0.05639551 -0.052106164 -0.16985582 -0.033850618
0002b0 28 6e 31 bd f7 43 42 bd 79 a1 d4 3d 08 09 5f bc
       -0.043317944 -0.047428098 0.10382361 -0.013612993
0002c0 91 d9 41 3d 16 e4 10 3e 66 22 10 3b af 58 27 3e
       0.047326628 0.14149508 0.002199316 0.16342424
0002d0 77 22 96 3d 1a 75 05 be c5 84 b3 3d f6 96 92 bd
       0.073307924 -0.13032952 0.08765558 -0.071577
0002e0 aa 0c 0b 3e 58 21 4b 3d 9c 4a dd bd 38 3f d8 bd
       0.1357905 0.049592346 -0.10805246 -0.10558933
0002f0 19 33 32 be 3d 7d 2a be 45 7c e1 bd 8f 3b 37 3d
       -0.17402305 -0.16649337 -0.11010031 0.044734534
000300 fd 87 4f bd 3e b8 07 3d 60 39 18 be 65 c3 52 ba
       -0.050666798 0.03313469 -0.14865637 -0.00080399803
000310 62 32 ac bd aa 05 38 3d c4 67 f6 bd f0 87 ab 3d
       -0.08408047 0.044927277 -0.120315105 0.083755374
000320 ef 5c 92 bd 2b 75 a2 3c 66 d6 97 bd 5f 97 16 3e
       -0.07146632 0.01983126 -0.0741394 0.14706181
000330 6f 6f 88 3c 51 f7 ad 3d 52 70 8c bd 19 1a 0f 3e
       0.016654698 0.084944375 -0.06857361 0.13974799
000340 7b ca 84 bd 08 e6 e2 3d a7 59 2a 3e 88 27 b4 bd
       -0.064839326 0.11079031 0.16635762 -0.087966025
000350 c4 5a 22 3d 0e 0e 0e 3d 3f a9 fd 39 f4 09 9b 3d
       0.039637342 0.034681372 0.0004838202 0.07570258
000360 35 a1 1d 3e 3a 97 93 ba 47 0b 2e 3d 7b 02 e0 3d
       0.15393527 -0.0011260279 0.042491224 0.10937973
000370 f7 42 13 be 56 76 d1 3d fa 45 bd 3b b5 f5 01 be
       -0.14381014 0.10227649 0.005776164 -0.12691386
000380 41 ac 93 3d 16 6e a0 bd 66 3f 00 be d2 7c 67 bd
       0.07210589 -0.07833497 -0.12524185 -0.056515522
000390 31 70 c3 3c 5b f2 cc 3d c9 c1 9b bd 80 01 16 3e
       0.023857208 0.10007163 -0.07605321 0.1464901
0003a0 fa e7 f7 bd 4a 5c 02 be 7b b1 8c 3d 9e 95 26 3e
       -0.12104793 -0.12730518 0.06869789 0.16268012
0003b0 b4 ab 06 3e 55 67 00 3e 8a 1b 2f 3c 07 af 7e bd
       0.13151437 0.12539418 0.010687718 -0.062178638
0003c0 a5 1c 04 be 09 ab fe bd ee f3 59 3d e5 d8 49 bc
       -0.12901552 -0.12434966 0.053211145 -0.012319778
0003d0 ca db e7 bc 9c 56 04 bd 7f 2a e5 39 19 24 cf bd
       -0.028303046 -0.03230916 0.00043709946 -0.10114307
0003e0 04 f7 27 bd 06 16 12 3e da 58 b7 bd 51 da 5c bc
       -0.041007057 0.14266214 -0.08952494 -0.013479785
0003f0 4a 66 0d be 6c 33 8f bd 81 b7 71 3d e5 9b 99 3d
       -0.13808551 -0.0699223 0.059012894 0.07500438

bn1.weight f4 [400]
000000 35 6b 57 3f de ea e7 3e 86 40 ac 3d e4 d8 3f 3e
       0.8414796 0.45296377 0.08410744 0.18735081
000010 4d dc 36 bf 25 44 0b 3f cd 9d 25 3f 25 d8 cc 3e
       -0.714299 0.54400855 0.6469391 0.40008655
000020 14 1c eb 3e f5 9b f4 3e b5 84 0d 3f 45 6d de 3f
       0.4591986 0.47775236 0.5528062 1.7377096
000030 42 fe ec 3e bb ca b4 3e 10 d9 25 3f 66 37 d3 3e
       0.46287733 0.3531092 0.64784336 0.41253203
000040 95 0b cb ba 6c a4 94 3e fa 6e 08 3f a3 f9 97 39
       -0.0015491123 0.29031694 0.53294337 0.00028986958
000050 50 00 ab 3e ce d3 16 3f 26 b7 18 3f 40 ab c3 3e
       0.33398676 0.5891694 0.5965446 0.3821659
000060 6c 86 2e 3f a6 26 ae 3f c1 b5 46 3e 60 3f e2 3e
       0.6817386 1.3605545 0.19405271 0.44188976
000070 f2 dd 37 3b 9f 35 30 3f 81 fe 73 3e d0 5f f2 3d
       0.0028055874 0.6883182 0.23827554 0.11834681
000080 7e dc cc 3e ad bf de 3e c5 62 91 3d 12 e9 a3 3d
       0.40011972 0.43505612 0.07098917 0.08003439
000090 db 9f 84 3e b7 9e cc 3e 3a 1f 8a 3e 65 3b 47 3f
       0.2590321 0.3996484 0.2697695 0.77825004
0000a0 b2 31 c0 3e 78 5a 4e 3e 19 6c fc 3e 38 d0 b4 3e
       0.37537915 0.20151699 0.49301222 0.35315108
0000b0 df 57 04 3f d4 24 c5 3e e7 5c 11 3f e2 e7 d1 3e
       0.5169658 0.3850466 0.5678238 0.40997225
0000c0 dc 70 8e 3e 31 98 50 3f a3 f1 fb 3e f5 e6 e2 3e
       0.2782048 0.81482226 0.49207792 0.4431683
0000d0 24 28 18 3f 7b 2e 07 3f d1 b1 01 3f 2f 8d 2b 3f
       0.5943625 0.528053 0.5066195 0.67012304
0000e0 93 8e 27 3f 19 b7 28 3f d9 69 26 3f 0c 98 a4 3e
       0.65451926 0.65904385 0.6500526 0.32147253
0000f0 7f ff 96 3e 2e a5 c6 3e f9 2e ab 3e c6 5b b6 3e
       0.29491803 0.38797897 0.33434275 0.35616893
000100 89 7c 4d 3e ae cc 5e 3e d6 a5 01 3e 66 5d 88 3e
       0.20067038 0.21757767 0.12660918 0.26633757
000110 30 4f fa 3e dd 30 c9 3e 80 60 cd 3e 12 6a 13 3f
       0.4888854 0.39295092 0.40112686 0.57583725
000120 ee 7c 2d 3f 08 0b 1c 3f 9b 80 e2 3e ca 6e fe 3c
       0.6776875 0.6095433 0.44238743 0.031058688
000130 92 23 12 3e 45 93 9e 3e ff d8 da 3f 1a 73 db 3e
       0.14271381 0.30971733 1.7097472 0.42861253
000140 2a 31 05 3f af 92 d8 3e 95 af 4c 3f 90 12 1c 3f
       0.52028143 0.4229941 0.79955417 0.60965824
000150 13 97 7d 3e 83 41 04 3b 24 1e ab 3e 9c 1c 02 3f
       0.24764661 0.002018065 0.33421433 0.50824904
000160 f2 2d 59 3e ee c0 02 3f f7 da e2 3e 55 46 46 3e
       0.21208933 0.5107564 0.44307682 0.19362767
000170 76 d1 cf 3e 9c 51 d8 3e 17 b1 23 3e 1d b6 0b 3f
       0.40589494 0.42249763 0.15985523 0.5457476
000180 d3 a7 a3 3e 68 7b db 3e c2 ee c3 3e b6 a3 45 3f
       0.31963977 0.4286759 0.38268095 0.7720293
000190 4f 49 39 3f 3c fd 58 3e f5 d3 14 3f 67 a5 0a 3f
       0.72377485 0.21190351 0.5813592 0.54158634
0001a0 c5 c1 aa 3e d8 7f 2f 3f f3 bb 03 3f 23 c6 31 3f
       0.3335096 0.6855445 0.5145866 0.6944296
0001b0 da 44 f4 3e 1d 38 0a 3f f7 08 9a 3e 1c d9 07 3f
       0.4770878 0.5399187 0.30084965 0.5306566
0001c0 06 d5 07 3f 81 40 e8 3e df 5b 18 3f 00 b4 90 3e
       0.5305942 0.45361713 0.59515184 0.2826233
0001d0 81 22 05 3f 5d 75 1b 3f b3 09 13 3f 7e 99 0e 3f
       0.52005774 0.6072596 0.57436675 0.5570296
0001e0 da 93 81 3e f2 9a d1 3d 90 ca 16 3f b1 9a 22 3f
       0.25308114 0.102346316 0.58902836 0.6351729
0001f0 1e 0f 0e 3f 14 b9 09 3f 83 12 86 3e e8 f2 8e 3d
       0.55491817 0.5379803 0.26185998 0.069799244
000200 1f b2 1a 3f ad 97 7e bb 84 3e 71 3e a6 9c 9e 3e
       0.6042804 -0.003884773 0.23559004 0.30978888
000210 19 7a 51 3f 89 09 3d 3e 6b 99 28 3e 9f cc 0d 3f
       0.8182693 0.18460669 0.16464774 0.5539035
000220 a1 17 1c 3f 57 9c 5f 3f c3 a0 39 3f c2 55 92 3e
       0.60973555 0.8734793 0.7251093 0.28581053
000230 56 61 b9 3e ae 27 17 3f a9 f2 a2 3e ea 06 c9 3e
       0.36207074 0.5904492 0.3182576 0.39263088
000240 76 ea 99 3e ca a1 3f 3f 5c 9e 12 3f 1c 78 c2 3e
       0.30061692 0.74856246 0.5727289 0.3798226
000250 f5 64 a2 3e ab 9f 10 3f bc 9d 82 3e 54 4d 81 3e
       0.3171765 0.56493634 0.25510967 0.2525431
000260 ef 24 26 bc 8b 1a db 3e 5d 55 0f 3f ef 1c 5e 3f
       -0.010140642 0.42793688 0.5598963 0.867629
000270 de b2 55 3f f9 9e ff 3e 31 31 85 3e 5d cc 19 3f
       0.83476055 0.49925974 0.26014093 0.6007746
000280 8c 96 db 3e af d4 aa 3e 53 ec c9 3e 85 c8 31 3f
       0.42888296 0.3336539 0.39438114 0.69446594
000290 da 90 ec 3e be 21 c0 3e 1c 84 ba 3e 73 1d b5 3e
       0.46204263 0.37525743 0.36428916 0.3537403
0002a0 92 2c 83 3e e0 5a c1 3e eb 0e 13 3f 60 8e 0a 3f
       0.25619942 0.37764645 0.5744464 0.54123497
0002b0 8f 36 67 3a 81 4a c9 3e ee fc 02 3e bc c5 ef 3e
       0.00088200805 0.39314654 0.12791798 0.46830547
0002c0 e0 eb ed 3e b9 71 c5 3e 69 01 f8 3e c4 e3 6b 3f
       0.4646902 0.38563326 0.48438576 0.9214442
0002d0 db bb bc 3e e2 3a 03 3f 43 8a 9f 3e 77 96 3d 3f
       0.36862072 0.51261723 0.31160173 0.74057716
0002e0 31 a3 55 3f a2 2a ad 3e 14 78 00 3f 99 54 e5 3e
       0.83452135 0.3382159 0.50183225 0.44791105
0002f0 f9 b2 a8 3e b4 dc 83 3e 1f 77 43 3f db ee 4b 3f
       0.32949045 0.2575432 0.7635364 0.7966134
000300 bd 95 60 3e 14 3d 46 3e 9f e9 67 bb 9e e2 f2 3e
       0.2193212 0.19359237 -0.0035387052 0.4743852
000310 dd ee 57 3f 1e 9e ff 3e 71 57 bb 3e 1f 61 15 3e
       0.8434885 0.4992532 0.3659015 0.1458783
000320 ba 88 4a 3f 3a 36 16 3f a3 b4 0f 3f c7 ff 55 3f
       0.7911488 0.58676493 0.56135005 0.8359341
000330 ac 9c 73 3e 2b dd 2f 3f 41 68 9c 3e 84 e5 06 3f
       0.23790234 0.6869685 0.3054829 0.52693963
000340 f0 6b 26 3f 45 23 4d 39 5f c8 d3 3e 84 cc 21 3f
       0.6500845 0.00019563462 0.4136381 0.6320269
000350 da f4 9f 3e f4 f6 2e 3f a8 9b 64 3e e3 68 17 3f
       0.31241494 0.6834557 0.22325003 0.5914442
000360 c6 ea bf 3e 8c 95 f9 3d 8e 35 7d 3e 4e 90 ff 3e
       0.37483805 0.12186727 0.2472746 0.49914783
000370 86 25 22 3f 4e e9 c1 3e 5e 36 cd 3e 72 72 16 3f
       0.63338506 0.3787331 0.4008054 0.5876838
000380 cf 32 19 3f 24 63 d7 3e 74 a9 e1 3e 17 5c 64 3e
       0.5984315 0.42067826 0.44074595 0.22300754
000390 b7 f5 8b 3e 24 e8 d9 3e 5f d4 98 3e bb 47 16 3f
       0.27335903 0.42559922 0.29849526 0.587032
0003a0 5c 1b 1f 3f 01 9e 0b bc b6 bc e4 3e d3 60 6c 3f
       0.6215112 -0.008521558 0.44675225 0.9233524
0003b0 ae 14 1a 3e e8 45 23 3f ae 58 31 3f bd e2 01 3f
       0.15046951 0.63778543 0.6927594 0.507366
0003c0 69 b0 42 3f a2 5d 0e 3f 2a 19 12 3f b7 35 b8 3e
       0.7605043 0.5561162 0.5706965 0.3597848
0003d0 a8 58 0c 3f 0e f6 bb 3e 81 fc 07 3f 2f 6c 65 3e
       0.5482278 0.36711162 0.53119665 0.2240455
0003e0 fa e9 b2 3e 2d 3a 66 3f c4 af 86 3f 77 6d d7 3d
       0.34944135 0.8993252 1.052239 0.10518926
0003f0 f8 af 13 3f 95 be 91 3e ab 7d 28 3f 10 ac d5 3e
       0.5769038 0.28465715 0.65816754 0.41732836

bn1.bias f4 [400]
000000 e4 2e a3 be 3b bd ea be 65 c4 9c be 4f 86 2c bf
       -0.31871712 -0.45847496 -0.30618587 -0.6739244
000010 71 60 8b bf e8 35 58 bf 2f 64 84 bf 39 2f ff be
       -1.0888807 -0.84457254 -1.0343074 -0.49840716
000020 73 0c 55 bf 2e 35 88 bf f4 03 8a bf 5e fc ed be
       -0.8322212 -1.0641229 -1.0782456 -0.46481603
000030 fa ee 31 bf 2d 23 04 bf 28 d1 3f bf a4 09 1a bf
       -0.69505274 -0.51616174 -0.7492852 -0.6017096
000040 7e 13 e7 bc 33 b7 cd be fb d6 06 bf 7e cc 5f bc
       -0.028207537 -0.40178832 -0.52671784 -0.013659595
000050 b4 cb ff be 85 7d 58 bf e8 f9 76 bf a7 3d 68 bf
       -0.499601 -0.8456653 -0.96475077 -0.90719074
000060 dc 47 6a bf bf ad 25 be aa e8 87 bd a6 ab 6c bf
       -0.915159 -0.1617956 -0.06636174 -0.92449415
000070 93 f8 82 bd ed c6 8b bf f8 e5 4d bf e0 53 de be
       -0.06395068 -1.0920082 -0.8042903 -0.43423367
000080 ad bd 2d bf 9c aa 45 bf f0 f5 0d bf dd 6c f7 be
       -0.6786755 -0.77213454 -0.55453396 -0.48325244
000090 ef af ac be cb e5 16 bf 14 47 85 bf 6d 00 92 bf
       -0.33727977 -0.58944386 -1.0412316 -1.140638
0000a0 2b e2 97 be 86 fd 83 bf 82 5a 15 bf bb cb b8 be
       -0.2966474 -1.0311744 -0.5834123 -0.36092934
0000b0 9f 8a 83 bf c3 ee 40 bf d9 2e 76 bf fe 2a 27 bf
       -1.0276679 -0.7536432 -0.96165234 -0.65299976
0000c0 9a 32 ac bf 7e 18 2f bf f3 95 89 bf 7d 82 db be
       -1.3452942 -0.6839675 -1.0748886 -0.42872992
0000d0 0e 60 7c bf 8b b9 90 bf 26 43 44 bf bc b5 40 bf
       -0.9858407 -1.1306623 -0.7666496 -0.75277305
0000e0 3b b8 7e bf 53 8b 85 bf d1 73 9f bf 01 42 c6 be
       -0.99499863 -1.0433143 -1.2457219 -0.38722232
0000f0 48 86 9f bd 67 fc 40 bf 2b bb 7b bf 27 58 22 bf
       -0.07789284 -0.75385135 -0.9833247 -0.6341576
000100 94 61 38 bf 29 ce 3f bf 3f 8c 07 bf 5a 51 ab be
       -0.7202389 -0.7492395 -0.52948374 -0.33460504
000110 77 4a 1f bf 9e 7d 6f be 40 dd ad bf 13 d2 80 be
       -0.62223 -0.23387763 -1.3583145 -0.25160274
000120 62 d7 a1 bf 31 2d 83 bf b6 32 6e bf 7f d9 89 be
       -1.2643855 -1.0248166 -0.9304613 -0.2692375
000130 93 6e 03 bf ff 88 b5 be 7f 6a 4f bf 77 86 5f be
       -0.513406 -0.35456082 -0.81021875 -0.21828638
000140 b6 9e 35 bf 88 7a 98 bf 76 2a 3c bf 9f 17 5b bf
       -0.709453 -1.1912394 -0.7350229 -0.8558292
000150 62 f4 54 bf f1 6f 7c bd 6a bf a1 be 16 0b be bf
       -0.831854 -0.061630193 -0.3159135 -1.4847133
000160 90 8c 6a bf e5 3a 48 bf 1b de 1f bd 73 7a 7d bf
       -0.9162073 -0.78214866 -0.039030176 -0.9901497
000170 92 57 05 be 3c 4c b6 bf 60 81 a6 bd 81 15 65 bf
       -0.13021687 -1.4242015 -0.08130145 -0.8948594
000180 fc b7 9b bf d2 a3 00 bf 80 97 42 bf 45 57 9a bf
       -1.2165523 -0.5024997 -0.7601242 -1.2057883
000190 58 2e 9c bf 2e c5 9b bf 5f 50 1a bf dc 7a 8e bf
       -1.2201643 -1.216955 -0.60278887 -1.1131244
0001a0 f0 e3 a5 bf df 7b 4c bf e6 24 49 bf 72 df 30 bf
       -1.2960186 -0.7987651 -0.7857193 -0.6909095
0001b0 ef 05 5d bf 92 8a 4b bf 0e 07 a4 be b5 45 c0 be
       -0.8633718 -0.79508317 -0.32036632 -0.37553182
0001c0 87 a1 01 bf cd 5a 0e bf 33 f2 ab bf 6b 8b 77 bf
       -0.50637096 -0.556073 -1.3433288 -0.9669711
0001d0 e9 66 12 bf 23 ee 92 bf 79 5c 65 bf e2 f1 47 bf
       -0.5718828 -1.1478924 -0.8959423 -0.7810346
0001e0 fa d5 46 bf a7 ba 20 bf 90 03 19 bf 99 fc 87 bf
       -0.7767025 -0.6278481 -0.5977106 -1.0623962
0001f0 39 cc 42 bf 95 ee 1a be f6 8b 91 bf 32 f6 c0 be
       -0.7609287 -0.15130074 -1.1370838 -0.37687832
000200 7b d8 3a bf 15 3c 8e bd 06 25 91 be 01 ba d3 bd
       -0.72986573 -0.069450535 -0.2834856 -0.10338212
000210 ff 59 7d bf 87 e5 2a bf c4 61 1f bf 69 45 aa bf
       -0.9896545 -0.6675648 -0.62258554 -1.3302432
000220 61 65 bc bf 28 e4 81 bf 0b cb 6e bf b7 90 9f bf
       -1.4718438 -1.0147753 -0.9327857 -1.2466038
000230 fd b7 4a bf f2 6d 38 bf 31 ef 54 bd ef 2a eb be
       -0.79186994 -0.72042763 -0.051985923 -0.45931193
000240 7e f3 8c bf 97 42 81 bf 5d 5e 48 bf 50 26 15 bf
       -1.1011808 -1.0098447 -0.78268987 -0.58261585
000250 9a 18 ab bf 0f 36 64 bf 2e ef db be d0 51 ba be
       -1.3366883 -0.89144987 -0.42955917 -0.36390543
000260 23 e0 94 bd ea c9 6b bf 18 86 13 bf dc 7b 38 bf
       -0.07269313 -0.9210497 -0.57626486 -0.72063994
000270 be ac 29 bf 88 21 79 bf ca 26 17 be 75 96 90 bf
       -0.6627921 -0.9731679 -0.1476089 -1.1295916
000280 25 26 0a bf 98 b4 96 bf 77 52 b9 bf 43 a8 7e bf
       -0.53964454 -1.1773863 -1.4478291 -0.99475497
000290 4f 15 96 bf 09 23 e1 be 63 8f 9f be bf 1f 95 bf
       -1.1725253 -0.43972042 -0.31164083 -1.1650313
0002a0 2f 7c 24 bf 00 7b 7d bf 86 45 aa bf 38 1f 1d bf
       -0.6425199 -0.9901581 -1.3302467 -0.6137576
0002b0 3f d7 22 bd 0f 53 11 bf a1 b1 80 bf 1e 19 5f bf
       -0.039756056 -0.5676736 -1.0054208 -0.871477
0002c0 5d 02 52 bf 1b 13 40 bf 0c 64 47 bf e6 66 a5 bf
       -0.82034856 -0.7502915 -0.77887034 -1.2922027
0002d0 3f 06 6d be 5d b1 58 bf b8 a6 ff be d7 f4 b9 bf
       -0.23146914 -0.84645635 -0.49931884 -1.4527844
0002e0 fd 3a 47 bf 2e b2 fb be 59 d3 3c 3f e8 a8 3c bf
       -0.77824384 -0.49159378 0.7375999 -0.7369523
0002f0 2a d6 61 bf 66 9a 03 bf a6 5c c2 bf 34 f3 df bf
       -0.88217413 -0.5140747 -1.5184524 -1.7496095
000300 a3 5a aa be bf 34 13 bf a5 ae 05 bd df 63 2f bf
       -0.33272275 -0.5750236 -0.032637257 -0.68511766
000310 6d 08 92 bf c6 d6 0e bf 83 e5 18 bf a9 96 f9 be
       -1.1408821 -0.5579647 -0.5972521 -0.48747757
000320 57 32 bc bf 2c 9c 88 bf bd 81 29 bf 47 8b aa bf
       -1.4702863 -1.067266 -0.6621359 -1.3323754
000330 50 07 0d bf 94 19 f1 be 03 48 f8 be 30 da c3 bf
       -0.55089283 -0.47089827 -0.4849244 -1.530096
000340 89 2a 87 bf 0b 41 ea bd be f9 b0 be 12 60 bd be
       -1.0559856 -0.11438187 -0.34565538 -0.36987358
000350 39 5d 46 bf 09 2e 86 be e9 09 df bd 72 bf 6a bf
       -0.77485996 -0.26206997 -0.10890562 -0.9169837
000360 0f 0d 86 bf db fc f2 bd 13 70 58 bf fd c0 8b be
       -1.0472735 -0.118646346 -0.8454601 -0.27295676
000370 20 65 70 bf 85 56 a5 bf 09 7a 11 bf af d0 7d bf
       -0.93904305 -1.2917029 -0.56826836 -0.9914655
000380 39 cd 6d bf 92 7e 4b bf 5d e9 89 be 15 52 80 bf
       -0.9289127 -0.79490006 -0.26935855 -1.002505
000390 e8 bf 1f bf a1 18 23 bf f3 d8 90 be 20 50 67 bf
       -0.624022 -0.63709456 -0.2829052 -0.90356636
0003a0 32 64 93 bf f1 85 81 bd 16 77 4c bf a0 36 8c bf
       -1.1514952 -0.063243754 -0.7986921 -1.095417
0003b0 8a 89 25 be 68 26 b4 bf c4 dc 6b bf 6e 8b 8b bf
       -0.16165748 -1.4074221 -0.92133737 -1.0901926
0003c0 66 fc 5d bf 6a 19 7b bf 23 c2 80 bf d1 d3 0c bf
       -0.86713254 -0.98085654 -1.0059246 -0.55010706
0003d0 50 d9 a9 bf 79 d9 62 bf e9 20 87 bf cb 01 08 bf
       -1.3269444 -0.88613087 -1.0556918 -0.53127736
0003e0 e7 3e 89 bf 7a 69 b8 bf cf 66 78 bf d9 79 1f bd
       -1.0722321 -1.4407189 -0.97031873 -0.038934562
0003f0 6e 98 0c bf c1 a1 fc be c2 5e 8f bf 93 41 cb be
       -0.5492009 -0.49342158 -1.1200793 -0.39698467

bn1.running_mean f4 [400]
000000 5e ad 3d 40 dd 43 ec 3d 40 dc 58 40 92 c5 d6 be
       2.9637065 0.115363814 3.388443 -0.4194761
000010 06 6c 08 41 c2 97 3b c1 19 6f 09 bf 6a 08 96 40
       8.526373 -11.72455 -0.53685147 4.688527
000020 dc 94 8f 3f a9 87 8f bf d0 42 b1 c0 10 a2 3f c0
       1.1217303 -1.1213275 -5.539406 -2.9942665
000030 7e 6f 6a 40 fe b5 cb 40 86 80 5c c0 b4 4e 22 3e
       3.663055 6.365966 -3.4453444 0.15850335
000040 60 fd 76 bd 4e 88 82 c0 4b cf 8c c0 c6 91 c9 be
       -0.06030023 -4.0791388 -4.4003043 -0.3936903
000050 3b 25 fc 3f ac 34 ba 3f b6 33 8c 40 52 76 66 c0
       1.9698862 1.4547324 4.3813124 -3.6009717
000060 11 6f a3 3e c3 1b c7 3f b8 65 a5 bf 8c 74 14 c1
       0.31920674 1.5555347 -1.2921667 -9.278454
000070 51 fb 53 be 08 3f 06 c0 f8 3f 93 c0 96 2d 4d 40
       -0.20701338 -2.0975971 -4.6015587 3.2059073
000080 91 0d 75 bf 7f 1e ca 3d 4d fd b0 bf 99 0d 26 3e
       -0.95723826 0.09869098 -1.3827301 0.16216125
000090 1c 44 87 bf a2 70 d7 bf 91 dd d3 3f 7a 09 9d c0
       -1.056766 -1.6831248 1.6551992 -4.907407
0000a0 69 02 87 40 c1 bb 28 c0 38 55 04 bf e2 72 fc 40
       4.219044 -2.6364596 -0.51692533 7.889024
0000b0 e9 1f 34 c0 a3 7a fc be 0b 56 b6 3f 6c 66 da 3f
       -2.8144476 -0.49312314 1.4245008 1.7062507
0000c0 64 a6 10 c0 88 5a a7 bf e0 12 dd 40 99 24 6d 41
       -2.2601557 -1.3074503 6.908554 14.821435
0000d0 db 82 97 40 56 56 c5 bf f7 cf da 40 82 e2 b8 c0
       4.7347236 -1.5416973 6.8378863 -5.77765
0000e0 97 de b2 3f 84 f8 57 c0 c8 62 9c 3f 4d 85 c9 40
       1.3974179 -3.3745432 1.2217646 6.297522
0000f0 2a 45 9e 40 52 9e dd c0 81 8a c1 bf 23 8b e1 bf
       4.945943 -6.925576 -1.5120393 -1.7620586
000100 2f 8d c0 c0 fe a1 11 c0 dc 32 1e 40 96 9e d2 bf
       -6.0172343 -2.2755122 2.4718542 -1.6454647
000110 c8 fe 59 40 2b 7b 81 c0 b0 5d a2 bf ea eb a7 be
       3.4061756 -4.046285 -1.2684841 -0.32797176
000120 26 d4 1a c0 d2 c9 0c bf 36 5d a8 c0 f8 63 78 3f
       -2.4191985 -0.54995453 -5.2613783 0.9702754
000130 82 5d 12 40 79 f1 dc c0 3b 64 4d bf 02 35 ab bf
       2.2869573 -6.9044766 -0.80231065 -1.3375552
000140 a7 28 e3 c0 aa 0c cf c0 ef 9c 12 c0 bd 33 9f bf
       -7.0987124 -6.470296 -2.2908285 -1.2437664
000150 d6 d1 8d bf 98 fb 3d 3e 8e 72 b0 c0 a1 3c 20 3f
       -1.1079662 0.18553007 -5.5139837 0.6259251
000160 44 07 ec bf 04 82 b4 c0 72 9f 3f 3c 9f 19 ec bf
       -1.8439717 -5.640871 0.01169573 -1.8445319
000170 d1 ad c6 c0 42 a9 59 bf 63 f2 de bf 48 a3 af c0
       -6.208718 -0.8502389 -1.741772 -5.488682
000180 2f f1 0e c0 6a d9 50 40 ae f4 c7 c0 51 73 d2 bf
       -2.2334707 3.26327 -6.248618 -1.6441442
000190 3a a9 12 c0 24 dc e1 c0 cc 9a 28 c0 9d 55 e1 bf
       -2.2915788 -7.0581226 -2.634448 -1.7604252
0001a0 1c 90 39 c0 e8 1a 13 bf c9 e7 f0 c0 9b 52 ce c0
       -2.8994207 -0.5746293 -7.528294 -6.4475837
0001b0 2d 21 db 3f 3c d2 cb bf 19 11 f8 3e 8e 19 43 40
       1.71195 -1.5923533 0.48450544 3.0484347
0001c0 17 bd 14 c1 44 98 08 40 92 d1 e1 bf 14 b9 2a c0
       -9.2961645 2.1342936 -1.7642081 -2.6675463
0001d0 83 0d 11 c1 8c 53 2d 40 34 74 ca bf 33 9c 37 c1
       -9.065799 2.7082243 -1.5816712 -11.475635
0001e0 9d 4d fe 3e 23 85 80 bf 12 46 92 bf 38 30 7a c0
       0.4966859 -1.004063 -1.1427634 -3.909193
0001f0 13 62 82 40 fc f7 2b 40 8b 6a 48 3e 42 72 86 3e
       4.074472 2.6870108 0.19571893 0.26259047
000200 0e 96 b0 3c 27 c0 ed be 53 f3 b8 40 1f 51 46 bf
       0.021555927 -0.46435663 5.7797027 -0.7746753
000210 62 17 eb be de e7 c7 40 d7 5c 73 40 be 87 87 c0
       -0.45916277 6.247054 3.8025415 -4.23532
000220 bd 03 90 40 91 6b 89 c0 02 67 f5 bf b6 01 f1 bd
       4.5004563 -4.2943807 -1.917206 -0.117679045
000230 b0 c6 69 c0 57 5d 79 be c9 13 c7 c0 f6 48 ce 40
       -3.652752 -0.24352013 -6.221165 6.4464064
000240 f0 bd 02 40 ef 15 b1 c0 93 f9 7a bf f5 26 28 c0
       2.0428429 -5.5339274 -0.9803707 -2.6273777
000250 8d 1d 6b c0 2b f5 99 be 86 3a b6 3f ac 34 70 be
       -3.6736786 -0.3006986 1.423661 -0.23457593
000260 af b1 b2 bd 06 78 0a 40 2f 44 af c0 07 32 42 c0
       -0.08725297 2.1635756 -5.477073 -3.0343034
000270 e9 79 d5 c0 a6 f8 14 c0 47 39 af 40 75 4f 35 bf
       -6.6711316 -2.3276763 5.475742 -0.70824367
000280 07 99 e6 3f 99 ca 62 40 2e 6f 47 c0 e8 28 fe be
       1.801545 3.5436156 -3.1161609 -0.49640584
000290 03 13 2e c0 7e 0b 01 c1 e6 a7 f5 3f 2a 0b 5e c0
       -2.7199104 -8.065306 1.9191864 -3.4694314
0002a0 26 56 28 40 9a a6 b2 c0 9a 4c 5f 3f 3d ec 0a c0
       2.630258 -5.582837 0.8722626 -2.1706688
0002b0 1e 40 a3 be 1b ce 12 40 4f fa e8 c0 da 72 1e bf
       -0.31884855 2.2938297 -7.2805552 -0.61894
0002c0 c7 ac 46 c0 92 04 ed c0 08 94 de 3e 4c dc e8 bf
       -3.1042955 -7.406808 0.43472314 -1.8192229
0002d0 1a ba 55 40 06 75 0b bf 38 b2 ff 3f 9c a1 0b 40
       3.3394837 -0.5447544 1.9976263 2.1817389
0002e0 1a fd ab bf 5a 76 91 3f 56 8e 2a 41 0c 81 3a c1
       -1.3436615 1.1364243 10.65975 -11.656506
0002f0 aa 09 fe 40 d6 2e 88 c0 45 dd 01 bf e1 3f 24 c1
       7.9386797 -4.2557173 -0.50728256 -10.265595
000300 93 a0 8b be f5 f0 f8 40 37 d0 6d be b7 a6 93 bf
       -0.27270946 7.7794137 -0.23223959 -1.1535252
000310 f1 75 a9 c0 09 88 aa 40 e3 3d d9 bf f0 cb d4 40
       -5.295647 5.329106 -1.6972011 6.6498947
000320 3c 89 9d bf 13 e2 32 bf 53 fe b0 c0 c5 45 6f c0
       -1.2307506 -0.6987621 -5.5310454 -3.7386334
000330 20 9e 7f c0 74 73 8c bf 9e a0 a2 c0 0e 52 0b 41
       -3.9940262 -1.0972733 -5.0821066 8.707533
000340 f8 aa b1 40 ec 26 3e 3e aa 8c 15 c0 c4 c0 45 c0
       5.55212 0.18569535 -2.3367105 -3.0898905
000350 8b 77 49 c0 4c fe da c0 58 4d ff 3f 46 75 94 bf
       -3.1479213 -6.843542 1.9945478 -1.1598289
000360 28 7e c5 40 40 03 96 3f 8b 5a 10 c0 59 a9 31 40
       6.17165 1.1719742 -2.2555263 2.7759612
000370 01 fd 15 c0 16 65 df bc b8 bd a9 40 a1 ab 72 c0
       -2.3435671 -0.027269881 5.304409 -3.7917254
000380 d7 e5 88 bb 31 d9 2b 3f 7e 46 68 3e 9d 23 76 c0
       -0.0041777897 0.6712828 0.2268314 -3.8459237
000390 4b 08 eb 3e 86 06 34 40 63 0b 19 41 00 45 2f 40
       0.45904765 2.8128982 9.56528 2.7385864
0003a0 96 dc 04 c1 c0 21 40 bf 8f 43 26 40 fb 7a 77 3f
       -8.303854 -0.750515 2.5978734 0.9667203
0003b0 aa a2 8d c0 3a 81 83 40 ba 56 29 3e 82 db 1b c1
       -4.4261065 4.1095247 0.1653699 -9.741091
0003c0 91 07 a6 bf 8e b1 6b be a4 d3 21 c0 ea db 94 c0
       -1.2971059 -0.2301695 -2.5285425 -4.651845
0003d0 c7 4c 03 c1 c4 d9 87 3f 72 50 c1 c0 95 6a a8 be
       -8.206244 1.0613332 -6.04107 -0.32893816
0003e0 a4 a6 0f 40 85 14 89 3e 23 6b 4a 3f 95 29 fc 40
       2.244546 0.26773468 0.7906973 7.880076
0003f0 45 eb 45 c1 4f cd 80 bf 7d 5a 90 bf f6 55 0d 3f
       -12.369939 -1.0062655 -1.1277615 0.5520929

bn1.running_var f4 [400]
000000 78 5d 7f 42 6e e3 cb 42 7a eb 14 42 ec 40 9f 42
       63.841278 101.9442 37.229958 79.6268
000010 d4 e6 00 42 c8 8d b6 42 c2 ad a8 42 15 29 c8 42
       32.225418 91.27692 84.33937 100.08024
000020 c1 5a 75 42 c0 f5 08 42 89 ce ef 41 55 a0 a2 42
       61.338627 34.23999 29.975847 81.31315
000030 5e 53 23 42 a9 ec 91 42 48 85 45 42 b3 30 1a 42
       40.831413 72.96223 49.380157 38.547558
000040 99 bc 6e 3d 4a fd b7 42 e2 7d 1c 42 c8 11 e4 3d
       0.05828533 91.994705 39.122932 0.11136204
000050 94 44 b7 42 e3 6c 98 42 8a aa 39 42 cf cc 36 43
       91.63394 76.21267 46.416542 182.80003
000060 76 57 57 43 55 0d c1 42 94 d5 f7 41 28 d3 79 42
       215.34164 96.52604 30.979286 62.456207
000070 e8 93 5a 3e 08 c2 92 42 96 0e 9d 42 bf 1b b9 42
       0.21345484 73.37897 78.52849 92.55419
000080 09 2e 15 43 45 2d 93 41 d2 8a 04 42 10 35 86 41
       149.17982 18.397104 33.135567 16.77591
000090 6e 72 14 42 89 cc 14 42 1c 09 fd 42 ca 32 6d 42
       37.111748 37.19974 126.51779 59.2996
0000a0 a0 07 f0 41 82 2a ba 42 39 cd 1b 43 32 8e 65 42
       30.003723 93.08302 155.80165 57.388863
0000b0 6d 33 38 41 e5 00 c3 42 f7 61 64 43 a2 ee b9 42
       11.512555 97.50175 228.38268 92.96608
0000c0 20 41 95 42 ba cc 74 42 bf e4 4d 42 e1 d7 20 42
       74.6272 61.19993 51.473385 40.21082
0000d0 c5 cb 46 42 5c e7 89 42 60 2a c4 41 f9 02 b6 42
       49.698994 68.95187 24.52069 91.005806
0000e0 ca 04 d2 41 a6 7c 50 42 6b be 31 42 d0 1a 0e 43
       26.252338 52.121727 44.435955 142.10474
0000f0 2d 4d 81 42 da 1b bb 42 fd fd a5 42 88 8e 36 43
       64.650734 93.5544 82.99607 182.55676
000100 a4 4e 1b 43 f0 06 78 42 1d 67 df 41 1c f2 f2 41
       155.30719 62.006775 27.925348 30.368217
000110 d7 9e c3 42 ec cd 9e 42 73 7d bb 42 4a 2e 17 43
       97.810234 79.40219 93.74502 151.18082
000120 75 d5 96 42 9b ee 45 42 97 1e 12 42 d0 69 0c 42
       75.41691 49.483013 36.529873 35.103333
000130 96 d5 a3 42 65 f0 b0 41 54 e7 e6 42 df 61 b6 42
       81.91716 22.11738 115.45181 91.191154
000140 28 10 f2 41 8d 6f ad 43 2a da 18 42 7e 9b 84 42
       30.257889 346.8715 38.21305 66.303696
000150 ef ec 9b 42 b5 46 e7 3e 99 27 47 42 3d 31 95 42
       77.96276 0.45171133 49.78867 74.59617
000160 37 aa c4 42 39 f0 94 42 e1 74 9a 41 0a be 26 43
       98.33245 74.469185 19.30707 166.74234
000170 51 c1 8a 42 a6 37 99 42 10 3f 64 42 fd 7c 98 41
       69.37757 76.60869 57.061584 19.06103
000180 7c e3 ab 42 e4 51 54 42 c2 dd de 41 f7 a2 a3 42
       85.944305 53.07997 27.85828 81.81829
000190 9e 94 76 42 34 2c 6a 42 47 73 0e 41 ae 47 45 42
       61.645134 58.543167 8.903144 49.32
0001a0 29 70 86 42 91 62 22 42 db f2 26 42 6d a3 4c 41
       67.21906 40.596256 41.737164 12.789899
0001b0 f3 21 9c 42 a4 4a 1b 42 93 12 0b 43 5e aa 5b 42
       78.06631 38.82289 139.07256 54.916374
0001c0 83 89 46 42 3f 38 b6 41 27 ce c6 41 ff 67 5c 43
       49.63429 22.777464 24.85066 220.40623
0001d0 a0 22 d4 41 fe 43 b5 42 ad b0 6e 42 7c 58 bc 42
       26.516907 90.6328 59.672535 94.17282
0001e0 08 42 16 43 1c 0a b6 42 a8 65 57 42 a5 ef 1f 42
       150.25793 91.019745 53.849274 39.984028
0001f0 36 4c 91 41 6b f4 21 41 ca 18 d9 42 a5 ff ba 42
       18.162212 10.122172 108.548416 93.499306
000200 8d 6d a7 43 85 40 29 3e c8 7c 19 42 56 3e e4 42
       334.85587 0.16528518 38.371857 114.12175
000210 c8 0c 3d 42 d6 0c de 42 ce b1 06 43 31 5c 77 42
       47.26248 111.02507 134.69455 61.84003
000220 c5 a3 e4 41 67 4e a0 41 05 41 0e 42 66 22 c9 42
       28.579966 20.038282 35.563496 100.567184
000230 14 22 09 42 fb f9 0f 42 fe 85 31 42 81 be d8 41
       34.28328 35.99412 44.38085 27.09302
000240 be 2f 5b 42 99 4d 32 42 96 df a3 42 63 72 89 42
       54.796623 44.57578 81.93669 68.72341
000250 89 ea 35 42 0b 14 f3 41 14 91 dd 41 f8 cf ff 41
       45.47904 30.384787 27.695839 31.976547
000260 1d 98 0b 3e 4a 23 57 42 c2 05 04 42 fe fb 28 42
       0.13632245 53.784462 33.005623 42.246086
000270 69 db 44 42 30 28 0e 41 74 a1 3a 42 7e 66 81 42
       49.214268 8.884811 46.65767 64.70018
000280 d9 35 b7 40 2b a5 b2 42 ab 3e 08 42 6f c3 47 43
       5.725323 89.32259 34.0612 199.76341
000290 c1 26 a7 42 7d 5f b7 41 97 e4 94 41 c7 2b 3d 43
       83.57569 22.921625 18.611616 189.171
0002a0 6c d4 ab 43 3a d8 70 42 99 95 9d 42 81 7a 9b 42
       343.65955 60.21116 78.79218 77.739265
0002b0 6e 25 46 3e 31 ce 41 42 ab d9 39 42 42 7f 52 42
       0.19350216 48.45136 46.462566 52.624275
0002c0 f1 52 0a 43 e3 5e d0 42 25 60 b7 42 4b 9c 0a 42
       138.32399 104.185326 91.68778 34.65263
0002d0 f0 3b 32 42 ba 38 2c 43 9b c4 8b 42 fb 0c 29 42
       44.558533 172.22159 69.883995 42.262676
0002e0 1f 33 64 42 bc 17 1d 42 a9 cd a4 41 0b c0 44 42
       57.049923 39.27318 20.60042 49.187542
0002f0 ed e1 da 42 41 05 08 42 19 26 23 42 2b e4 10 43
       109.44126 34.00513 40.787205 144.89128
000300 cd e8 c3 41 9e f3 c5 42 32 c7 b4 3e a3 16 ce 41
       24.488672 98.975815 0.35308224 25.761053
000310 63 2a 12 42 4c c9 87 42 bd 67 f6 42 48 e0 f1 42
       36.541393 67.89316 123.202614 120.93805
000320 f7 e7 30 42 1d f9 c9 42 25 2d ac 43 6b 5d 71 41
       44.22653 100.98655 344.3527 15.085307
000330 af 80 8d 41 c7 f1 59 42 8b 44 e8 41 10 1c 24 42
       17.687834 54.48611 29.033468 41.027405
000340 20 36 b6 42 3d e5 44 3e 68 74 cf 41 be dd 40 42
       91.10571 0.19228072 25.931839 48.216545
000350 c3 de 98 43 ee 23 94 42 da 92 19 42 3f e5 9c 41
       305.74033 74.070175 38.39341 19.611937
000360 57 ec 62 43 bf a7 13 42 ee 67 4c 42 00 05 8b 40
       226.9232 36.913815 51.101494 4.3443604
000370 47 a1 c5 41 d4 8b 06 43 05 11 69 42 f3 b9 d7 42
       24.703749 134.5462 58.26662 107.86318
000380 a9 93 b6 41 00 08 bd 41 4f 2f 03 41 f0 f2 d7 42
       22.8221 23.628906 8.19905 107.97449
000390 54 30 99 42 44 e5 92 42 6d fe 02 42 a4 9b 26 42
       76.59439 73.447784 32.748463 41.651993
0003a0 e3 0b 13 42 b4 06 5d 3e fb bf 68 42 5f fd 24 42
       36.76161 0.21584588 58.18748 41.247433
0003b0 d8 10 00 42 d3 f6 16 43 4a d4 ce 42 5e b1 f9 42
       32.01645 150.96416 103.41463 124.84642
0003c0 eb d9 0b 42 c6 58 77 42 3c 39 3e 42 1a d5 5f 42
       34.96281 61.836693 47.555893 55.958107
0003d0 bf eb 1a 42 0e 5a 41 42 70 29 bf 41 22 cd 2f 43
       38.73022 48.337944 23.895233 175.8013
0003e0 15 27 08 43 d5 d9 e0 42 4a 19 d6 42 57 5b 2c 42
       136.15266 112.42545 107.04939 43.0892
0003f0 2c ae f2 41 28 f2 b8 42 d1 6a 04 43 f0 5a be 40
       30.335045 92.47296 132.41725 5.948601

fc2.weight f4 [300, 404]
000000 a1 b6 84 c0 3b c8 7e be 30 88 82 bf 2e 15 8b bf
       -4.1472936 -0.2488107 -1.0197811 -1.0865839
000010 f6 b4 7d bf bf a2 69 bf 58 12 1d bf ee 6d dc 3f
       -0.9910425 -0.91263956 -0.61356115 1.7221048
000020 d1 e4 7c bf ff be ff be fb c8 0a be fc b5 2e bf
       -0.98786646 -0.49950406 -0.1355323 -0.68246436
000030 d3 c3 83 bf 4b 5e cc 3e 43 51 cb 3e ea d2 3a 3f
       -1.0294136 0.3991569 0.39710435 0.7297808
000040 d4 9f 0b 3d 51 c9 7d 3f 87 92 c1 3f 45 90 f2 3c
       0.03408797 0.9913531 1.5122842 0.029609809
000050 c1 f8 94 be bb 55 9e 3f 20 4d 2a c0 02 5a a8 3f
       -0.29096034 1.2369913 -2.6609573 1.3152468
000060 12 98 ce bd be b6 94 c0 07 ca 1c 3f c7 6c a6 3f
       -0.10087599 -4.6473074 0.6124577 1.3001946
000070 69 f6 11 3d fc dd a8 bf 3c 1a 66 3f 7b 90 42 3e
       0.035635386 -1.3192744 0.8988378 0.19000427
000080 a7 34 23 bf 36 aa 9b 3e a4 91 0d bf 3a bc 81 3e
       -0.63752216 0.30403298 -0.55300355 0.25338918
000090 da 48 1a bf 12 a2 ea be aa a6 a7 3e cb 89 60 bf
       -0.6026741 -0.45826775 0.32744342 -0.87710255
0000a0 44 c3 3e bf 26 6b 7b 3f 33 87 89 3f 75 cd 01 3d
       -0.745167 0.9821037 1.0744385 0.03169008
0000b0 3b 6b 02 3f 3f 90 f4 bd 15 ee 45 3f e6 97 a6 3e
       0.5094487 -0.11941575 0.7731641 0.32537764
0000c0 df e4 29 3d a0 19 7d c0 c5 51 65 3f 19 c9 97 3e
       0.041478034 -3.954689 0.89577895 0.29645613
0000d0 88 a2 4f 3f 63 3b f0 3f 82 51 99 3f 7d c3 2b 3f
       0.8110738 1.8768123 1.1977999 0.67095166
0000e0 e9 83 55 be 0b 4a 43 3e 6f 59 d1 be 14 1e 31 bf
       -0.20851101 0.19071214 -0.40888545 -0.6918652
0000f0 47 ba 0b bf 6e 48 cb 3e fd a1 80 be f3 16 10 3f
       -0.5458111 0.39703697 -0.25123587 0.5628502
000100 96 5e a2 bf fe fb 01 bf 95 7c 9b bf 9e dd 0b 40
       -1.2685115 -0.50775135 -1.2147394 2.1854014
000110 2e f2 12 40 1e b2 82 3f 46 98 de be 21 b4 06 3f
       2.2960315 1.0210607 -0.4347555 0.52618605
000120 4c 2e 98 bd 09 37 be bf e9 67 f2 be e2 c9 6e be
       -0.074307054 -1.4860545 -0.47344902 -0.233192
000130 01 2d 04 bd ee 08 a2 bd f4 bd 2a 3f 3c 54 77 3f
       -0.03226948 -0.079118595 0.66696095 0.96612906
000140 68 76 7c bf 89 4d f4 3e 48 a2 6d 3f c0 75 09 c0
       -0.98618174 0.47715405 0.92825747 -2.147812
000150 79 54 12 bf c1 69 e6 b9 fd 69 67 3e 75 32 a3 bf
       -0.57160145 -0.0004394781 0.22599025 -1.2749773
000160 5c e5 fa bd 15 c1 8c 3e 36 4d fe 3d e9 71 b8 bf
       -0.12250778 0.2749106 0.124170706 -1.4409763
000170 9d 06 97 3f c7 d0 eb 3e 23 4d 3f bf 27 e8 6e 3f
       1.1798893 0.46057722 -0.74727076 0.93322986
000180 40 48 89 be 85 7f f0 3f fe 38 8c 3f 72 2c d6 3d
       -0.26812935 1.8788916 1.0954893 0.10457696
000190 b1 b8 43 3d b9 04 06 3f 02 26 8d bf ab 1f 16 3f
       0.047783557 0.52350956 -1.1027224 0.5864207
0001a0 24 42 4e bf 31 3f e8 3d b3 eb c8 3e c4 f9 95 3f
       -0.8056967 0.11340178 0.39242324 1.1716847
0001b0 9b 3b 9f 3e 47 80 d3 bf 07 d2 18 3d c7 fa 8e bf
       0.31100163 -1.6523522 0.037309673 -1.1170281
0001c0 f1 f8 71 3e f9 23 ee 3d 3a fd e1 bd 36 56 4d 40
       0.2363012 0.11627955 -0.11034627 3.208387
0001d0 56 58 af 3e 9b 99 1a bf bf 55 cb 3e 2c d7 98 3f
       0.34247082 -0.60390633 0.39713857 1.1940665
0001e0 14 b0 c3 3e de 83 07 be 40 32 35 c0 b3 f0 3e 3f
       0.38220274 -0.13233897 -2.831192 0.7458603
0001f0 dc e2 92 be 06 39 04 3f 05 91 94 bf 7a 9f 00 bf
       -0.28688705 0.5164951 -1.1606756 -0.5024334
000200 b1 86 da 3e 33 d0 71 bb 84 d7 1a bf 0e bb 9f be
       0.42680886 -0.0036897778 -0.604851 -0.311974
000210 84 e2 22 3f 06 8b 9b 3f 4b 14 d5 bf da c6 77 be
       0.63626885 1.2151802 -1.6646818 -0.2419695
000220 e6 9b 26 3e b2 40 83 3f 58 59 07 bf 97 13 bd 3d
       0.16270408 1.0254118 -0.528707 0.09232252
000230 c8 7f e4 3e 16 be ea 3d d3 6e 17 3f 04 6b b0 3f
       0.4462874 0.11462037 0.5915348 1.3782659
000240 27 9d 8f 3f 17 4b 83 3f 01 09 e2 3e 7d c2 fb 3d
       1.1219834 1.0257291 0.44147494 0.12292955
000250 2f ab 08 3f cc fd b0 3e 66 c1 ec 3e 6e 15 00 c0
       0.53386205 0.34568632 0.462413 -2.001308
000260 d0 e0 b2 bc 44 6e 80 3f 50 b1 86 3e 05 31 17 3f
       -0.021835715 1.003365 0.26307154 0.5905917
000270 e3 b8 96 bf b2 c7 ce bf 47 f6 68 3e 07 72 a0 bf
       -1.1775173 -1.6154692 0.22750197 -1.2534798
000280 ca 52 c6 be bf 0f 7d 3f 3f 5d 92 3e 32 c2 65 c0
       -0.38735038 0.9885215 0.28586766 -3.5899777
000290 84 b4 44 bf 83 fb b6 bf f2 e5 ba 3f 39 f1 f8 3e
       -0.76837945 -1.4295505 1.4601424 0.48621538
0002a0 a2 94 93 be 8f ed 49 bf 10 db 1e bf 79 fe 1e 3e
       -0.28824335 -0.7887811 -0.6205301 0.15526761
0002b0 16 16 03 bc 98 4e be be fb f5 69 bd 9f 8b 2d c0
       -0.008000871 -0.37169337 -0.05711935 -2.7116468
0002c0 0a 78 06 3f 9c c5 0c bf 23 a8 a0 bf f9 a7 a2 3f
       0.52526915 -0.5498903 -1.2551311 1.2707511
0002d0 04 bc b3 3f 54 1b ea be b2 c0 44 bf 68 d9 ef 3e
       1.4041753 -0.45723975 -0.7685653 0.46845555
0002e0 e1 d4 75 be 48 7c b3 3d 78 1d 45 3e ed 37 35 bf
       -0.24006988 0.08763939 0.19249523 -0.7078846
0002f0 c1 e3 30 bf f7 9b c9 bf 21 41 02 3f d7 87 02 be
       -0.69097525 -1.5750722 0.5088063 -0.12747131
000300 70 8c 8c bf 7c 52 5d 3f a5 f5 6d bd 9b a8 0c 3f
       -1.0980358 0.86453986 -0.058095593 0.5494477
000310 9f b5 a2 3f 3e b5 ee 3e 78 fc 09 bf 56 c9 26 3d
       1.2711676 0.46622652 -0.5390086 0.040719353
000320 bd ad c4 bf 83 98 35 3f ce c4 21 3f ed 74 80 3d
       -1.5365521 0.7093584 0.63190925 0.06272302
000330 a7 23 fc bd df 89 2e 3e 4b 22 93 bf 67 08 92 bd
       -0.12311488 0.17044781 -1.149484 -0.07130509
000340 c8 71 96 3f 34 35 c5 bb 7e 93 67 be 86 ec ea be
       1.1753473 -0.006018305 -0.22614858 -0.45883578
000350 24 09 fb 3e 71 a5 a7 be cf 29 e5 be 0b 55 8a bf
       0.4903041 -0.3274341 -0.4475846 -1.0807203
000360 b8 44 15 3f 96 b6 29 bf 55 e1 cc 3e 43 12 9a bf
       0.5830798 -0.6629423 0.40015665 -1.2036823
000370 5f 97 c9 bf 0a 42 58 3f c4 08 ac 3f 07 37 9e 3e
       -1.574932 0.8447577 1.3440175 0.30901358
000380 56 c7 95 bc 77 86 a8 3e d7 1c 53 3e 97 e1 93 bf
       -0.018283527 0.3291509 0.2061647 -1.155322
000390 85 4f 36 3e cd 5d 90 3d 46 7d b0 be e0 6d f9 3f
       0.17803772 0.07049141 -0.34470576 1.9486656
0003a0 fa 9b d0 bf 14 ff 52 bb 5c 32 ac be e3 5f 16 c0
       -1.62976 -0.0032195495 -0.3363217 -2.3496025
0003b0 6c 92 58 3e 92 c2 93 bf 29 74 92 3d cb 45 fa be
       0.21149606 -1.1543753 0.07151062 -0.48881373
0003c0 13 bf ef be 1b cf 02 40 81 59 da 3f 5d 3c b1 3d
       -0.46825466 2.0438907 1.7058564 0.086540915
0003d0 c9 6f 71 3f 2d b1 b7 be 52 ff 58 3e ce 19 60 be
       0.94311196 -0.35877362 0.21191147 -0.21884844
0003e0 a5 86 5c bf 26 b7 c7 bc 45 6a 81 bf c2 0a 8e 3f
       -0.8614295 -0.024379324 -1.0110556 1.1097033
0003f0 50 a8 0f bf 82 c6 47 3d 2f c4 d4 bf 31 69 d4 3e
       -0.561162 0.048773296 -1.662237 0.41486505
