0710_200757_actor.pth (torch_old, 548296 bytes, 10 tensors)

fc1.weight f4 [400, 33]
0	0x3f0ffaca	0.5624205
1	0x3fa12a3a	1.2591012
2	0xbd70ed8f	-0.058820304
3	0xbfc9424a	-1.5723355
4	0x3f855931	1.0417844
5	0x3fc67cf8	1.5506887
6	0xc008c463	-2.1369865
7	0xbdaec4ad	-0.08533607
8	0xbeabce28	-0.33555722
9	0x3f56c696	0.8389677
10	0xbeab20e5	-0.33423534
11	0x3f87c4cb	1.0606931
12	0x3f071cf2	0.5277854
13	0xbdbccd71	-0.09218872
14	0x3f59fe10	0.85153294
15	0x3fcd66eb	1.6047033
16	0x3e5fba64	0.21848446
17	0xbfdd23e8	-1.7276583
18	0xbef19c95	-0.47189775
19	0xbf196a1e	-0.59927547
20	0x3e8f8c07	0.2803652
21	0xbe9385e6	-0.28813094
22	0x3f0f4f77	0.5598063
23	0xbf354221	-0.7080403
24	0xbea12ff7	-0.31481907
25	0x3ef517e9	0.47869805
26	0xbf49b8cf	-0.7879762
27	0x3c0ae111	0.008476512
28	0xbf497ee1	-0.78709227
29	0x3caa71d2	0.020806227
30	0x3d427480	0.047474384
31	0xbd2c8593	-0.042119574
32	0xbf39bbfa	-0.72552454
33	0xbd665792	-0.056235857
34	0x3fe5b877	1.7946919
35	0x3f02b7d2	0.5106174
36	0xbfb8820e	-1.441469
37	0x3f80abbd	1.005241
38	0xc02700e3	-2.6094291
39	0x3ea32842	0.31866652
40	0xbfbe7b24	-1.488133
41	0xbeee2c2f	-0.46518084
42	0xbe75f77e	-0.24020192
43	0xbe8c43aa	-0.27395374
44	0x3cfd86e8	0.030948117
45	0x3cfeadc1	0.031088712
46	0xbfbc9ad4	-1.473475
47	0xbf31bc8c	-0.69428325
48	0x3e3bcf03	0.18340687
49	0xbe85b18c	-0.2611202
50	0xbf15237a	-0.5825726
51	0x404735d3	3.1126602
52	0x3faec7fb	1.3654779
53	0x3f671e68	0.9028077
54	0x3eb82f70	0.35973692
55	0xbe00ae7c	-0.1256656
56	0xbdb65542	-0.089029804
57	0x3e2a6387	0.16639529
58	0xbf4381c8	-0.76369905
59	0xbed398e8	-0.41327596
60	0xbb3bd0cd	-0.002865839
61	0xbf7e4085	-0.993172
62	0xbd1a670d	-0.037695933
63	0x3d2ba518	0.041905493
64	0xbce30357	-0.027711553
65	0xbf3339f7	-0.7001032
66	0xbf017543	-0.5056955
67	0x3f9dec04	1.2337651
68	0x3e95d07a	0.29260617
69	0xbe77c820	-0.24197435
70	0x3e75869c	0.2397713
71	0xbfe52397	-1.7901486
72	0xbfbdd51a	-1.4830658
73	0x3f89971a	1.0749238
74	0xbe012d96	-0.12615046
75	0xbf22e1e0	-0.6362591
76	0x3e4ffa4b	0.20310323
77	0x3e282746	0.16421232
78	0x3eaa95d9	0.3331745
79	0xbf4abb87	-0.79192394
80	0x3fedbcf3	1.8573288
81	0xbf2655cb	-0.6497466
82	0x3ffa04bc	1.9532695
83	0x3f0d1220	0.5510578
84	0xc05121d6	-3.2676902
85	0x3fc22901	1.5168763
86	0xbe913c44	-0.28366292
87	0xbf36150f	-0.7112588
88	0x3ed333b5	0.41250387
89	0x3cd49ef7	0.025954707
90	0x3f3ab689	0.72934777
91	0xbf6ab885	-0.91687804
92	0x3f447bf4	0.7675164
93	0xbc274cf3	-0.010211217
94	0xbf3a1131	-0.7268248
95	0x3bcacb18	0.0061887614
96	0xbd30ba64	-0.043146506
97	0x3d42a041	0.04751611
98	0x3f9d787f	1.2302397
99	0x3f1a4b41	0.6027108
100	0xbee00a20	-0.43757725
101	0xbf03536e	-0.5129918
102	0x3f08023e	0.5312842
103	0xbe4aa1a6	-0.19788226
104	0xc00513bd	-2.0793297
105	0xbf0f809b	-0.5605561
106	0x3f6a8196	0.9160398
107	0x3db91ff1	0.090392955
108	0xbfa8ac7c	-1.3177638
109	0xbf14dbed	-0.5814808
110	0xbe9ea237	-0.30983135
111	0xbf52144b	-0.82062215
112	0x3e3ae7cb	0.18252485
113	0xc0100739	-2.2504408
114	0x3e5a957e	0.21346089
115	0xbf732df3	-0.9499199
116	0xbf19be75	-0.6005624
117	0xc01641f2	-2.347775
118	0xbf98fc83	-1.195206
119	0xbf0a2296	-0.53959024
120	0x3f8b1359	1.086528
121	0x3e857612	0.26066643
122	0x3fa54a9d	1.2913395
123	0xbf088577	-0.5332865
124	0xbe9b8e7f	-0.30382153
125	0x3ea9028a	0.3300975
126	0xbd2c7c93	-0.04211099
127	0x3e5aa8f5	0.21353514
128	0x3c48bae0	0.012251586
129	0x3d13c3f3	0.036075544
130	0xbd1fcaaa	-0.039011635
131	0x400d3129	2.2061255
132	0x3e907afc	0.2821883
133	0x3e0af49a	0.1356987
134	0x3eb8e954	0.36115515
135	0xbeb81fcf	-0.35961768
136	0x3f733977	0.9500956
137	0xbed725af	-0.42020938
138	0x3ed9cdab	0.42539725
139	0xbe97d9e1	-0.29658416
140	0x3f2916c0	0.6605034
141	0x3f5aa5ab	0.8540904
142	0x3d961de4	0.0732992
143	0xbc07b3f3	-0.008282649
144	0x3e07a993	0.13248281
145	0xbe45d6bc	-0.19320196
146	0xbee897b4	-0.4542824
147	0x3d9db23c	0.07700011
148	0xbfad95f3	-1.3561386
149	0xbe79a9b3	-0.24381141
150	0x3ed170f8	0.409065
151	0xbf92e84e	-1.1477144
152	0xbdc1895d	-0.09450028
153	0x3e1a2588	0.1505338
154	0xbef3c4a3	-0.4761096
155	0xbd0b2576	-0.033971272
156	0xbe6f9250	-0.23395658
157	0x3e3db1ab	0.18524806
158	0x3e87def8	0.265373
159	0x3d02ce1d	0.031934846
160	0xbd6692d7	-0.05629238
161	0x3d32586f	0.043541368
162	0xbd2d384f	-0.04229003
163	0x3d36e4bb	0.044651728
164	0xc121ca1c	-10.111843
165	0x40036834	2.053235
166	0x3fa958d4	1.3230233
167	0x3f1178db	0.56825036
168	0xbf70944b	-0.9397628
169	0x3f64e9d5	0.894193
170	0xc03ff9b4	-2.9996157
171	0x3f9b3e36	1.212836
172	0x3e27c940	0.16385365
173	0xbfba4615	-1.4552637
174	0x3f31f130	0.6950865
175	0x3e34f009	0.17669691
176	0x3ed9348e	0.4242291
177	0xbb3a2e4d	-0.0028408945
178	0x3f3ddba4	0.7416327
179	0x3e63f0d0	0.22259831
180	0x3f168289	0.5879293
181	0xbd681932	-0.056664653
182	0xbf888535	-1.0665652
183	0xbebf2acc	-0.3733734
184	0x4020bcf0	2.5115318
185	0xbe1d0c40	-0.15336704
186	0xbdc6d04d	-0.09707699
187	0x3e686572	0.22694948
188	0xbd3b6798	-0.04575309
189	0x3e0b393c	0.13596052
190	0x3ef68697	0.4814956
191	0xbeefb38d	-0.46816674
192	0xbc92300b	-0.017845174
193	0xbf317757	-0.69322723
194	0x3d1ee709	0.03879455
195	0xbd32dbbd	-0.04366659
196	0xbc9217d4	-0.017833628
197	0x4009aaa7	2.1510408
198	0x3efa9ee3	0.48949346
199	0x3e46fc9c	0.194323
200	0x3fb30640	1.3986282
201	0x3f260a11	0.6485911
202	0xc0169edc	-2.353446
203	0x3f2917af	0.66051763
204	0xbee5b09c	-0.44861305
205	0x3d9eb728	0.07749778
206	0x3ed8c01b	0.42334065
207	0xbfa2a541	-1.2706681
208	0x3e15f794	0.14645225
209	0xbed80f2a	-0.4219907
210	0xbecfc7cd	-0.40582123
211	0x3ff4875d	1.910381
212	0xbfba4998	-1.4553709
213	0xbf5cc517	-0.86238235
214	0x3f785f28	0.97020197
215	0xbf490c6e	-0.7853459
216	0xbe2bf65b	-0.16793196
217	0xbf726a59	-0.94693524
218	0x3e6330fd	0.22186656
219	0xbf09f843	-0.5389444
220	0xbe3b8798	-0.18313444
221	0x3e4c968c	0.19979304
222	0x3e31b81c	0.17355388
223	0x3e8a9389	0.27065685
224	0xbf8b97f9	-1.0905753
225	0xbc81e95e	-0.015858348
226	0x3f22958d	0.63509446
227	0x3ce39f22	0.027785841
228	0xbc509a0a	-0.012732038
229	0xbd2babc3	-0.04191185
230	0xbf1ce009	-0.6127935
231	0x3ee09420	0.4386301
232	0x3e569ae2	0.2095752
233	0xbe8021d2	-0.25025803
234	0x3e4b2635	0.19838794
235	0xbf0f9693	-0.56089133
236	0x401a75a1	2.4134295
237	0x3fadda1a	1.3582184
238	0xbf522209	-0.82083184
239	0xbe8c28fb	-0.27375016
240	0x3dca0d92	0.098658696
241	0x3dda1804	0.10649112
242	0xbe8911f1	-0.267715
243	0xbe39eb3f	-0.18156146
244	0x3fbda612	1.4816306
245	0x3f6d4fcd	0.9269989
246	0xbe09bc86	-0.13450822
247	0xbf96362e	-1.1735284
248	0x3ef07e7f	0.4697151
249	0xbf4ab646	-0.7918438
250	0x3fa9759d	1.3239018
251	0x3de1241d	0.10993216
252	0xbeb13573	-0.3461109
253	0x3cf14b87	0.02945496
254	0x3f40cc59	0.7531181
255	0x3f0f74b6	0.5603746

fc1.bias f4 [400]
0	0x3d46fd62	0.04858149
1	0x3e1f3b14	0.1554988
2	0x3dbcd0f0	0.09219539
3	0x3cef7877	0.029232247
4	0xbdef104b	-0.116730295
5	0x3dee3e18	0.11632937
6	0x3896a451	7.183164e-05
7	0x3d707310	0.058703482
8	0xbda9d1b0	-0.08291948
9	0xbe143bbd	-0.14475913
10	0xbe1f376c	-0.15548486
11	0xbd551106	-0.052018188
12	0xbe052eff	-0.13006209
13	0xbe19d282	-0.15021709
14	0x3e2f7f64	0.1713844
15	0x3d8b4052	0.067993775
16	0xbcbd35f1	-0.02309701
17	0xbe1d564a	-0.15364948
18	0xbdfc97a1	-0.123336084
19	0xbe27c345	-0.16383083
20	0xbd30cbe3	-0.04316319
21	0x3dfdc0fb	0.12390324
22	0xbcbc53f0	-0.022989243
23	0x3d1eb955	0.038750965
24	0xbc412c5f	-0.011790364
25	0x3dd7b7c1	0.10533095
26	0x3e29d6b5	0.1658581
27	0xbd90f0a0	-0.070771456
28	0xbe096180	-0.134161
29	0x3dd15608	0.10221487
30	0x3decd10f	0.11563312
31	0x3c6714ce	0.014104081
32	0xbda0370c	-0.07822999
33	0xbd279de1	-0.04092205
34	0x3dcbfa64	0.099598676
35	0x3d543eef	0.05181783
36	0xbd77cc7a	-0.06049774
37	0x3d4b3be9	0.04961768
38	0x3d60bc94	0.054867342
39	0xbd4c2f45	-0.049849767
40	0xbdcc4706	-0.09974484
41	0x3d30b850	0.043144524
42	0x3d3128c5	0.04325177
43	0x3e2cbfec	0.16870087
44	0xbcee658c	-0.029101156
45	0x3cd59552	0.026072178
46	0x3d1c65f6	0.038183175
47	0x3da0592e	0.0782951
48	0x3da747cc	0.08167991
49	0xbdfa87fa	-0.12232967
50	0x3e171e36	0.14757618
51	0x3d0a134d	0.033709813
52	0x3e32e1d7	0.17468964
53	0xbe0917ee	-0.13388035
54	0x3e1de3ae	0.15418884
55	0x3e02c2fe	0.12769696
56	0xbd88ee58	-0.066860855
57	0xbe24b8bd	-0.16086097
58	0x3ce782af	0.028260557
59	0x3dd9cac4	0.106343776
60	0xbdb6c10d	-0.0892354
61	0x3d9425a2	0.072337404
62	0x3cd661fe	0.026169773
63	0x3e175fe6	0.14782676
64	0x3e2f45cd	0.1711647
65	0x3d9eb8c2	0.077500835
66	0xbcf85abb	-0.030316701
67	0xbd6dc1b7	-0.05804607
68	0x3df9cb7c	0.12197015
69	0xbdbf0a0b	-0.093280874
70	0xbd8470e2	-0.06466843
71	0xbdd1f19a	-0.1025116
72	0xbe319556	-0.17342123
73	0x3e2007a1	0.1562791
74	0x3de4ad4b	0.111658655
75	0x3d8fe868	0.0702675
76	0x3e02d134	0.12775117
77	0x3dfeced1	0.12441791
78	0x3df704b1	0.12061442
79	0xbde721c7	-0.112857394
80	0x3de8d7bb	0.11369272
81	0xbc7eab28	-0.0155437365
82	0x3e2b1172	0.16705874
83	0x3e1cab52	0.15299729
84	0x3d1dcb32	0.03852386
85	0xbdc01118	-0.093782604
86	0x3e27e82e	0.16397163
87	0xbe3005f7	-0.17189775
88	0xbd9b880d	-0.07594309
89	0x3d557f4c	0.052123353
90	0x3ca15190	0.019692212
91	0xbe071c0f	-0.13194297
92	0xbdd05da4	-0.101741105
93	0x3d1285e3	0.035772216
94	0xbd09057f	-0.033452507
95	0xbe0eb569	-0.1393639
96	0x3dd170e7	0.102266125
97	0x3e02a192	0.12756947
98	0xbc89fd14	-0.01684431
99	0x3db49ae6	0.08818607
100	0x3d13529b	0.03596745
101	0x3dc6367f	0.09678363
102	0x3bbdefb4	0.005796397
103	0x3d47f4ea	0.048817553
104	0x3df8c6ac	0.12147269
105	0xbd5dfb40	-0.05419469
106	0x3e009358	0.12556207
107	0x3d46ac59	0.048504207
108	0xbe116888	-0.14200032
109	0x3e0d8979	0.13821973
110	0xbd8b5a81	-0.068043716
111	0xbe2e2977	-0.17008005
112	0xbd3347cf	-0.043769654
113	0xbe310610	-0.17287469
114	0xbd445296	-0.047930323
115	0xbd307a5c	-0.04308544
116	0xbe007cad	-0.1254756
117	0x3e10b48a	0.1413137
118	0x3de16cfa	0.11007114
119	0x3db4df7f	0.08831691
120	0x3e229222	0.15876058
121	0xbd908c20	-0.07057977
122	0x3d882297	0.066472225
123	0x3e046263	0.12928157
124	0x3e0e6cb8	0.1390866
125	0x3d82d322	0.06387927
126	0x3da4302c	0.080170006
127	0x3e20b252	0.15693024
128	0x3e1472a9	0.14496864
129	0xbe0dbd98	-0.13841856
130	0x3e12767f	0.14303015
131	0xbd8a7888	-0.06761271
132	0x3de71e79	0.11285109
133	0xbe2debb7	-0.1698445
134	0x3e1edc8d	0.15513821
135	0x3e14ac8f	0.14518951
136	0xbd4e1839	-0.05031607
137	0x3e236cec	0.15959519
138	0x3d0b8bfe	0.034069054
139	0xbdebbd96	-0.1151077
140	0x3d8d154d	0.068888284
141	0xbde108b1	-0.10987986
142	0xbdb8a206	-0.090152785
143	0x3e18e7f8	0.14932239
144	0x3bada7a6	0.0052995263
145	0xbdc26212	-0.09491362
146	0xbe2b9568	-0.16756213
147	0xbc177dbe	-0.009246288
148	0x3ca3fcda	0.02001803
149	0xbcf7b47b	-0.030237427
150	0x3bfad3f3	0.007654661
151	0x3e123e6b	0.14281623
152	0xbe237aa1	-0.15964748
153	0x3d24e154	0.040253952
154	0xbca7b8f5	-0.020473937
155	0xbe1d0d6f	-0.15337156
156	0xbe2d4ab1	-0.16923024
157	0xbbf00e8e	-0.007325954
158	0xbe2b6aac	-0.16739911
159	0x3e305302	0.17219165
160	0xbe185a72	-0.14878252
161	0xbb9fc880	-0.0048761964
162	0xbb89e684	-0.004208388
163	0xbdd04402	-0.101692215
164	0x3e26d2ea	0.16291395
165	0xbcc855f8	-0.024455056
166	0xbd88645a	-0.066597655
167	0x3e10d9dd	0.14145608
168	0x3d63c649	0.05560902
169	0xbd54f458	-0.051990837
170	0xbe2cda74	-0.16880208
171	0xbd07d61d	-0.03316318
172	0xbd300b4f	-0.042979535
173	0xbd434fb0	-0.047683418
174	0x3dd54b32	0.10414733
175	0xbc57d6bd	-0.013173756
176	0x3d41f675	0.04735418
177	0x3e11c1c5	0.14234073
178	0x3b185bb7	0.0023248026
179	0x3e278272	0.16358355
180	0x3d95ebaa	0.0732034
181	0xbe05a3dd	-0.1305079
182	0x3db12e25	0.086513795
183	0xbd937492	-0.071999684
184	0x3e0c8f0a	0.1372644
185	0x3d51080a	0.051033057
186	0xbdd7c770	-0.105360866
187	0xbdd8b46b	-0.10581287
188	0xbe30d914	-0.17270309
189	0xbe2b13c1	-0.16706754
190	0xbde323d3	-0.11090817
191	0x3d3725db	0.044713836
192	0xbd4c0159	-0.049805973
193	0x3d0911ca	0.03346423
194	0xbe1819c0	-0.14853573
195	0xba077f56	-0.0005168816
196	0xbda779da	-0.08177538
197	0x3d3a3b9e	0.04546701
198	0xbdf7ebda	-0.12105532
199	0x3dabcb1d	0.0838835
200	0xbd94822f	-0.07251393
201	0x3c9fe5cf	0.019518761
202	0xbd981ac4	-0.0742698
203	0x3e16f5d1	0.14742209
204	0x3c87b827	0.016567303
205	0x3daecb80	0.08534908
206	0xbd8c6767	-0.0685566
207	0x3e0e2053	0.13879518
208	0xbd82c5ec	-0.06385407
209	0x3de2948b	0.110634886
210	0x3e2a6a9a	0.16642228
211	0xbdb409ae	-0.08790909
212	0x3d20f5e4	0.039297
213	0x3d10373b	0.035208922
214	0xba2d8ef2	-0.0006620727
215	0x3d9be68a	0.07612331
216	0x3e1d8e5d	0.15386339
217	0xbad2db2c	-0.0016087047
218	0x3d2db8ae	0.042412452
219	0x3ddc1e8f	0.10748016
220	0xbe12136e	-0.14265224
221	0x3dd275ce	0.10276376
222	0x3bb58ec2	0.0055406997
223	0xbe014aa0	-0.12626123
224	0x3d950f2a	0.07278283
225	0xbda3e033	-0.08001747
226	0xbe0410f7	-0.12897097
227	0xbd6938da	-0.056938984
228	0x3cba7b87	0.02276398
229	0x3dcd0e01	0.10012437
230	0xbd9de8ac	-0.07710394
231	0x3e159db1	0.14610936
232	0xbdfd6a85	-0.123738326
233	0xbe025c4a	-0.12730518
234	0x3d8d4263	0.06897428
235	0x3e2745e7	0.1633526
236	0x3e07b689	0.13253225
237	0x3e0067ae	0.1253955
238	0x3c27cc42	0.01024157
239	0xbd7d33e6	-0.061817072
240	0xbe045e5a	-0.12926617
241	0xbdfcf89b	-0.12352105
242	0x3d60a761	0.054847125
243	0xbc55b2e5	-0.01304314
244	0xbcdab42a	-0.026697237
245	0xbd0ab5db	-0.033864837
246	0x3810e58a	3.454605e-05
247	0xbdd0dd92	-0.10198511
248	0xbd218b50	-0.0394395
249	0x3e10d7e0	0.1414485
250	0xbdbd261f	-0.09235787
251	0xbc57928b	-0.013157497
252	0xbe099e88	-0.13439381
253	0xbd87a53a	-0.06623311
254	0x3d6e9040	0.058243036
255	0x3d9b1b8a	0.07573612

bn1.weight f4 [400]
0	0x3f83694f	1.0266513
1	0x3f61b005	0.8815921
2	0x3f7f277a	0.9966961
3	0x3f4a722c	0.7908046
4	0xbfc9b284	-1.5757604
5	0x3eb5eae4	0.3553077
6	0x3f856153	1.0420326
7	0x3f9f62d3	1.2452034
8	0x3f063e08	0.524384
9	0x3f1654ad	0.58722955
10	0x3f2dfe26	0.67965925
11	0x3f51af89	0.8190847
12	0x3f96849d	1.175922
13	0x3f6b0810	0.9180918
14	0x3e8cc63a	0.27494985
15	0x3f85d1ca	1.0454648
16	0x3ed6972d	0.41912213
17	0x3f47c5eb	0.78036374
18	0x3e66ac3d	0.22526641
19	0x3f7d55c0	0.9895897
20	0x3ed0e992	0.408032
21	0x3f3e5f73	0.74364394
22	0x3f57db15	0.8431867
23	0x3f7e9801	0.9945069
24	0x3f6881ec	0.90823245
25	0x3e216e79	0.15764798
26	0x3f22a407	0.63531536
27	0x3f3b3579	0.7312847
28	0x3f946096	1.1591976
29	0x3f53b9f0	0.82705593
30	0x3f69ff77	0.91405433
31	0x3f853f7f	1.0410002
32	0x3f08c046	0.53418386
33	0x3f4cf6d3	0.80064124
34	0x3f83eaa1	1.0305978
35	0x3f605a53	0.87637824
36	0x3f957e5b	1.1679186
37	0x3ea74f6e	0.32677788
38	0x3f355bee	0.708434
39	0x3f4fd66d	0.8118656
40	0x3f57bcfb	0.84272736
41	0x3f625b84	0.8842089
42	0x3f652f4d	0.895253
43	0x3f1badf1	0.6081229
44	0x3e804a3a	0.2505663
45	0x3f20fc53	0.62885016
46	0x3f2f9451	0.6858569
47	0x3f07f8a3	0.53113765
48	0x3f366a94	0.71256375
49	0x3f6237ff	0.88366693
50	0x3f5bb311	0.8582011
51	0x3f1e0958	0.6173301
52	0x3f73c517	0.9522261
53	0x3f8bc2ae	1.0918787
54	0x3f237fc5	0.63866836
55	0x3f65db10	0.8978739
56	0x3f3cdd6b	0.73775357
57	0x3f3b0cba	0.73066294
58	0x3eb5b560	0.3548994
59	0x3c5032d9	0.0127074355
60	0x3f3d9be0	0.7406597
61	0x3f36994c	0.7132766
62	0x3f81a83a	1.0129464
63	0x3f4612a0	0.7737217
64	0x3f77267f	0.96543115
65	0x3fdc9d30	1.723547
66	0x3f4b1554	0.7932942
67	0x3f5d5a9f	0.864664
68	0x3f69e4a8	0.91364527
69	0x3f87d4eb	1.0611852
70	0x3ed13585	0.40861145
71	0x3f728b90	0.94744205
72	0x3f783274	0.96951985
73	0x3f320b0e	0.6954812
74	0x3f3e3231	0.74295336
75	0x3f448abe	0.76774204
76	0x3f53eaf8	0.8278041
77	0x3f60dc34	0.87836003
78	0x3f0dde82	0.55417645
79	0x3f5c2e23	0.860079
80	0x3f055a26	0.5209068
81	0x3fa0ff24	1.2577863
82	0x3c090057	0.008361897
83	0x3f8213e5	1.0162321
84	0x3f950973	1.1643509
85	0x3a3e3eba	0.0007257272
86	0x3f460c7e	0.7736281
87	0x3f3bb24f	0.7331895
88	0x3f8fc449	1.1231776
89	0x3f5bbf24	0.8583853
90	0x3f032d9b	0.51241463
91	0x3f29d866	0.6634582
92	0x3f8fc0af	1.1230677
93	0x3f969da1	1.1766855
94	0x3ecabb1e	0.39595884
95	0x3f94ded2	1.1630499
96	0x3f6c9d8f	0.92427915
97	0x3f6659c4	0.8998072
98	0x3f576f60	0.8415432
99	0x3f58b139	0.8464542
100	0x3f2944ff	0.66120905
101	0x3f616a13	0.8805248
102	0x401dab47	2.463579
103	0x3f92e891	1.1477224
104	0x3f80d543	1.0065082
105	0x3f7bf5c2	0.9842187
106	0x3eca1a61	0.3947325
107	0x3f297a52	0.6620227
108	0x3f9320e2	1.149441
109	0x3ee7c72a	0.45269138
110	0x3f443276	0.766395
111	0x3f489ce8	0.7836442
112	0x3f29dae5	0.6634963
113	0x3f10f88c	0.5662925
114	0x3fdbb7f7	1.7165517
115	0x3f4e1f21	0.8051625
116	0x3f6341fd	0.88772565
117	0x3f031cd0	0.5121584
118	0x3faec78c	1.3654647
119	0x3e11b787	0.14230166
120	0x3f4609e8	0.77358866
121	0x3f455741	0.77086264
122	0x3f9b7c23	1.2147259
123	0x3f712134	0.9419129
124	0x3f4c9b9a	0.7992493
125	0x3f84d284	1.0376744
126	0x3ee03047	0.43786833
127	0x3f30c0d4	0.6904423
128	0x3f3da800	0.7408447
129	0x3f825b5a	1.0184128
130	0x3f53100e	0.8244637
131	0x3f77058c	0.9649284
132	0x3f9ee366	1.2413146
133	0x3f34c10a	0.70607054
134	0x3f7cd861	0.9876767
135	0x3f7d753d	0.99007016
136	0x3f7e3923	0.99305934
137	0x3f6dc09e	0.92872036
138	0x3f4ca93c	0.7994573
139	0x3f78917c	0.9709699
140	0x3e65146b	0.2237107
141	0x3f508ec8	0.81467867
142	0x3f03475d	0.51280767
143	0x3edba236	0.42897195
144	0x3ee46767	0.4461014
145	0x3ee1db45	0.44112602
146	0x3f3fe313	0.7495586
147	0x3f310296	0.6914457
148	0x3f89d72d	1.0768791
149	0x3e9518b1	0.291204
150	0x3f4c5b75	0.7982705
151	0x3edb0d2d	0.4278349
152	0x3f90713a	1.1284554
153	0x3f7ae92e	0.98012054
154	0x3f3c6554	0.73592114
155	0x3ec9fc53	0.3945032
156	0x3f226283	0.63431567
157	0x3f1e069f	0.61728853
158	0x3f1e11cc	0.61745906
159	0x3f88b651	1.0680639
160	0x3f6eeb9c	0.9332826
161	0x3f1c2ce8	0.6100602
162	0x3e9165e9	0.28398064
163	0x3ed3e5df	0.41386315
164	0x3f17a59a	0.5923706
165	0x3fb1f1b7	1.390189
166	0x3f6a54d0	0.91535664
167	0x3f953c3c	1.1659007
168	0x3f90b086	1.1303871
169	0x3f789e53	0.97116584
170	0x3e14265b	0.14467756
171	0x3f029d6b	0.5102145
172	0xbefde296	-0.49586934
173	0x3f6be5b2	0.9214736
174	0x3f3e65ec	0.7437427
175	0x3f5a1047	0.8518109
176	0x3f532fd1	0.8249484
177	0x3f761451	0.9612475
178	0x3f84a2ba	1.036216
179	0x3e8b9546	0.27262324
180	0x3eb9fe28	0.36326718
181	0x3f46e0eb	0.7768695
182	0x3f48cca8	0.7843728
183	0x3f53404f	0.8252
184	0x3f1119f2	0.56680214
185	0x3f167cd0	0.587842
186	0x3f7f8474	0.9981148
187	0x3f6c3547	0.92268795
188	0x3fb81225	1.4380537
189	0x3f53f813	0.82800406
190	0x3f78b897	0.9715666
191	0x3f1015e9	0.5628343
192	0x3f0eb083	0.55738086
193	0x3e9514e6	0.29117507
194	0x3eae744f	0.3407311
195	0x3ee6d57d	0.45084754
196	0x3f19f340	0.60136795
197	0x3f3e5c8a	0.74359953
198	0x3f0aed8d	0.54268724
199	0x3f350826	0.7071556
200	0x3f0b57cc	0.5443084
201	0x3ed09a54	0.40742743
202	0x3f580067	0.84375614
203	0x3efaa95f	0.48957345
204	0x3f8c0383	1.0938572
205	0x3f99eadb	1.2024797
206	0x3f084fc4	0.5324671
207	0x3f3c6090	0.7358484
208	0x3f21d0c4	0.63209176
209	0x3f664ceb	0.8996112
210	0x3f818a59	1.0120345
211	0x3f6f3926	0.93446577
212	0x3ebb74b5	0.36612478
213	0x3f3789cb	0.7169463
214	0x3f1d1abe	0.6136893
215	0x3f95bfce	1.1699159
216	0x3f5d1bd5	0.86370593
217	0x3f8f3a0d	1.1189591
218	0x3f117be7	0.56829685
219	0x3f2b1035	0.66821605
220	0x3f8779e6	1.0584075
221	0x3f7fc866	0.9991516
222	0x3f46de88	0.77683306
223	0x3ec49677	0.38396046
224	0x3ea667bb	0.32501015
225	0x3ebf09fd	0.37312308
226	0x3f985c91	1.1903249
227	0x3f424df8	0.7590022
228	0x3f004e25	0.5011924
229	0x3f2cd331	0.6750975
230	0x3f3482f0	0.70512295
231	0x3d79f1ac	0.061021492
232	0x3f23d6e6	0.63999784
233	0x3b21fbec	0.0024716808
234	0x3e90d024	0.282838
235	0x3f58077b	0.84386414
236	0x3f65a750	0.89708424
237	0x3ec93a9f	0.39302537
238	0x3f1f4d58	0.6222739
239	0x3f10b114	0.565202
240	0x3eebc961	0.46052077
241	0x3fac6ab7	1.3470067
242	0x3fb39b71	1.4031812
243	0x3f52c9c9	0.8233915
244	0x3f82d5d3	1.0221504
245	0x3f48d539	0.7845035
246	0x3f4bb052	0.7956592
247	0x3dd43c92	0.10363115
248	0x3f59083f	0.8477821
249	0x3f957949	1.1677638
250	0x3ec6db75	0.38839307
251	0x3ed30529	0.41214874
252	0x3fafad7f	1.3724822
253	0x3fc4494b	1.5334867
254	0x3e856b8f	0.26058623
255	0x3ef40222	0.47657877

bn1.bias f4 [400]
0	0xbfb5f7c6	-1.421624
1	0xbf403418	-0.7507949
2	0xbf8ffe0b	-1.1249403
3	0xbfa5cdf4	-1.2953477
4	0xbfbb6ef3	-1.4643234
5	0xbf96727c	-1.1753688
6	0xbfc0e9a0	-1.5071297
7	0xbf8df08f	-1.1089038
8	0xbfd76581	-1.6827852
9	0xbfbc3833	-1.4704651
10	0xbf7f36eb	-0.99693173
11	0xbf9438e1	-1.1579858
12	0xbf7aafc0	-0.97924423
13	0xbf3979ae	-0.72451293
14	0xbf88325c	-1.0640368
15	0xbfb664cb	-1.424951
16	0xbfbdf300	-1.4839783
17	0xbf8897ef	-1.0671366
18	0xbf9681ac	-1.1758323
19	0xbf6b27ee	-0.918578
20	0xbfa93dd1	-1.322199
21	0xbfb2f284	-1.398026
22	0xbf91dcb0	-1.1395473
23	0xbfbd2bfe	-1.477905
24	0xbf317061	-0.693121
25	0xbfb95908	-1.4480295
26	0xbe265c70	-0.162462
27	0xbf17e4f1	-0.5933371
28	0xbf89eb70	-1.0774975
29	0xbfbb2ccf	-1.462305
30	0xbf5b8e23	-0.8576376
31	0xbf9caa1f	-1.2239417
32	0xbfd4f287	-1.6636513
33	0xbf884a88	-1.0647745
34	0x3e215a00	0.15756989
35	0xbf44ad36	-0.768268
36	0xbfa21b1e	-1.2664526
37	0xbfa8b20d	-1.3179337
38	0xbeb56786	-0.35430545
39	0xbf0a45b8	-0.5401263
40	0xbf71a100	-0.9438629
41	0xbfd67ace	-1.6756227
42	0xbf5fb16a	-0.8738009
43	0xbf8d6f74	-1.1049638
44	0xbf704ec2	-0.93870175
45	0xbf9b6c61	-1.214245
46	0xbf51e3bc	-0.8198812
47	0xbf7aa777	-0.9791178
48	0xbfc72edd	-1.5561177
49	0xbeca76aa	-0.39543658
50	0xbf444b94	-0.76677823
51	0xbf187922	-0.59559834
52	0xbfd81295	-1.6880671
53	0xbf6fa3ef	-0.9360952
54	0xbf121f65	-0.57079154
55	0xbf64f7b8	-0.8944049
56	0xbf9b75eb	-1.2145361
57	0xbf58c667	-0.8467774
58	0xbfcd19ab	-1.6023458
59	0xbe0c973f	-0.13729571
60	0xbf4f3cda	-0.8095223
61	0xbf4db1e6	-0.80349576
62	0xbfa5c5a7	-1.2950944
63	0xbfe31518	-1.7740812
64	0xbfc44c34	-1.5335755
65	0xbfbac748	-1.4592066
66	0xbfb0daa8	-1.3816729
67	0xbf831106	-1.023957
68	0xbf87a8af	-1.0598353
69	0xbf49fba8	-0.7889962
70	0xbfbd66b5	-1.4796969
71	0xbf8c9c79	-1.0985252
72	0xbf8732ae	-1.0562341
73	0xbf805cb1	-1.0028287
74	0xbf9ada6c	-1.2097907
75	0xbf94c2e0	-1.1621971
76	0xbfa9d495	-1.3268
77	0xbfbebe6f	-1.4901866
78	0xbfa116cd	-1.2585083
79	0xbf8497d9	-1.035884
80	0xbf94367a	-1.1579125
81	0xbd8bf8aa	-0.06834538
82	0xbd568050	-0.052368462
83	0xbfa67a10	-1.3006
84	0xbfc482e5	-1.5352446
85	0xbc233f37	-0.009963802
86	0xbf8b2a25	-1.0872236
87	0x3dbed6d1	0.09318317
88	0xbf6bfbd9	-0.92181164
89	0xbfabd0fd	-1.3423153
90	0xbe8237de	-0.25433248
91	0xbf25ce36	-0.6476778
92	0xbf9c0eb5	-1.2191988
93	0xbf82bedf	-1.0214499
94	0xbfac284d	-1.3449799
95	0xbf74bbad	-0.9559887
96	0xbf3cba67	-0.7372193
97	0xbf3eaecb	-0.7448546
98	0xbed10c55	-0.4082972
99	0xbf4f2ec8	-0.8093076
100	0xbd37be88	-0.04485944
101	0xbf89396b	-1.0720648
102	0xbcb9ce7b	-0.022681465
103	0xbf818ab4	-1.0120454
104	0xbeb31c78	-0.34982657
105	0xbf978668	-1.1837893
106	0xbfbdd3e2	-1.4830287
107	0xbfaeed53	-1.3666176
108	0xbfbf1da7	-1.4930924
109	0xbfbf76a9	-1.4958087
110	0xbf0bf6e0	-0.54673576
111	0xbfa29f62	-1.270489
112	0xbf5bf6cb	-0.8592345
113	0xbf5dc045	-0.86621505
114	0xbf4c79da	-0.7987343
115	0xbef0f14b	-0.47059092
116	0xbf9a1545	-1.2037741
117	0x3e2d5f01	0.16930772
118	0xbf891272	-1.0708754
119	0xbf411547	-0.7542309
120	0xbfa43c4a	-1.2830899
121	0xbf9314c9	-1.1490718
122	0xbff1dfc1	-1.8896409
123	0xbf9625c3	-1.1730274
124	0xbf171d1a	-0.5902878
125	0xbfab158c	-1.336595
126	0xbee356bb	-0.44402108
127	0xbfb11cc3	-1.3836902
128	0xbf392e66	-0.72336423
129	0xbee009bb	-0.43757424
130	0xbf44d96b	-0.76894253
131	0xbf7d4545	-0.9893382
132	0xbfa20e81	-1.2660676
133	0xbf3b76c8	-0.7322812
134	0xbf895d3b	-1.0731577
135	0xbf8ecdf8	-1.1156607
136	0xbf1d860c	-0.61532664
137	0xbfaa033c	-1.3282237
138	0xbf90c7ea	-1.1311009
139	0xbf97e701	-1.1867372
140	0x3f342f80	0.7038498
141	0xbef7bc12	-0.48385674
142	0xbec5eee4	-0.38658822
143	0xbfea0548	-1.8282862
144	0xbfcb4e87	-1.588334
145	0xbf384518	-0.7198043
146	0xbf8071dc	-1.0034747
147	0xbf9ec744	-1.2404561
148	0xbfa852dc	-1.3150287
149	0xbf84f5d4	-1.0387521
150	0xbfb29507	-1.395173
151	0xbfbdc0a8	-1.4824419
152	0x3d835551	0.06412757
153	0xbfc75b40	-1.5574722
154	0xbee77e5a	-0.45213586
155	0xbfcec1f6	-1.6152942
156	0xbf60911b	-0.87721413
157	0xbe5bb928	-0.2145735
158	0xbfdaefa1	-1.7104379
159	0xbfb2bc34	-1.3963685
160	0xbf58ece3	-0.8473646
161	0xbee79101	-0.45227817
162	0xbf982b46	-1.1888206
163	0xbe34fb7f	-0.17674063
164	0xbf610b18	-0.8790755
165	0xbfa35d3b	-1.2762827
166	0xbf7bc370	-0.9834509
167	0xbfcfd77a	-1.6237633
168	0xbf6e754e	-0.9314774
169	0xbf7be54d	-0.9839676
170	0xbf88a195	-1.0674311
171	0xbfabbbeb	-1.3416723
172	0xbf9164a7	-1.1358842
173	0xbf70eab4	-0.9410813
174	0xbe6db2d0	-0.23212743
175	0xbf904d8d	-1.1273667
176	0xbf9341d3	-1.1504463
177	0xbfaf7bf2	-1.37097
178	0xbf94a413	-1.1612571
179	0xbf91c219	-1.1387359
180	0xbf951527	-1.164708
181	0xbf84620f	-1.0342425
182	0xbfd93fdb	-1.6972612
183	0xbf8f9b4c	-1.1219268
184	0xbf65460c	-0.8956001
185	0xbf402ae5	-0.7506545
186	0xbcb15d20	-0.02165085
187	0xbf7dd9c7	-0.99160427
188	0xc0109224	-2.2589197
189	0xbf516059	-0.8178764
190	0xbfae50bd	-1.3618389
191	0xbf8ec3ea	-1.1153538
192	0xbfc8f681	-1.5700227
193	0xbf896488	-1.0733805
194	0xbfaa87d6	-1.3322704
195	0x3e701621	0.23445942
196	0xbf97fffb	-1.1874994
197	0xbfa428ac	-1.2824912
198	0xbefa9acb	-0.48946223
199	0xbf584cd1	-0.8449221
200	0xbf8fda6a	-1.123853
201	0xbfb2a6cd	-1.3957154
202	0xbf7a2b06	-0.977219
203	0xbf072400	-0.52789307
204	0xbf852741	-1.0402604
205	0xbf6625dd	-0.89901525
206	0xbf118a77	-0.56851906
207	0xbefd85f8	-0.49516273
208	0xbeb01642	-0.3439198
209	0xbf829911	-1.0202962
210	0xbf282b5c	-0.6569116
211	0xbf7de660	-0.9917965
212	0xbfe253d7	-1.7681836
213	0xbf292692	-0.6607448
214	0xbf7cdab3	-0.9877121
215	0xbfb17ec3	-1.386681
216	0xbfaf4e56	-1.3695781
217	0xbf894d94	-1.07268
218	0xbef2b386	-0.4740259
219	0xbfa60ba2	-1.29723
220	0xbfa86712	-1.3156455
221	0xbf97acd3	-1.1849617
222	0xbf4b1a1b	-0.7933671
223	0xbf108c39	-0.5646396
224	0xbfa67ffc	-1.3007808
225	0xbf8c5a3e	-1.096504
226	0xbfa7d9c1	-1.3113328
227	0xbf5a7220	-0.8533039
228	0xbfa10da0	-1.2582283
229	0xbf8544d2	-1.0411627
230	0xbf176c0a	-0.5914923
231	0x3ff56ed7	1.9174451
232	0xbf5d9189	-0.86550194
233	0xbc974b60	-0.018468559
234	0x3f6afad7	0.91789
235	0xbf8799bb	-1.059379
236	0xbf343aee	-0.7040242
237	0xbf71869b	-0.94346017
238	0xbf966769	-1.1750308
239	0x3f641eb7	0.8910937
240	0xbfcbfb6e	-1.5936105
241	0xbfc18bba	-1.5120766
242	0xbfd554f9	-1.6666557
243	0xbf376808	-0.71643114
244	0xbf2fb41d	-0.68634206
245	0x3e9e0470	0.3086276
246	0xbf7f31a7	-0.9968514
247	0xbed192ff	-0.40932462
248	0xbf948e12	-1.1605856
249	0xbf96fd8b	-1.1796125
250	0xbfac5e54	-1.3466287
251	0xbeacd385	-0.33755127
252	0xbf0481b6	-0.51760423
253	0xbf5e08ea	-0.8673235
254	0xbf9b9178	-1.2153769
255	0xbf6c193f	-0.9222602

bn1.running_mean f4 [400]
0	0xc0f0ad83	-7.5211806
1	0xc0887fef	-4.265617
2	0xc107f604	-8.497562
3	0x4102054c	8.126293
4	0x3e23ee3c	0.16008848
5	0xc09d6469	-4.918507
6	0x40819eb5	4.0506234
7	0xc026c56c	-2.6057997
8	0x3e7de3f3	0.24793987
9	0x3e9cc5b3	0.30619583
10	0x4004a70e	2.0726962
11	0x3f929134	1.1450562
12	0x3ec16990	0.3777585
13	0xbfd65c7c	-1.6746974
14	0xc0903d7a	-4.5075045
15	0x4036e8e2	2.857964
16	0xbf6b46a5	-0.9190467
17	0x4006566d	2.099025
18	0x4016d43b	2.3567035
19	0xc095d33d	-4.682036
20	0x4012551d	2.286445
21	0xc1125e45	-9.148015
22	0x40bd36ea	5.9129534
23	0xc01b379c	-2.4252691
24	0xbf8d8bad	-1.1058251
25	0xc00ec92c	-2.2310286
26	0xbfd13a04	-1.634583
27	0xc098a443	-4.7700515
28	0xbee9a173	-0.45630988
29	0xbfc69e56	-1.551707
30	0x3f0ce543	0.55037326
31	0xbfa0dc08	-1.2567148
32	0xc0496d96	-3.1473136
33	0xbf53e548	-0.8277173
34	0x3f40c138	0.7529483
35	0x3f9016fa	1.1257012
36	0xbf774910	-0.9659586
37	0x40252286	2.5802321
38	0x3fa90272	1.3203871
39	0xc101cde7	-8.112769
40	0xbf99561c	-1.1979403
41	0xc110d0fb	-9.051021
42	0xc0d50844	-6.657259
43	0x3f4ea3e4	0.8071883
44	0x403a9545	2.9153607
45	0xbfa82e13	-1.3139061
46	0x405aa465	3.4162838
47	0xc0b1bc15	-5.554209
48	0x3faeee57	1.3666486
49	0x406fb5d9	3.745474
50	0x409f92f3	4.986688
51	0x3ffab987	1.9587868
52	0xc0c92834	-6.2861576
53	0x3f0791a0	0.5295658
54	0x3fa44f9e	1.2836797
55	0xc01e1492	-2.4700055
56	0x404e618f	3.2247045
57	0xc0bcad59	-5.8961606
58	0x3fe42fbf	1.7827071
59	0x3ec467c0	0.38360405
60	0xc0432fb1	-3.0497859
61	0xc12d44f3	-10.829333
62	0x40370107	2.8594377
63	0x3fb28fea	1.3950169
64	0x3fb77ab0	1.4334316
65	0xbf51fe0f	-0.8202829
66	0x3ff66135	1.9248415
67	0x412843d0	10.516556
68	0x408e352c	4.4439907
69	0xbf41645a	-0.7554375
70	0x3ddcaec4	0.107755214
71	0xbd044c07	-0.032299068
72	0xbfbe924a	-1.4888394
73	0xc06a44d9	-3.6604521
74	0xbf1cb45d	-0.6121271
75	0x40e62c7c	7.19293
76	0xc0b5576a	-5.6669207
77	0xc02ca375	-2.6974766
78	0xc0b00944	-5.501131
79	0x3f82316a	1.017133
80	0xbf85f1bb	-1.0464395
81	0xc00f9a5f	-2.243797
82	0x3e57cc19	0.21073951
83	0x3e77e9c2	0.24210265
84	0xc05b021f	-3.4220045
85	0xbe41db88	-0.18931401
86	0xc0ca5b2c	-6.3236294
87	0xc0579bfe	-3.368896
88	0x406b4695	3.676183
89	0xc0a8530c	-5.2601376
90	0xc00ddc64	-2.2165766
91	0x40660c49	3.5944998
92	0xc02f9674	-2.743558
93	0x401b2065	2.4238522
94	0x40baba67	5.835254
95	0x3fc65bc5	1.5496756
96	0xc00062b5	-2.0060246
97	0x40c310db	6.0958076
98	0xbf847658	-1.0348616
99	0x40cf9bfa	6.48779
100	0x40929cea	4.5816545
101	0xc0a4bc07	-5.1479526
102	0x3face951	1.3508703
103	0xbf83a205	-1.028382
104	0x40c018c0	6.0030212
105	0xc09d2575	-4.9108224
106	0x40c97df2	6.296624
107	0xbfed7ef8	-1.8554373
108	0xc0068371	-2.1017725
109	0xbff3cdab	-1.904714
110	0x3e18672e	0.1488311
111	0xc00cf4dd	-2.2024453
112	0xc08c2f1d	-4.380751
113	0xbee73370	-0.4515643
114	0x4007a03a	2.1191545
115	0x40d2c66d	6.586722
116	0xbedd4990	-0.43220186
117	0x40fbc0dc	7.8672924
118	0xbf6b3e96	-0.91892374
119	0x402f5717	2.7396905
120	0x3e820f72	0.2540241
121	0xbfee34d6	-1.8609874
122	0xc0a1d9e6	-5.057849
123	0xc168458e	-14.516981
124	0x3f25beda	0.6474434
125	0xbfd5822c	-1.668035
126	0x40888f98	4.2675285
127	0x3eac50c9	0.33655384
128	0xc105a95f	-8.35385
129	0xc0d98149	-6.797032
130	0xc09103ae	-4.531699
131	0xc0a29ca9	-5.0816236
132	0x3f762f72	0.96166146
133	0xc083c142	-4.117341
134	0x4045f6a3	3.0931785
135	0xc04e29d5	-3.2213032
136	0x40a6c717	5.211803
137	0xc0b76a1e	-5.7317038
138	0xc07d1694	-3.954503
139	0xc0989512	-4.768197
140	0xc10e15ad	-8.880292
141	0xbe40ed79	-0.18840589
142	0x40cad13d	6.338042
143	0xbe9c5ffe	-0.30541986
144	0xc0819e87	-4.0506015
145	0xc0546f1c	-3.3192816
146	0xbed5bab9	-0.4174402
147	0x3ead938e	0.33901638
148	0x3f9edc4c	1.2410979
149	0xc01a28ff	-2.4087522
150	0xc003f998	-2.062109
151	0x4060bf1a	3.511664
152	0xc0b24e95	-5.5720925
153	0xc1017867	-8.091895
154	0x40e64fb5	7.19723
155	0xc0b882e5	-5.7659783
156	0x3e0bd1dd	0.13654275
157	0x3fd6cf9c	1.6782107
158	0xc091ac6e	-4.5522985
159	0xbf3dd1c1	-0.74148184
160	0x3fd70734	1.6799073
161	0x405799b5	3.3687565
162	0xc088a73d	-4.270415
163	0x3dcb1715	0.09916512
164	0x40cf2286	6.4729643
165	0xc012e7ce	-2.2953982
166	0x40a4397d	5.1320176
167	0xc03973f2	-2.8977017
168	0x3f3b94ba	0.73273814
169	0x3f93279c	1.1496463
170	0x3e0e5d72	0.13902834
171	0xbe85e079	-0.26147822
172	0xc0bbde1c	-5.870863
173	0xbfe53e4a	-1.7909634
174	0xc00d6752	-2.2094312
175	0xc05278ac	-3.2886152
176	0xc00af87b	-2.171416
177	0xc05fe59c	-3.4983892
178	0xc08b523d	-4.353789
179	0xbf7b9263	-0.98270243
180	0xbe923556	-0.28556317
181	0xbfda85a9	-1.707204
182	0xc02a00d0	-2.6562996
183	0xc00fd39d	-2.2472908
184	0xbfe1b70e	-1.7633989
185	0x4054f497	3.3274286
186	0x3f487aab	0.78312176
187	0xc009099f	-2.1412122
188	0xc051e3a1	-3.2795184
189	0xbffe9b55	-1.9891154
190	0x408d2ffd	4.412108
191	0x3f2d8102	0.67774975
192	0xc0a05070	-5.009819
193	0xbf5d34c1	-0.8640862
194	0xc09e364b	-4.9441276
195	0x4003d604	2.0599375
196	0x3f913a59	1.1345931
197	0xbff7718d	-1.9331528
198	0x40df1efa	6.9725313
199	0xc0cb2b6d	-6.349051
200	0xbf5d4c61	-0.8644467
201	0xbffb326e	-1.9624765
202	0x3e0cd5f0	0.13753486
203	0xc02592fe	-2.5870967
204	0x4096b61e	4.709731
205	0xc041aad1	-3.0260508
206	0x405a0be1	3.406975
207	0xc04eadd4	-3.2293596
208	0xc08c0925	-4.3761163
209	0x40a172db	5.0452704
210	0x3cb2d5e8	0.021830514
211	0x3f9989cf	1.1995181
212	0xc0197cdd	-2.398246
213	0x3f8a3bb1	1.0799466
214	0xc04c46af	-3.1918142
215	0xbf76c9b0	-0.964015
216	0x4029e063	2.6543205
217	0xbfff76f2	-1.9958174
218	0xc08412b4	-4.127283
219	0xc11a5176	-9.644888
220	0xbfc7ba8e	-1.5603807
221	0xc0c7e47a	-6.24664
222	0x3ecbb094	0.39783156
223	0xc0a3ebfa	-5.1225557
224	0xc0924def	-4.5720134
225	0x40fc0532	7.875634
226	0xbf05e2fc	-0.52299476
227	0x3fc75e65	1.5575682
228	0xbfb405cc	-1.4064269
229	0xc13ed455	-11.926839
230	0x3faa25c8	1.329278
231	0x4147a7c1	12.478456
232	0xc1066f5a	-8.402185
233	0xbdc41c7f	-0.09575748
234	0x41104741	9.017396
235	0x40197c54	2.3982134
236	0xc071a774	-3.7758455
237	0xbf84b149	-1.0366603
238	0xbf99c00c	-1.2011733
239	0x3d73211a	0.05935774
240	0xbffd2386	-1.9776466
241	0x3f9a3de4	1.2050138
242	0xc0874332	-4.2269526
243	0xbff12553	-1.8839515
244	0x3fd9f179	1.7026817
245	0x3fee23e8	1.8604708
246	0x402ed902	2.731995
247	0xbfd27fc3	-1.644524
248	0xbfc556fd	-1.5417172
249	0x3f53bdf1	0.827117
250	0xc03bc8e2	-2.934136
251	0xc07fc726	-3.99653
252	0x3f87424f	1.0567111
253	0x3f86297f	1.0481414
254	0x4075a0c6	3.8379378
255	0x403c2805	2.9399426

bn1.running_var f4 [400]
0	0x4219d725	38.460102
1	0x42c0359e	96.10472
2	0x4294df00	74.43555
3	0x42349245	45.14284
4	0x42150785	37.257343
5	0x420dbe9e	35.43615
6	0x41af8c09	21.943377
7	0x424b44b2	50.817085
8	0x42cf6b68	103.70978
9	0x43126ebc	146.43256
10	0x423b47c8	46.8201
11	0x421dca59	39.447605
12	0x430c2cee	140.1755
13	0x424307da	48.757668
14	0x428f6e8c	71.71591
15	0x4200b815	32.179768
16	0x42bb0804	93.515656
17	0x430a2d7c	138.17767
18	0x427760b4	61.844437
19	0x42197161	38.36072
20	0x42e88b4a	116.27205
21	0x424faa64	51.916397
22	0x42986d8c	76.21396
23	0x41398fa2	11.597567
24	0x421f7cd3	39.8719
25	0x41c833c2	25.025272
26	0x416e22df	14.883513
27	0x42d0726e	104.223495
28	0x41b5bacb	22.716208
29	0x428f59eb	71.67562
30	0x42aa872f	85.26403
31	0x421a0b8b	38.511272
32	0x42ca5c86	101.18071
33	0x42a5ebf8	82.96088
34	0x4130dfbd	11.054624
35	0x42da0d9e	109.026596
36	0x42097a18	34.369232
37	0x427b9530	62.89569
38	0x41da05d2	27.252842
39	0x422a4ede	42.57702
40	0x42bbdd6e	93.93248
41	0x42a29f90	81.311646
42	0x42883298	68.098816
43	0x4217288c	37.789597
44	0x42cce610	102.44934
45	0x4242cc7c	48.69969
46	0x41883f48	17.0309
47	0x41eda660	29.706238
48	0x426c3fa3	59.062145
49	0x4236fe80	45.748535
50	0x420a39f0	34.55658
51	0x421308b4	36.7585
52	0x4197efdc	18.992119
53	0x4234eb71	45.229923
54	0x42138919	36.883884
55	0x42bdc8bd	94.89207
56	0x42380e4f	46.013973
57	0x4377cd4b	247.80193
58	0x42af06a2	87.512955
59	0x3fd6dae3	1.6785549
60	0x42703faf	60.06219
61	0x41877af7	16.935041
62	0x4216c457	37.69174
63	0x43559246	213.57138
64	0x42c2a89f	97.32934
65	0x4040d602	3.013062
66	0x419850a8	19.039383
67	0x42c1c80e	96.89073
68	0x41a46e9a	20.554005
69	0x41bbd6a4	23.479805
70	0x42be3e19	95.121284
71	0x42266433	41.59785
72	0x420697b3	33.648144
73	0x422d6e08	43.357452
74	0x42e483ee	114.257675
75	0x41f786c7	30.94081
76	0x422843d2	42.06623
77	0x41d4d393	26.603308
78	0x428a110d	69.0333
79	0x4280bc3c	64.367645
80	0x42908357	72.25652
81	0x40669c21	3.6032794
82	0x3ebb1ac9	0.36543873
83	0x42ce42d0	103.13049
84	0x4288551b	68.16622
85	0x3e11187a	0.14169493
86	0x428651a2	67.15944
87	0x425c9f36	55.15548
88	0x41d7e6dc	26.987724
89	0x42a727cb	83.57772
90	0x42b81dd3	92.05825
91	0x4247536e	49.831474
92	0x424db345	51.425068
93	0x4141df20	12.116974
94	0x42db8a6c	109.770355
95	0x41afdcff	21.982908
96	0x424aa21d	50.658314
97	0x422a2aca	42.541786
98	0x42ea2af1	117.08387
99	0x4266611f	57.594845
100	0x41b1e84f	22.238432
101	0x420f9b04	35.901382
102	0x428e2a28	71.08234
103	0x40773a0d	3.8629181
104	0x416d43b1	14.829026
105	0x42a6bec0	83.37256
106	0x42adc1ab	86.87826
107	0x420adc02	34.71485
108	0x41d0e157	26.11003
109	0x42bf963e	95.79344
110	0x4275f5c3	61.49
111	0x41de76ab	27.807943
112	0x42ab6405	85.69535
113	0x41b66d08	22.803238
114	0x41351466	11.31748
115	0x422dcfee	43.453056
116	0x427285d1	60.63068
117	0x41964de8	18.78804
118	0x422a2485	42.535664
119	0x4280789d	64.23557
120	0x41c8b4cf	25.088285
121	0x42857f9f	66.74926
122	0x421b6b99	38.855076
123	0x422be40e	42.97271
124	0x424eae50	51.670227
125	0x421eaf6b	39.671307
126	0x413ae604	11.681156
127	0x4272ff07	60.74905
128	0x4294a09b	74.31368
129	0x41f3e5ea	30.487263
130	0x42190991	38.259342
131	0x424e0d67	51.51309
132	0x41a9ca57	21.223799
133	0x42df805c	111.7507
134	0x42669d11	57.653385
135	0x42d09110	104.283325
136	0x429e03e5	79.00761
137	0x4214918a	37.142128
138	0x41f86810	31.050812
139	0x41cd9c40	25.701294
140	0x42863887	67.110405
141	0x428e99d9	71.30048
142	0x423cda7b	47.21336
143	0x4236341d	45.55089
144	0x42e2600a	113.18758
145	0x41a5683c	20.675896
146	0x4115f236	9.371634
147	0x42511e5a	52.27964
148	0x41979ab0	18.950531
149	0x42ba2134	93.06485
150	0x426cea3f	59.228756
151	0x42d41935	106.04923
152	0x411071fe	9.02783
153	0x424f4c84	51.824722
154	0x41de2d46	27.772106
155	0x428af49e	69.47777
156	0x4218d261	38.20545
157	0x429974df	76.728264
158	0x429e03e6	79.007614
159	0x43296853	169.40752
160	0x41a8dc92	21.1077
161	0x42354454	45.316727
162	0x42607799	56.116795
163	0x4286ec5f	67.46166
164	0x43053a45	133.22762
165	0x41cbb7b9	25.464708
166	0x41dd641c	27.673882
167	0x4215253b	37.286358
168	0x41a1c50d	20.221216
169	0x4190a786	18.081799
170	0x41c00c5b	24.006033
171	0x430977f1	137.46852
172	0x41e8a4f2	29.08054
173	0x41e5bb48	28.716446
174	0x40d7d3c0	6.7445984
175	0x42402001	48.031254
176	0x4213cc04	36.949234
177	0x42120129	36.501133
178	0x42160d54	37.513016
179	0x42250674	41.2563
180	0x431090df	144.5659
181	0x41945168	18.53975
182	0x4326d7d8	166.84314
183	0x41a10468	20.127151
184	0x421b6b57	38.854824
185	0x4232d488	44.70755
186	0x41dd5c3a	27.670033
187	0x422f2037	43.78146
188	0x4168f279	14.559197
189	0x423b556e	46.833427
190	0x424b500c	50.82817
191	0x426aecc3	58.731213
192	0x42503d7e	52.06005
193	0x42e2a427	113.32061
194	0x424a5480	50.58252
195	0x41f84e86	31.038342
196	0x4200d266	32.205467
197	0x41f1ae31	30.210054
198	0x42dd7269	110.72346
199	0x41a16829	20.17586
200	0x42717b89	60.37064
201	0x41f1db5c	30.23211
202	0x42b90370	92.506714
203	0x430ad446	138.8292
204	0x425cfdbe	55.247795
205	0x41a60e0f	20.756865
206	0x423ee492	47.723213
207	0x4218dbb5	38.214558
208	0x41e6edaf	28.866056
209	0x42171a0b	37.775433
210	0x41fd5d30	31.670502
211	0x4252ac23	52.668102
212	0x42328605	44.63088
213	0x42ab91f3	85.78506
214	0x4238b0bd	46.172596
215	0x421bcc8a	38.949745
216	0x428c4c45	70.148964
217	0x4142adce	12.167433
218	0x42b7855b	91.76046
219	0x4232790f	44.61822
220	0x422f6405	43.847675
221	0x4331f38e	177.95139
222	0x433938e8	185.22229
223	0x41a99b05	21.200693
224	0x424c6dc9	51.107212
225	0x42ea1978	117.04974
226	0x4234b9b1	45.18134
227	0x42acc09b	86.37618
228	0x432015f5	160.08577
229	0x41d52a5c	26.645683
230	0x421fff52	39.999336
231	0x421629bd	37.54076
232	0x4206037b	33.5034
233	0x3da5848c	0.08081922
234	0x42f62a8c	123.0831
235	0x4283fe5d	65.9968
236	0x416e3565	14.888036
237	0x42815e0d	64.68369
238	0x427b4f02	62.827156
239	0x42981bc4	76.05423
240	0x433111a8	177.06897
241	0x41a6529c	20.790337
242	0x42490927	50.258938
243	0x41516f8e	13.089735
244	0x415c1a6d	13.756452
245	0x42020a9c	32.51036
246	0x4264395d	57.05602
247	0x41aa41b8	21.28209
248	0x4237022b	45.752117
249	0x41d38f65	26.445017
250	0x42d585e2	106.76149
251	0x421c98e6	39.149315
252	0x40646b37	3.5690439
253	0x41a69300	20.821777
254	0x424d87d3	51.38264
255	0x419b09fa	19.379871

fc2.weight f4 [300, 400]
0	0xbe788363	-0.2426887
1	0x3d80408b	0.062623106
2	0x3cdd324d	0.027001524
3	0xbe2a7ec7	-0.16649924
4	0xbe228996	-0.15872797
5	0x3d9e5d7e	0.07732676
6	0xbed25f43	-0.41088304
7	0xbeae94df	-0.34097955
8	0x3d07f841	0.033195738
9	0xbe0cda96	-0.13755259
10	0xbe71540f	-0.23567222
11	0x3b6d9bfc	0.0036256304
12	0xbe4d7911	-0.20065714
13	0xbc75667d	-0.014978048
14	0x3d235bb4	0.039882377
15	0x3dd1ed50	0.10250342
16	0x3d268d6d	0.040662218
17	0x3e1eee7f	0.15520667
18	0x3bb01561	0.0053736423
19	0x3b919927	0.004443306
20	0x3e89297f	0.26789472
21	0xbe58d62f	-0.21175455
22	0xbcc94bb4	-0.02457223
23	0xbda7e73b	-0.081984006
24	0xbedba762	-0.4290114
25	0xbdca927c	-0.09891221
26	0x3d1d7771	0.038443986
27	0xbcac7d69	-0.021055894
28	0xbdc8b03d	-0.0979924
29	0xbe10f1d7	-0.14154755
30	0xbe8452cf	-0.25844428
31	0xbe01def5	-0.12682708
32	0xbeb50483	-0.35355005
33	0x3ddf0124	0.108888894
34	0xbe365cd9	-0.17808856
35	0xbe3cd2f4	-0.18439847
36	0xbdc06926	-0.093950555
37	0x3ce93062	0.028465454
38	0xbea9d219	-0.33168104
39	0xbe88b63b	-0.2670153
40	0xbed044f8	-0.4067762
41	0x3a04f015	0.00050711754
42	0x3e0e724d	0.1391079
43	0x3d7b0384	0.06128265
44	0xbcf73f31	-0.0301815
45	0xbd564323	-0.05231012
46	0xbe5666b0	-0.2093761
47	0x3e744d6e	0.23857662
48	0xbe82f3b9	-0.2557657
49	0x3d6a77d0	0.05724317
50	0xbebe38d7	-0.3715274
51	0xbf0a9e9d	-0.54148275
52	0xbd939c32	-0.07207526
53	0xbe4f80fb	-0.20264046
54	0xbec9f9ef	-0.39448497
55	0xbd3b741f	-0.04576504
56	0xbe80b2db	-0.25136456
57	0x3eae55b8	0.34049773
58	0xbd3ec1b6	-0.046571456
59	0xbd9001e4	-0.070316106
60	0xbd9a1fdf	-0.0752561
61	0x3e26b2fd	0.16279216
62	0xbeff4148	-0.49854493
63	0xbec37f7d	-0.38183203
64	0xbec4dea3	-0.38451108
65	0xbe8b1e02	-0.27171332
66	0xbc582a5f	-0.013193696
67	0xbeb71392	-0.35757118
68	0xbc5f3c5c	-0.013625231
69	0xbde4b661	-0.111675985
70	0xbc8c8929	-0.017155247
71	0xbe0ead29	-0.13933243
72	0xbded0e72	-0.11575021
73	0x3d92cb3b	0.071676694
74	0xbd82db3c	-0.06389472
75	0xbec50c38	-0.38485885
76	0xbc3c44f3	-0.011491048
77	0xbcf0cee7	-0.029395534
78	0xbe5db522	-0.21651128
79	0xbee99245	-0.45619407
80	0xbe73f9bb	-0.23825733
81	0xbe3dd836	-0.18539509
82	0xbd2e58ea	-0.042565264
83	0xbea439e1	-0.32075408
84	0x3e458c12	0.19291714
85	0x3b428ed5	0.0029687185
86	0x3e8dad87	0.27671453
87	0xbd522565	-0.051305193
88	0xbd3ef4f0	-0.04662031
89	0xbdafc799	-0.08582992
90	0x3e5cb552	0.21553543
91	0x3d4978c2	0.04918743
92	0xbe139cf4	-0.14415342
93	0xbcca73e2	-0.02471346
94	0x3d1e7856	0.03868898
95	0xbdf24b5b	-0.11830779
96	0xbe861b53	-0.26192722
97	0xbd5fddcf	-0.054654893
98	0xbe12afa6	-0.14324817
99	0xbdbee4a8	-0.093209565
100	0xbe28cda7	-0.164847
101	0xbcd98607	-0.026553167
102	0xbf13c642	-0.5772439
103	0xbf17fbc2	-0.59368527
104	0x3e4327e1	0.19058181
105	0xbd0b33ca	-0.033984937
106	0x3de01ff9	0.10943598
107	0xbe62b84c	-0.22140616
108	0xbe55c575	-0.20876105
109	0xbdd858ab	-0.10563787
110	0xbd9396bf	-0.07206487
111	0xbda5e87b	-0.08100983
112	0xbe668d52	-0.22514847
113	0xbe70a629	-0.23500885
114	0xbe739df6	-0.23790726
115	0xbe591c93	-0.21202306
116	0xbb87f3b9	-0.004148927
117	0xbe4ac7ef	-0.19802831
118	0xbd435e5d	-0.047697414
119	0x3e3c8a5f	0.1841216
120	0x3da317fe	0.079635605
121	0x3dda83a4	0.1066964
122	0xbe2c857e	-0.16847798
123	0xbeed6e23	-0.4637309
124	0xbe2630f0	-0.16229606
125	0x3e7b1929	0.24521317
126	0x3db734eb	0.0894564
127	0x3e7d9f4f	0.24767803
128	0xbd981174	-0.07425204
129	0xbe5471c7	-0.20746528
130	0xbe88c675	-0.2671391
131	0xbdbf4150	-0.09338629
132	0xbea3fcb5	-0.32028738
133	0x3d5f4560	0.05450952
134	0xbec8f920	-0.39252567
135	0xbe0ded0e	-0.1385996
136	0x3e018669	0.1264893
137	0x3ddc8e65	0.10769347
138	0x3cb7ad33	0.022421455
139	0xbe207087	-0.15667926
140	0xbcc03c15	-0.02346615
141	0x3d88ae3f	0.0667386
142	0xbed239f1	-0.4105983
143	0x3d221525	0.039570946
144	0xbe0e67e9	-0.13906826
145	0xbe8ba852	-0.27276856
146	0x3e07034c	0.13184851
147	0xbcc3f022	-0.023918215
148	0xbdddf131	-0.10837019
149	0xbd53d1dc	-0.05171381
150	0xbe882714	-0.26592314
151	0xbc4cd538	-0.012502007
152	0xbeb501f4	-0.35353053
153	0xbea0c355	-0.31399027
154	0xbe8e7bf8	-0.27828956
155	0xbf0fcdd8	-0.5617347
156	0xbda33c6c	-0.07970509
157	0xbea336dc	-0.31877792
158	0xbcc4014c	-0.0239264
159	0xbe8682ff	-0.26271817
160	0xbe66c97a	-0.22537795
161	0xbee9504c	-0.45569074
162	0x3db9f524	0.0907996
163	0xbf164744	-0.5870249
164	0xbd9e5804	-0.077316314
165	0xbe9d8309	-0.30764034
166	0xbe142d75	-0.14470465
167	0xbd0c5ab2	-0.03426618
168	0xbc92b0f8	-0.01790665
169	0xbea2520d	-0.31703225
170	0x3d9ad76c	0.0756062
171	0xbe818d53	-0.25303134
172	0xbe523232	-0.2052696
173	0xbe7e9383	-0.24860959
174	0xbd8aa898	-0.06770438
175	0xbe13a078	-0.14416683
176	0xbebde8e7	-0.37091753
177	0xbe27398d	-0.16330548
178	0x3cdbb16d	0.026818002
179	0x3e41121f	0.18854569
180	0xbea1c1eb	-0.3159326
181	0x3de107a8	0.109877884
182	0xbd898039	-0.0671391
183	0xbe214f37	-0.15752874
184	0x3cea766e	0.028620925
185	0x3d822668	0.06354982
186	0x3c91ae16	0.017783206
187	0xbdec3825	-0.11534146
188	0xbdefdf22	-0.11712481
189	0xbe4e33da	-0.20136967
190	0xbe1df899	-0.15426864
191	0xbd2c6d77	-0.04209658
192	0xbe16a3dc	-0.14710945
193	0xbe6399a9	-0.22226585
194	0xbd896a03	-0.06709673
195	0xbe8d8810	-0.2764287
196	0xbbd1e7e3	-0.006405817
197	0xbf0c2a50	-0.54752064
198	0xbe8c1f89	-0.2736781
199	0xbd82a0e6	-0.06378345
200	0x3e3f326f	0.18671583
201	0x3e15ebac	0.14640683
202	0x3daef654	0.08543077
203	0x3d90f983	0.070788406
204	0xbd8bf915	-0.06834618
205	0xbe889b07	-0.26680776
206	0xbdc8e4c8	-0.098092616
207	0xbdad96c8	-0.08476025
208	0xbdd28020	-0.10278344
209	0x3e3433cd	0.17597885
210	0x3eadf5f4	0.3397671
211	0x3dd5a52c	0.10431895
212	0x3cfc4e30	0.030799001
213	0xbe2e64f7	-0.17030703
214	0xbc8bef5a	-0.017081905
215	0x3e32caa1	0.1746011
216	0xbd2865fb	-0.04111288
217	0xbee6be6c	-0.45067155
218	0xbd0ea2d8	-0.03482327
219	0xbe9fff28	-0.31249356
220	0xbe017c5d	-0.12645097
221	0x3d80d516	0.06290643
222	0x3db5da37	0.08879512
223	0xbe58f29d	-0.211863
224	0xbed82ae4	-0.42220223
225	0x3dfb11b2	0.122592345
226	0xbc90a5e2	-0.017657224
227	0x3ccf192d	0.02528056
228	0x3e436192	0.19080189
229	0x3db478ca	0.08812101
230	0xbd8969f2	-0.067096606
231	0xbbf5a605	-0.0074965977
232	0xbe07c78b	-0.13259713
233	0x3d30efca	0.04319743
234	0xbe06af92	-0.13152912
235	0xbcf6ee36	-0.030142885
236	0xbe694885	-0.2278157
237	0x3dbf61c7	0.093448214
238	0xbeb979d4	-0.3622576
239	0xbdc83ffc	-0.09777829
240	0xbd4c4c4b	-0.049877446
241	0xbe9befa9	-0.30456284
242	0xbd80201d	-0.06256125
243	0xbe5df034	-0.21673661
244	0xbe567be6	-0.20945701
245	0x3ce18f9b	0.027534297
246	0xbc4d3083	-0.012523773
247	0xbe877b1b	-0.2646111
248	0xbedc8ceb	-0.43076262
249	0xbe46d4a2	-0.1941705
250	0xbe79d567	-0.24397813
251	0xbeda910d	-0.4268879
252	0xbe867f23	-0.26268873
253	0xbe21ad48	-0.15788758
254	0xba988709	-0.0011636923
255	0x3e40e9a3	0.18839125
