0710_200757_critic.pth (torch_old, 549487 bytes, 9 tensors)

fcs1.weight f4 [400, 33]
0	0xbe16a1c4	-0.14710146
1	0xbe5b24ff	-0.21400832
2	0x3cdad87a	0.026714552
3	0xc02c1d1f	-2.6892774
4	0x40078193	2.1172836
5	0xbf88bb51	-1.0682164
6	0x3fa13720	1.2594948
7	0xbe46ef40	-0.19427204
8	0xbe209a62	-0.15683892
9	0x3d300f0c	0.0429831
10	0x3ccb2aa7	0.024800612
11	0xbe0cd0d8	-0.13751543
12	0xbe1fd09b	-0.1560692
13	0x3ea40d66	0.32041472
14	0x3db71449	0.08939416
15	0x3eb78298	0.35841823
16	0x3e9fa802	0.31182867
17	0xbf20ad90	-0.62764835
18	0x3f3f971b	0.74839944
19	0xbf408308	-0.7519994
20	0x3e1d431e	0.15357634
21	0xbdcbc6a3	-0.09949996
22	0x3e94de04	0.29075634
23	0x3e4aa82e	0.19790718
24	0x3e52aaf9	0.20573033
25	0xbe57f8e4	-0.21091038
26	0x3d6c8584	0.057744518
27	0x3cd3e639	0.025866615
28	0x3dace247	0.084415965
29	0xbd17423d	-0.036928404
30	0x3b0bde2e	0.0021342146
31	0x3cc947ca	0.024570365
32	0x41479519	12.473901
33	0x3f1e5a20	0.6185627
34	0xc003b790	-2.0580788
35	0xbf248fed	-0.64282113
36	0x3edd7831	0.4325576
37	0x3f4b4ef9	0.7941738
38	0xbf8e6b4b	-1.1126493
39	0xbeb8c824	-0.36090195
40	0xbe51fa61	-0.20505668
41	0xbf8080de	-1.0039327
42	0xbf0b10b9	-0.5432239
43	0x3d8368c6	0.06416468
44	0x3e3bee74	0.18352681
45	0xbf0e804c	-0.55664515
46	0xbd1900d1	-0.037354294
47	0x3f884c3a	1.0648263
48	0xbeb07293	-0.34462413
49	0xbf89a1f2	-1.0752547
50	0xbe8f8f88	-0.28039193
51	0xbf8cfef7	-1.1015309
52	0x4004cc15	2.0749562
53	0xbf2e93db	-0.6819436
54	0x3e36baa5	0.17844637
55	0xbf2a63de	-0.66558635
56	0x3f746010	0.9545908
57	0xbba8bc5f	-0.0051494087
58	0x3f9b381c	1.2126498
59	0xbf5e8f49	-0.86937386
60	0xbce93a6d	-0.028470242
61	0x3ed7a2ca	0.42116386
62	0x3c598d24	0.013278279
63	0x3cd43f8f	0.025909213
64	0xbb967070	-0.0045910403
65	0xc0081966	-2.1265502
66	0x3f7150c6	0.94263875
67	0x3c778158	0.015106522
68	0xbef8290e	-0.48468822
69	0xbf330017	-0.6992201
70	0x3f39364a	0.72348464
71	0xc01fdf9e	-2.4980235
72	0xbe5f8638	-0.21828544
73	0xbe38a888	-0.1803304
74	0x3f8ba2fa	1.0909111
75	0x3f80b3de	1.0054891
76	0xbd2c1da0	-0.04202044
77	0xbf122d35	-0.5710023
78	0xbf1a1ebe	-0.6020316
79	0x3fbcfac0	1.4764023
80	0xbf829bb6	-1.0203769
81	0xbf9bfe0f	-1.2186908
82	0x3f0c834f	0.5488786
83	0xbfb37900	-1.4021301
84	0x3e9dd4cd	0.30826417
85	0xbf7b8dc8	-0.98263216
86	0x3e9d2997	0.30695793
87	0x3e8f8a42	0.2803517
88	0x3e6a4406	0.22877511
89	0xbed2965d	-0.41130343
90	0xbe452cba	-0.19255343
91	0xbf54bfcb	-0.8310515
92	0xbf139793	-0.5765316
93	0x3d185030	0.037185848
94	0x3f8ab431	1.083624
95	0xbd09364c	-0.033499047
96	0xbc895ac1	-0.016766908
97	0xbbd401c0	-0.006469935
98	0xbf7f206f	-0.99658865
99	0x3ebf1430	0.3732009
100	0xbf6fc88c	-0.93665385
101	0xbe056172	-0.13025454
102	0xc01cffc6	-2.4531112
103	0xc01032f4	-2.25311
104	0xc03134a3	-2.7688377
105	0x3f49df99	0.7885681
106	0xbec57dfe	-0.38572687
107	0xbf5c52ba	-0.8606373
108	0x3ec70d2b	0.38877234
109	0xbe6547b1	-0.2239063
110	0xbe9b3603	-0.30314645
111	0x3e073364	0.13203198
112	0xbd968652	-0.07349838
113	0x3d2017d7	0.039085235
114	0x3f522c05	0.8209842
115	0xbf21ddb4	-0.6322892
116	0x3f7ee67f	0.9957046
117	0x3f2164ea	0.6304461
118	0xc046a0eb	-3.1035717
119	0x3e7360f0	0.23767447
120	0xbe4ab763	-0.19796519
121	0x3edbd803	0.4293824
122	0x3c37ee80	0.011226296
123	0x3ed634b5	0.41837087
124	0x3e7f200d	0.2491457
125	0x3f9c19e6	1.2195404
126	0x3c8c29f3	0.017109847
127	0xbf205c75	-0.6264108
128	0xbcdc5f5d	-0.026900942
129	0x3ceec39d	0.02914601
130	0xbca7922a	-0.020455439
131	0xc08b3a8d	-4.3508973
132	0xbcfe4848	-0.031040326
133	0xbc933650	-0.017970234
134	0xba40f34c	-0.0007360473
135	0x3d4fb2a7	0.050707486
136	0x3cbaee22	0.022818629
137	0xbd3ff27a	-0.046862103
138	0x3ce80ba6	0.028325867
139	0xbce229d3	-0.027607834
140	0x3b9ecce0	0.0048462003
141	0xbc841d9f	-0.016127406
142	0xbcc99156	-0.024605434
143	0x3d0077e2	0.03136433
144	0x3d2cdc75	0.04220243
145	0xbd362d9d	-0.044477094
146	0xbd40b5e5	-0.04704847
147	0x3d4a8a8d	0.04944854
148	0x3d582ade	0.052775256
149	0x3c28879b	0.010286237
150	0xbd213eca	-0.03936652
151	0xbc3ac98f	-0.011400594
152	0x3ca6d0ad	0.020363176
153	0xbd12f2ef	-0.03587621
154	0xbcfaf57f	-0.03063464
155	0xbc9ef0cc	-0.01940193
156	0xbcdab29a	-0.026696492
157	0xbc7064f1	-0.014672504
158	0x3d66a6ce	0.05631142
159	0x3d1b5999	0.037927244
160	0xbd5ef289	-0.05443052
161	0xbc794088	-0.015213139
162	0x3c7ffc44	0.01562411
163	0xbce37717	-0.027766747
164	0x3ceb0690	0.028689653
165	0xbf3d0b10	-0.73845005
166	0xbfa4a901	-1.2864076
167	0xbe747dd9	-0.23876132
168	0x401de6af	2.4672048
169	0x3f9e21a4	1.2354016
170	0xbd75ce49	-0.060011182
171	0xbdbfb05f	-0.09359812
172	0x3d7c13e5	0.06154241
173	0x3f4e205f	0.80518144
174	0xbea2f688	-0.31828713
175	0x3e832e73	0.25621375
176	0x3e9b8c83	0.3038064
177	0x3f37e9a2	0.7184087
178	0x3dcc83cc	0.09986076
179	0xbf8c8c94	-1.0980401
180	0x3fa5f6ba	1.296592
181	0xbf9cd451	-1.2252294
182	0x3f6c00ac	0.92188525
183	0x3f11aa04	0.5690005
184	0xbf4b7183	-0.7947008
185	0xbda5e091	-0.08099473
186	0x3e9ba488	0.30398965
187	0xbf53a641	-0.8267556
188	0x3e6975d0	0.22798848
189	0x3eafe9a0	0.3435793
190	0x3ff46679	1.9093772
191	0x3d6fc387	0.05853608
192	0x3b97802e	0.0046234345
193	0x3e87989b	0.26483616
194	0xb9c1f100	-0.00036991388
195	0xbc04859b	-0.008088495
196	0x3d2a4921	0.041573647
197	0x3f0c8a9e	0.54899013
198	0xbf7e852b	-0.9942195
199	0x3fe0a592	1.7550528
200	0xbfbecf18	-1.490695
201	0x3dc7ba0e	0.09752284
202	0xbf4d3e6e	-0.80173385
203	0x3ea31d63	0.31858358
204	0xbf9ef894	-1.241961
205	0xbf20a26e	-0.6274785
206	0x3f0ae234	0.5425141
207	0x3f157f1b	0.5839707
208	0x3f2aafbc	0.666744
209	0xbd99279e	-0.074782595
210	0xbe91825c	-0.2841977
211	0x3f5dfa6b	0.8671023
212	0x3f795b93	0.97405356
213	0xbf56912f	-0.8381528
214	0x3ebd6369	0.36989906
215	0x3f2dff1c	0.6796739
216	0x3dd58f0f	0.10427677
217	0x3f85013d	1.0391003
218	0x3e94d401	0.29067996
219	0xbed14cb0	-0.4087882
220	0xbf5ff0e7	-0.8747696
221	0xbee2989d	-0.4425706
222	0x3ece9efd	0.40355673
223	0x3fc645c2	1.5490038
224	0xbe545bc8	-0.20738137
225	0x3bc84b12	0.0061124647
226	0xbf53b523	-0.8269827
227	0x3c71f244	0.014767233
228	0xbd37efc9	-0.04490641
229	0x3cdacf82	0.026710276
230	0xbfed6987	-1.8547829
231	0x3e8692d9	0.2628391
232	0x3ebd2966	0.36945647
233	0x3d2d75b1	0.042348567
234	0xbe81f76b	-0.25384077
235	0xbf6a992b	-0.91639966
236	0x3f3861ec	0.72024417
237	0xbf24d89a	-0.6439301
238	0x3d32ca1f	0.04364979
239	0xbdbdbfc9	-0.09265096
240	0xbe171a06	-0.14756021
241	0x3dfa5923	0.12224033
242	0xbc4eec93	-0.012629646
243	0x3d37ebaf	0.0449025
244	0xbe5bb94d	-0.21457405
245	0xbd904472	-0.07044305
246	0x3db28ae7	0.087179
247	0x3fd41a67	1.6570557
248	0xc0064ef9	-2.09857
249	0xbf647a16	-0.8924879
250	0xbe841a0c	-0.25801122
251	0x3d6d93fb	0.058002453
252	0x3d7fbd94	0.062436655
253	0xbda64de4	-0.08120325
254	0xbc07c3e5	-0.008286451
255	0x3d339422	0.043842442

fcs1.bias f4 [400]
0	0x3d49c864	0.049263373
1	0x3e1e3ee3	0.15453677
2	0x3dbbfe82	0.09179403
3	0x3ce9c540	0.028536439
4	0xbdf16470	-0.11786735
5	0x3dee32e4	0.116308
6	0x39441af0	0.00018702052
7	0x3d53cc4b	0.0517085
8	0xbda98e4a	-0.082790926
9	0xbe145feb	-0.14489715
10	0xbe217961	-0.15768959
11	0xbd55da5c	-0.052210197
12	0xbe04a0ea	-0.12952009
13	0xbe1a6d46	-0.15080747
14	0x3e30dfd6	0.17272887
15	0x3d8c35e6	0.06846218
16	0xbcbc621f	-0.022996007
17	0xbe1d4da1	-0.15361644
18	0xbdfd7ffd	-0.123779275
19	0xbe283818	-0.16427648
20	0xbd2ff3b0	-0.042957008
21	0x3dfebe1f	0.124386065
22	0xbcba84df	-0.022768436
23	0x3d1b72ee	0.037951402
24	0xbc523a81	-0.012831331
25	0x3dd79c4c	0.10527858
26	0x3e2a1619	0.16609992
27	0xbd90ca69	-0.07069857
28	0xbe098efe	-0.13433453
29	0x3dd08dab	0.10183271
30	0x3dea5724	0.11442402
31	0x3c724cf0	0.014788851
32	0xbda064f1	-0.07831753
33	0xbd288ca0	-0.041149735
34	0x3dc9880c	0.09840402
35	0x3d52735d	0.05137955
36	0xbd78dcc8	-0.06075743
37	0x3d47dbf0	0.048793733
38	0x3d5d31f8	0.054002732
39	0xbd4d7689	-0.050161872
40	0xbdcc3a90	-0.099721074
41	0x3d2e2009	0.04251102
42	0x3d2d57ac	0.04231994
43	0x3e2d0873	0.16897754
44	0xbce7ecb5	-0.028311113
45	0x3c5e51fd	0.013569352
46	0x3d1fb0c7	0.038986947
47	0x3d9f1a36	0.07768671
48	0x3da90c80	0.08254337
49	0xbdf7786d	-0.12083516
50	0x3e176250	0.14783597
51	0x3d0dae03	0.03458978
52	0x3e336d5b	0.17522185
53	0xbe0993c8	-0.1343528
54	0x3e1edebf	0.15514658
55	0x3e01d7ce	0.12679979
56	0xbd88e109	-0.06683547
57	0xbe23c54a	-0.15993229
58	0x3ce806a1	0.028323473
59	0x3dd8f5e5	0.10593776
60	0xbdb5b8c4	-0.08873132
61	0x3d93bb17	0.07213419
62	0x3cdd5fba	0.027023185
63	0x3e17eedc	0.14837211
64	0x3e2e4793	0.17019491
65	0x3da15830	0.078781486
66	0xbcfdba63	-0.030972665
67	0xbd6b7a91	-0.057489935
68	0x3dfa0f0f	0.122099034
69	0xbdb8ba7f	-0.09019946
70	0xbd828eed	-0.06374917
71	0xbdd12103	-0.102113746
72	0xbe310e33	-0.17290573
73	0x3e20250c	0.15639132
74	0x3de53375	0.11191455
75	0x3d92210e	0.07135211
76	0x3e0392a8	0.12848914
77	0x3dfb474b	0.122694574
78	0x3df6e42c	0.12055239
79	0xbde77711	-0.11302007
80	0x3dea2f38	0.114347875
81	0xbc4580fa	-0.012054676
82	0x3e2acdca	0.16680065
83	0x3e1c18d8	0.15243852
84	0x3d1f1f04	0.03884794
85	0xbdc01118	-0.093782604
86	0x3e280f63	0.1641212
87	0xbe309537	-0.17244421
88	0xbd98efb5	-0.074675955
89	0x3d4f23d5	0.05057128
90	0x3ca24614	0.019808806
91	0xbe074c97	-0.1321281
92	0xbdcf8500	-0.101327896
93	0x3d0d19b4	0.03444834
94	0xbd08e6eb	-0.033423346
95	0xbe1090b5	-0.14117701
96	0x3dd048a8	0.10170108
97	0x3e041801	0.12899782
98	0xbc92fa89	-0.01794173
99	0x3db4d47a	0.08829589
100	0x3d14e518	0.036351293
101	0x3dc5bebd	0.09655521
102	0x3a99e241	0.0011740403
103	0x3d5a2067	0.053253558
104	0x3df796ec	0.12089333
105	0xbd5cc052	-0.05389435
106	0x3e003cc2	0.12523177
107	0x3d45d2f5	0.048296887
108	0xbe10484c	-0.14090079
109	0x3e0d63f4	0.1380766
110	0xbd8e31c5	-0.069430865
111	0xbe2ed674	-0.17073995
112	0xbd333e3e	-0.04376053
113	0xbe304d6c	-0.17217034
114	0xbd5067e9	-0.050880346
115	0xbd2fbc49	-0.042904172
116	0xbe0124b2	-0.12611654
117	0x3e11718e	0.14203474
118	0x3de0726b	0.109593235
119	0x3db37dfd	0.08764265
120	0x3e24f6e4	0.16109806
121	0xbd909c71	-0.07061089
122	0x3d89bb20	0.067251444
123	0x3e04ad3a	0.12956706
124	0x3e0ee73f	0.13955401
125	0x3d84cb38	0.064840734
126	0x3da294d9	0.07938547
127	0x3e1fcda8	0.15605795
128	0x3e1504f4	0.1455267
129	0xbe0d3819	-0.13790931
130	0x3e126cd3	0.14299326
131	0xbd8c2fe5	-0.06845073
132	0x3de5a849	0.112137385
133	0xbe2c83cc	-0.16847152
134	0x3e1f3505	0.15547569
135	0x3e13e71c	0.1444363
136	0xbd4b8c93	-0.04969461
137	0x3e240699	0.16018142
138	0x3d0e54ab	0.034748714
139	0xbdeab725	-0.11460713
140	0x3d8d145a	0.068886474
141	0xbde19487	-0.110146575
142	0xbdba5a65	-0.09099273
143	0x3e19f73e	0.15035722
144	0x3bb454ea	0.0055032866
145	0xbdc493b2	-0.09598483
146	0xbe2a4785	-0.16628845
147	0xbc10721c	-0.008816268
148	0x3ca03731	0.019557567
149	0xbcfd1fff	-0.030899046
150	0x3c10680f	0.008813872
151	0x3e118395	0.14210351
152	0xbe22d1a8	-0.1590029
153	0x3d2a39f8	0.04155919
154	0xbc988cfd	-0.018621916
155	0xbe1d4166	-0.15356979
156	0xbe2d27a0	-0.16909647
157	0xbbd758a2	-0.006571845
158	0xbe2c4182	-0.16821864
159	0x3e30842b	0.17237918
160	0xbe17ff1b	-0.14843409
161	0xbb919e2c	-0.0044439044
162	0xbb965f23	-0.004588978
163	0xbdd0d857	-0.101975136
164	0x3e26d004	0.16290289
165	0xbcc9562d	-0.024577225
166	0xbd86e6f8	-0.065870225
167	0x3e1129db	0.14176123
168	0x3d6af744	0.057364717
169	0xbd5718e5	-0.052513976
170	0xbe2d551e	-0.16927001
171	0xbd090198	-0.033448786
172	0xbd316e28	-0.043317944
173	0xbd422518	-0.047398657
174	0x3dd44504	0.10364726
175	0xbc4b5a0f	-0.012411608
176	0x3d54cde0	0.05195415
177	0x3e1144b5	0.14186366
178	0x3b3ecc22	0.0029113372
179	0x3e2a177a	0.16610518
180	0x3d95e261	0.07318569
181	0xbe05fbf5	-0.13084395
182	0x3db4e501	0.088327415
183	0xbd91a720	-0.07111955
184	0x3e0d491b	0.13797419
185	0x3d487ae6	0.04894533
186	0xbdd5abee	-0.104331836
187	0xbdd92408	-0.106025755
188	0xbe30adad	-0.17253752
189	0xbe2be2b5	-0.167857
190	0xbde410c6	-0.11136012
191	0x3d34a8ca	0.044106282
192	0xbd4d109d	-0.05006467
193	0x3d0b5289	0.03401426
194	0xbe183c5b	-0.14866774
195	0xbb1ae9ee	-0.0023637968
196	0xbda661b2	-0.08124103
197	0x3d51d537	0.05122873
198	0xbdf612f1	-0.120153315
199	0x3dac49b2	0.08412494
200	0xbd95bf93	-0.073119305
201	0x3ca1be1f	0.019743977
202	0xbd96f770	-0.07371414
203	0x3e17d75e	0.1482825
204	0x3c8b3710	0.01699403
205	0x3dae00f5	0.08496276
206	0xbd8bee42	-0.068325534
207	0x3e0f0bb6	0.13969311
208	0xbd829b05	-0.06377224
209	0x3de4f26f	0.11179053
210	0x3e2af08c	0.16693324
211	0xbdb71037	-0.089386396
212	0x3d1bd828	0.03804794
213	0x3d0dba3e	0.034601443
214	0xbb0103bb	-0.0019686061
215	0x3d990aaa	0.07472737
216	0x3e1d6243	0.15369515
217	0xba9bb200	-0.001187861
218	0x3d3020f0	0.04300016
219	0x3dddca76	0.10829632
220	0xbe12735a	-0.14301816
221	0x3dd0f1b6	0.10202353
222	0x3bcd7578	0.006270107
223	0xbe0182d6	-0.12647566
224	0x3d92b62d	0.071636535
225	0xbda10560	-0.07862353
226	0xbe03856f	-0.1284387
227	0xbd55a090	-0.052155077
228	0x3cbc5383	0.02298904
229	0x3dce52da	0.100743964
230	0xbd9d13c1	-0.076697834
231	0x3e149697	0.1451057
232	0xbdf6c8e0	-0.120500326
233	0xbe025c4a	-0.12730518
234	0x3d8cc44d	0.06873379
235	0x3e26989e	0.16269156
236	0x3e067a02	0.1313248
237	0x3e008b67	0.12553178
238	0x3c1bae21	0.009501965
239	0xbd79adef	-0.06095689
240	0xbe06185f	-0.13095234
241	0xbdfeddca	-0.12444647
242	0x3d5bb7b9	0.05364201
243	0xbc4a7f45	-0.012359445
244	0xbcdfda34	-0.027325727
245	0xbd089cde	-0.033352725
246	0x38b95d92	8.838916e-05
247	0xbdd1d0af	-0.10244881
248	0xbd26c573	-0.040715646
249	0x3e1241f2	0.14282969
250	0xbdbc2c70	-0.09188163
251	0xbc4ddf79	-0.012565487
252	0xbe0b1bbe	-0.13584802
253	0xbd8e4211	-0.06946195
254	0x3d72a3bb	0.059238177
255	0x3d97a444	0.07404378

bn1.weight f4 [400]
0	0x3f77e53f	0.96834177
1	0x3e663c1e	0.2248387
2	0x3f094663	0.53623027
3	0x3ec3b297	0.3822219
4	0xba2a2d8d	-0.0006491773
5	0x3ede4bdd	0.43417254
6	0x3e7b53a4	0.24543625
7	0x3f937f9a	1.1523316
8	0x3eaf62db	0.34255108
9	0x3f225616	0.63412607
10	0x3ec6108c	0.386845
11	0x3eabbdc5	0.3354322
12	0x3ea0ad3d	0.3138217
13	0x3f47fbe3	0.78118724
14	0x3efdfdc8	0.49607682
15	0x3ece363f	0.4027576
16	0x3f08b7c3	0.534054
17	0x3f0a7c35	0.54095775
18	0x3edfb284	0.43690884
19	0x3a0dc72d	0.00054084026
20	0x3e93d108	0.28870416
21	0x3ea1c4da	0.31595498
22	0x3f03e70c	0.51524425
23	0x3eef1686	0.46696872
24	0x3e661e2a	0.22472444
25	0x3ee006eb	0.43755278
26	0x3ebfd2a6	0.374654
27	0x3e91fb97	0.2851226
28	0x3e026ea7	0.12737523
29	0x3ec1b337	0.37832043
30	0x3edb23b9	0.42800692
31	0x3f17cb68	0.5929475
32	0x3f1413ea	0.57842886
33	0x3e3fb66d	0.18721934
34	0x3eba5af1	0.36397508
35	0x3f19d984	0.6009753
36	0x3d959035	0.07302896
37	0x3f098a89	0.5372701
38	0x3eafdf4b	0.34350047
39	0x3ea6055b	0.3242596
40	0x3ed7ef04	0.42174542
41	0x3f1e120c	0.6174629
42	0x3e88bc73	0.26706275
43	0x3e80c8d8	0.25153232
44	0x3f1ebcd6	0.6200689
45	0x4002cc54	2.0437212
46	0x3ee79932	0.45234066
47	0x3eaf04a8	0.3418324
48	0x3e31797b	0.17331497
49	0x3f1a82ff	0.60356134
50	0x3f10f486	0.56623113
51	0x3f5ad978	0.8548808
52	0x3ee892ae	0.45424408
53	0x3e90c3f8	0.28274512
54	0x3e86a797	0.26299736
55	0x3f2702ef	0.6523885
56	0x3ee2c7a8	0.4429295
57	0x3e71285f	0.23550557
58	0x3ed470f3	0.41492423
59	0x3f19efcf	0.60131544
60	0x3f39f668	0.7264161
61	0x3e518541	0.20460989
62	0x3eabe401	0.3357239
63	0x3e2ad0be	0.16681191
64	0x3f10191a	0.562883
65	0x3eb38be9	0.3506768
66	0x3e7c0972	0.24612978
67	0x3e91d13f	0.28479955
68	0x3e5fdde0	0.21861982
69	0x3f898a6c	1.0745368
70	0x3e5e795f	0.21725987
71	0x3f06c51a	0.52644503
72	0x3e8822c2	0.26589018
73	0x3e85bd08	0.26120782
74	0x3e8c6cfd	0.274269
75	0x3e9a7567	0.30167696
76	0x3edd5444	0.43228352
77	0x3f17b04c	0.5925338
78	0x3f0e1931	0.5550719
79	0x3f043cdd	0.5165537
80	0x3ebf7968	0.37397313
81	0x3e7b0efa	0.24517432
82	0x3e11b48c	0.1422903
83	0x3f96fe17	1.1796292
84	0x3ebccdf0	0.36875868
85	0x3b4cc800	0.003124714
86	0x3ea2b309	0.31777218
87	0x3e8cfeab	0.27538046
88	0x3e2ca902	0.16861346
89	0x3ec74bb4	0.38924944
90	0x3ee3733e	0.4442386
91	0x3ec301a6	0.38087195
92	0x3e91bea1	0.2846575
93	0x3f2cda58	0.67520666
94	0x3ed88f48	0.42296815
95	0x3ef67a7e	0.4814033
96	0x3f3cba76	0.73722017
97	0x3ee83c64	0.45358574
98	0x3e8f6e8a	0.28014022
99	0x3e746d21	0.23869754
100	0x3f2b9da0	0.6703739
101	0x3f0a509b	0.54029244
102	0x3ddc2e8a	0.10751064
103	0x3edf640a	0.4363101
104	0x3f1d0901	0.61341864
105	0x3f050192	0.5195552
106	0x3eb5eb88	0.3553126
107	0x3ed02f93	0.40661296
108	0xbb892c8c	-0.0041862186
109	0x3ea01900	0.31269073
110	0x3f14bc60	0.5809994
111	0x3f2de888	0.6793294
112	0x3dd4f55b	0.1039836
113	0x3edd78a8	0.43256116
114	0x3ef2a7ba	0.4739359
115	0x3ea28f92	0.3175016
116	0x3f1c8189	0.61135155
117	0x3eb2174e	0.34783405
118	0x3e9e7934	0.30951846
119	0x3eb83574	0.35978281
120	0xbc07a47a	-0.00827896
121	0x3ed3ddac	0.4138006
122	0x3f214778	0.6299968
123	0x3ed2e738	0.4119203
124	0x3eb4dac5	0.35323158
125	0x3ece53de	0.4029836
126	0x3eacc09d	0.33740702
127	0x3f4d03cc	0.8008392
128	0x3ed983e8	0.4248345
129	0x3f132c9e	0.57489955
130	0x3f8c4df6	1.0961292
131	0x3ed27cac	0.41110742
132	0x3eb91e9a	0.3615616
133	0x3ebe5281	0.3717232
134	0x3ec3254c	0.38114393
135	0x3e08558c	0.13313884
136	0x3ebb2b65	0.36556545
137	0x3e47c586	0.19508943
138	0x3f03c2b3	0.5146896
139	0x3dae994a	0.08525331
140	0x3eca1aec	0.39473665
141	0x3ec576c6	0.3856718
142	0x3e4680a7	0.19385014
143	0x3e7e3a4b	0.24826925
144	0x3e91d9d3	0.284865
145	0x3ee6f4af	0.45108554
146	0x3ebf4051	0.37353757
147	0x3f14280f	0.57873625
148	0x3e92d14e	0.28675312
149	0x3ed3f8ba	0.414007
150	0x3daf7f6d	0.085692264
151	0x3e3d6c70	0.18498397
152	0xbb7b7505	-0.003836931
153	0x3ea855b3	0.32877883
154	0x3e6f9636	0.23397145
155	0x3eb821a0	0.35963154
156	0x3f10e3ca	0.5659758
157	0x3f36b40b	0.71368474
158	0x3f271fd5	0.65282947
159	0x3e369c50	0.17833066
160	0x3ee3141b	0.44351277
161	0x3e08412a	0.13306108
162	0x3f42c8ee	0.76087844
163	0x3e3269eb	0.17423217
164	0x3eac2c52	0.33627564
165	0x3ec391ff	0.38197324
166	0x3ecdfd6b	0.40232405
167	0x3ec02a4f	0.3753228
168	0x3ebf337a	0.3734396
169	0x3ebf76e8	0.37395406
170	0x3ed1f469	0.41006783
171	0x3ed44b6e	0.41463798
172	0xba01987c	-0.00049436814
173	0x3f1ad0df	0.6047496
174	0x3efdb2c9	0.49550465
175	0x3ec2d7a7	0.38055155
176	0x3c2864e4	0.01027796
177	0x3e2d7350	0.1693852
178	0x3e45cda3	0.19316725
179	0x3f1c44f1	0.61042696
180	0x3f0e41d8	0.5556922
181	0x3f1ba300	0.60795593
182	0x3e8203d3	0.25393543
183	0x3efe1c62	0.4963103
184	0x3ef921ef	0.48658702
185	0x3ec2a8c1	0.38019374
186	0x3ee2882d	0.4424452
187	0x3ed64868	0.41852117
188	0x3e808299	0.25099638
189	0x3eae2f8d	0.34020653
190	0x3ed6a1a5	0.419202
191	0x3ed451e5	0.4146873
192	0x3ecb282c	0.39679086
193	0x3e804bf7	0.25057957
194	0x3e969160	0.29407787
195	0x3f18425a	0.59476244
196	0x3ef8438f	0.48489043
197	0x3f2c57e7	0.6732163
198	0x3f01d5ab	0.50716656
199	0x3e61e31f	0.22059296
200	0x3eaf2dc6	0.3421461
201	0x3e8cb606	0.27482623
202	0x3e453771	0.1925943
203	0x3ec32ada	0.3811863
204	0x3e5f8697	0.21828686
205	0x3e91684c	0.28399885
206	0x3f076ced	0.5290058
207	0x3e7aa6e4	0.24477726
208	0x3f0b6ba8	0.54461145
209	0x3ed0f1b8	0.40809417
210	0x3f0fb5e9	0.5613695
211	0x3e63f641	0.22261907
212	0x3f0850d1	0.53248316
213	0x3e9b4192	0.30323464
214	0x3e45f4c8	0.19331658
215	0x3ee95849	0.4557517
216	0x3e65e141	0.22449209
217	0x3ebd9157	0.37024948
218	0x3e712910	0.2355082
219	0x3efd9d17	0.49533913
220	0x3eef71f4	0.46766627
221	0x3ed2d98d	0.41181603
222	0x3ec8fedc	0.39256942
223	0x3cf00ab4	0.029301979
224	0x3e87e4ec	0.2654184
225	0x3e1b368c	0.15157527
226	0x3eee9cdd	0.46604052
227	0x3fb1917b	1.3872522
228	0x3eb5b706	0.35491198
229	0x3f153586	0.58284795
230	0x3f04ebb3	0.5192215
231	0x3f0f09b5	0.55874187
232	0x3f3c27fc	0.7349851
233	0x3b611e40	0.0034350306
234	0x3f0a65c8	0.54061556
235	0x3f1d6273	0.61478347
236	0x3f1e0d85	0.6173938
237	0x3eb9046f	0.36136195
238	0x3f1e98a7	0.6195168
239	0x3eb28d8e	0.34873623
240	0x3edf153f	0.43570897
241	0x3ec311bd	0.3809947
242	0x3e62322f	0.22089456
243	0x3e9eece8	0.3104012
244	0x3e1fd3a3	0.15608077
245	0x3e80cd4f	0.25156638
246	0x3f2ae731	0.6675902
247	0x3eac929c	0.33705604
248	0x3f162c35	0.58661205
249	0x3e9adb0c	0.30245245
250	0x3ebb0216	0.3652503
251	0x3f21cf86	0.6320728
252	0x3efb3370	0.4906268
253	0x3eec8d37	0.46201488
254	0x3edcbff4	0.431152
255	0x3ee19d70	0.44065428

bn1.bias f4 [400]
0	0xbfbe4262	-1.4864008
1	0xbf6512dc	-0.894819
2	0xbf17e977	-0.59340614
3	0xbf2d7474	-0.6775582
4	0xbc95b6c4	-0.018275626
5	0xbe9f67db	-0.31133923
6	0xbf1c2aa6	-0.61002576
7	0xbed63455	-0.418368
8	0xbf865986	-1.049607
9	0xbf990a70	-1.195631
10	0xbf3c5145	-0.7356151
11	0xbed59c99	-0.41721037
12	0xbf6e0e39	-0.9299045
13	0xbf81baf1	-1.0135175
14	0xbf0f8cc8	-0.5607419
15	0xbf8c0f09	-1.0942088
16	0xbf55872a	-0.8340937
17	0xbe86961b	-0.26286396
18	0xbf4b64e0	-0.794508
19	0xbc82666c	-0.01591798
20	0xbf7cf404	-0.9880984
21	0xbedda16c	-0.43287218
22	0xbf60dc48	-0.8783612
23	0xbf5f78ae	-0.8729352
24	0xbf6d32c2	-0.92655575
25	0xbf8e3140	-1.110878
26	0xbec21fc2	-0.37914854
27	0xbf206c3a	-0.6266514
28	0xbf253144	-0.645283
29	0xbe6ec2fb	-0.23316567
30	0xbf402db0	-0.75069714
31	0xbf3d7b33	-0.7401611
32	0xbf51e33a	-0.81987345
33	0xbf4f5a8b	-0.8099753
34	0x3e01951d	0.12654538
35	0xbf5a0e01	-0.8517762
36	0xbefe354b	-0.49650034
37	0xbf5cb551	-0.86214167
38	0xbefb695f	-0.4910383
39	0xbf17554f	-0.59114546
40	0xbf32144b	-0.69562215
41	0xbf505db2	-0.8139297
42	0xbf997df0	-1.1991558
43	0xbee12e32	-0.43980557
44	0xbf40c0f3	-0.7529442
45	0xbeacdc19	-0.3376167
46	0xbef77b2b	-0.48336157
47	0xbf1ce983	-0.6129381
48	0xbf543c4b	-0.829045
49	0xbf7a4796	-0.9776548
50	0xbf669bf6	-0.9008173
51	0xbfb6fbb8	-1.4295568
52	0xbf761a15	-0.9613355
53	0xbeaa7e6c	-0.33299577
54	0xbf27b67c	-0.65512824
55	0xbf4ff342	-0.81230557
56	0xbf500b57	-0.81267303
57	0xbe4e3021	-0.20135547
58	0xbf556f79	-0.8337322
59	0xbf22ef94	-0.6364682
60	0xbf65b006	-0.89721715
61	0xbeefacd3	-0.46811542
62	0xbf172e74	-0.59055257
63	0xbf264789	-0.64952904
64	0xbf5a05d5	-0.8516515
65	0xbfbeeaf2	-1.491545
66	0xbf024f42	-0.5090219
67	0xbf611233	-0.87918395
68	0xbee9cd85	-0.4566461
69	0xbe9b6053	-0.30346927
70	0x3e1f7e40	0.15575504
71	0xbf5a45be	-0.8526267
72	0xbf8634a2	-1.0484812
73	0xbeff542d	-0.4986891
74	0xbf5ce69a	-0.8628937
75	0xbf304dd3	-0.6886875
76	0xbf46f9ed	-0.77725106
77	0xbeb5067f	-0.3535652
78	0xbf83b94e	-1.0290926
79	0xbf7b7917	-0.98231643
80	0xbf94d78b	-1.1628278
81	0xbf410b5e	-0.7540797
82	0xbf1cfa72	-0.6131965
83	0xbf794ce6	-0.9738296
84	0xbeffb2f3	-0.49941215
85	0xbd363297	-0.04448184
86	0xbe92c566	-0.28666228
87	0xbf7e85b1	-0.99422747
88	0xbf08605e	-0.53272045
89	0xbebbc0c1	-0.36670497
90	0xbf2978eb	-0.6620013
91	0xbf389376	-0.7210001
92	0xbf2c26f5	-0.67246944
93	0xbf5d84f7	-0.86531013
94	0xbefe9fd0	-0.49731302
95	0xbf7fd14d	-0.9992874
96	0xbf77dd11	-0.96821696
97	0xbee26a23	-0.442216
98	0xbf309e7f	-0.68991846
99	0xbfb2fb68	-1.3982973
100	0xbecaadca	-0.39585716
101	0xbf425bff	-0.75921625
102	0xbf31b007	-0.6940922
103	0xbf74418b	-0.9541251
104	0xbf558140	-0.83400345
105	0xbf6ec3c5	-0.9326747
106	0xbf5dfb37	-0.8671145
107	0xbf056eb4	-0.52122045
108	0xbd7938eb	-0.060845297
109	0xbee7c65a	-0.45268518
110	0xbf5f3d3e	-0.87202823
111	0xbf8881c9	-1.0664607
112	0xbf37ca08	-0.7179265
113	0xbe26797f	-0.16257285
114	0xbf6376b4	-0.88853
115	0x3e85c256	0.2612483
116	0xbf7f9974	-0.99843526
117	0xbf6b92f2	-0.92021096
118	0xbe052e18	-0.13005865
119	0xbf8ab7a5	-1.0837294
120	0xbe1b2af3	-0.15153103
121	0xbe761579	-0.24031629
122	0xbf8bfa09	-1.093568
123	0xbf2d81b9	-0.67776066
124	0xbf4d62ac	-0.80228686
125	0xbf2d985f	-0.67810625
126	0xbdacd966	-0.08439903
127	0xbf902f76	-1.1264484
128	0xbf1925f4	-0.59823537
129	0xbf8d99f0	-1.1062603
130	0xbea53ff0	-0.32275343
131	0xbf141836	-0.5784944
132	0xbe75589b	-0.23959582
133	0xbf2f0155	-0.6836141
134	0xbf064461	-0.5244809
135	0xbf3c7a13	-0.7362377
136	0xbf30f68a	-0.6912619
137	0xbe82bb2f	-0.25533435
138	0xbf6d07f5	-0.92590266
139	0xbf0f2183	-0.5591051
140	0xbf1ff2e5	-0.6248
141	0xbf1f6539	-0.6226383
142	0xbdd22479	-0.10260863
143	0xbe9ec05b	-0.3100613
144	0xbf2bafa1	-0.67064863
145	0xbf4cb8d4	-0.79969525
146	0xbf256668	-0.64609385
147	0xbf58cd6c	-0.8468845
148	0xbf78528a	-0.97000945
149	0xbed01e0e	-0.4064793
150	0xbf27904a	-0.6545454
151	0xbf376ad2	-0.7164737
152	0xbd821d73	-0.06353273
153	0xbebf5cc4	-0.37375462
154	0xbf4bd23c	-0.7961767
155	0xbf2acdd4	-0.6672032
156	0xbf32a5b8	-0.69784117
157	0xbf5332f3	-0.8249962
158	0xbf96ccb6	-1.1781223
159	0xbf4daa10	-0.8033762
160	0xbecd592b	-0.40107092
161	0xbf018a33	-0.506015
162	0xbf5da03d	-0.8657263
163	0xbef4b850	-0.4779687
164	0xbf7d8e9c	-0.9904573
165	0xbecf5116	-0.4049155
166	0xbd5de20c	-0.054170653
167	0xbebfb836	-0.3744523
168	0xbf0efb52	-0.55852234
169	0xbf1ba870	-0.6080389
170	0xbf4a07a2	-0.78917897
171	0xbf56bdb5	-0.8388322
172	0xbbb78e77	-0.0056017
173	0xbf94578e	-1.158922
174	0xbf70f488	-0.94123125
175	0xbf0abd3b	-0.5419499
176	0x3f8295d1	1.020197
177	0xbf5c9671	-0.86167055
178	0xbf68c5ac	-0.90926623
179	0xbf65e5b0	-0.898036
180	0xbf3adce4	-0.729933
181	0xbf0f2aa8	-0.55924463
182	0xbf6c5d5b	-0.9232995
183	0xbd9d3bee	-0.07677446
184	0xbf79447e	-0.97370136
185	0xbf5ffd58	-0.87495947
186	0xbf29c4ba	-0.66315806
187	0xbf4d8113	-0.80275077
188	0xbf795d25	-0.9740775
189	0xbf05436a	-0.5205599
190	0xbf1eba6b	-0.620032
191	0xbef68a23	-0.48152265
192	0xbf318799	-0.6934753
193	0xbea1629e	-0.3152055
194	0xbeea4bf9	-0.45761088
195	0xbf4b776c	-0.794791
196	0xbeff1d13	-0.4982687
197	0xbf4a20fe	-0.7895659
198	0xbf3c53bd	-0.73565274
199	0xbf17016b	-0.5898654
200	0xbf253565	-0.645346
201	0xbf682bbb	-0.9069173
202	0xbf150328	-0.5820794
203	0xbf56251d	-0.8365038
204	0xbe411c14	-0.18858367
205	0xbefe9928	-0.49726224
206	0xbf53f858	-0.8280082
207	0xbf11cfdc	-0.56957793
208	0xbf19412f	-0.5986509
209	0xbf3183df	-0.69341844
210	0xbf2f653e	-0.6851386
211	0x3f2e5ef9	0.68113667
212	0xbf2bb7f6	-0.6707758
213	0xbedcb481	-0.43106464
214	0xbe1f1cec	-0.15538377
215	0xbf770905	-0.9649814
216	0xbf5142eb	-0.81742734
217	0x3e4b0aae	0.19828293
218	0xbf8b1153	-1.0864662
219	0xbf4cfafb	-0.80070466
220	0xbefa3f91	-0.48876622
221	0xbf053756	-0.5203756
222	0xbf3786b4	-0.71689916
223	0xbe6a24d2	-0.22865608
224	0xbf3ba0d4	-0.7329228
225	0xbe94fc1d	-0.29098597
226	0xbf0b0b8b	-0.5431449
227	0xbdd3e1dc	-0.10345814
228	0xbec4633e	-0.38356966
229	0xbf48c3fd	-0.78424054
230	0xbf8d5338	-1.1041021
231	0xbf73fc80	-0.9530716
232	0xbefd7141	-0.49500468
233	0xbd6df745	-0.058097143
234	0xbf116023	-0.5678732
235	0xbf5eb57f	-0.8699569
236	0xbf87249b	-1.0558046
237	0xbf28e2cb	-0.6597106
238	0xbf972cee	-1.1810586
239	0xbe2c0dec	-0.16802186
240	0xbecf1c65	-0.4045135
241	0xbf429668	-0.7601075
242	0xbf303d16	-0.6884321
243	0xbececc0a	-0.40390044
244	0xbf13a070	-0.57666683
245	0xbf09bfe7	-0.53808445
246	0xbf1cebcc	-0.612973
247	0xbf49c2d1	-0.7881289
248	0xbf26e0a2	-0.6518651
249	0xbf19920e	-0.59988487
250	0xbed56cd9	-0.41684607
251	0xbf87e4f1	-1.0616742
252	0xbe2622bc	-0.16224188
253	0xbf3ac950	-0.7296343
254	0xbf19ee32	-0.6012908
255	0xbf8c71e5	-1.0972258

bn1.running_mean f4 [400]
0	0xc014d26b	-2.325343
1	0x40774450	3.8635445
2	0x403f7ee2	2.9921193
3	0xbe92ef24	-0.28698075
4	0x3d4e93f8	0.050434083
5	0x41037ad9	8.217492
6	0xc0d69219	-6.705334
7	0xbf80a4d1	-1.0050298
8	0xbff31d17	-1.8993253
9	0xbf0a1346	-0.5393566
10	0x3ed82f51	0.422236
11	0x4092089f	4.5635524
12	0xbeef9585	-0.46793762
13	0x3eaf2582	0.34208304
14	0xc0c838bf	-6.256927
15	0x40cef0b2	6.4668818
16	0x4042f055	3.0459187
17	0x3ec48a27	0.38386652
18	0x3eb178e3	0.34662542
19	0xbea51005	-0.32238784
20	0xc04da4a6	-3.2131743
21	0xbf4e75d3	-0.80648535
22	0xbff45fdd	-1.9091755
23	0xbed6d512	-0.41959435
24	0xc0a1161f	-5.0339503
25	0x3d62fca2	0.05541671
26	0xc09afcc5	-4.8433557
27	0x408d986b	4.4248557
28	0x3ee69ac5	0.45039955
29	0x40c4c113	6.1485686
30	0x403041a6	2.7540069
31	0xc0f5dd13	-7.6832366
32	0x3fb7493a	1.4319222
33	0x3ec5ae88	0.3860972
34	0x3f8eae09	1.1146861
35	0xc018a1e4	-2.384881
36	0x405b0a96	3.422521
37	0xc1154f88	-9.331917
38	0xbfb107cd	-1.3830506
39	0xbedac17d	-0.42725745
40	0xc0973a32	-4.725854
41	0xc0411c4b	-3.0173519
42	0x400cde04	2.2010508
43	0x40c37164	6.1075916
44	0x3f063ffb	0.52441376
45	0x3eddc951	0.43317655
46	0x406f9fab	3.7441204
47	0x3fa225cd	1.2667786
48	0x3fbbaa44	1.4661336
49	0xc105a373	-8.352405
50	0xc0a00936	-5.0011244
51	0xc0ac0c59	-5.3765073
52	0x406796d5	3.618581
53	0xc04e8b1a	-3.22724
54	0xc05510e8	-3.3291569
55	0xbed2a629	-0.41142395
56	0x4070c94b	3.762286
57	0xc01d8979	-2.4615157
58	0xc103f82c	-8.248089
59	0xc04310f7	-3.0479105
60	0xc1007e06	-8.030767
61	0x409bd83e	4.8701468
62	0xc0163494	-2.346959
63	0x3f914308	1.1348581
64	0xbfee84c8	-1.8634272
65	0x41061719	8.380639
66	0x3f64fc13	0.89447135
67	0xc023017a	-2.5469651
68	0xc020481e	-2.5044017
69	0xc01c4fb9	-2.442366
70	0x411d9f3d	9.851377
71	0x4068cd59	3.6375334
72	0xc00895ff	-2.134155
73	0x40a2f29c	5.0921154
74	0x409781bd	4.734587
75	0xc0cc9156	-6.392741
76	0xbfb5bc1b	-1.419803
77	0x3f874b7f	1.0569915
78	0x3fed9c41	1.856331
79	0xc0a753a8	-5.228962
80	0xbfd1d29e	-1.63924
81	0x3fade649	1.3585902
82	0xc0396826	-2.8969817
83	0xbf8c9898	-1.0984068
84	0xc0202146	-2.5020308
85	0x3ec37e6c	0.3818239
86	0x40d53802	6.663087
87	0x40139904	2.3062143
88	0x4022fefb	2.5468128
89	0x40f39260	7.611618
90	0x404d8f79	3.2118819
91	0xc0a9e42d	-5.3091035
92	0xc088f36e	-4.2797155
93	0xc0220669	-2.5316412
94	0xbfc0d204	-1.5064092
95	0xc0a92d6a	-5.2867937
96	0xbf99c5f7	-1.2013539
97	0xc0158fb5	-2.3368962
98	0xbef096e1	-0.4699011
99	0xbf8d55de	-1.104183
100	0xc0d4b0c6	-6.646579
101	0x407764b8	3.8655224
102	0xbe8aad70	-0.27085447
103	0x3e0fdceb	0.14049117
104	0x40e8a7b6	7.2704725
105	0xbf6e9f79	-0.93212086
106	0x3e58f907	0.21188746
107	0x3f1af9c3	0.60537356
108	0x3d6e2f98	0.058150858
109	0xbff61f66	-1.9228332
110	0xc02888fe	-2.6333613
111	0xc111fbb0	-9.123947
112	0xbfc80e36	-1.5629337
113	0xbfc227d3	-1.5168403
114	0x3e2369ab	0.15958278
115	0x41021204	8.129398
116	0x3efbc880	0.49176407
117	0x3fcceb22	1.6009257
118	0x3f08cd60	0.5343838
119	0x40dd318d	6.9122987
120	0x40a69b25	5.2064385
121	0xbff9ea7a	-1.9524682
122	0xc0a14ac9	-5.040379
123	0x40281c3b	2.626723
124	0xbef6cc01	-0.48202518
125	0xc0727efc	-3.7890005
126	0xbf78aea7	-0.971415
127	0xc027bd1a	-2.6209168
128	0xc0a3a6b7	-5.114101
129	0xc0e52060	-7.160202
130	0xbf6625a2	-0.89901173
131	0xc0124445	-2.2854168
132	0x40c343ad	6.102011
133	0x401e09a6	2.469339
134	0x40326281	2.7872622
135	0x3fef52cf	1.8697146
136	0xbf37d0a6	-0.7180275
137	0x40222bb3	2.5339172
138	0xbdd11abd	-0.10210178
139	0x407615c8	3.8450794
140	0x4084abd5	4.1459756
141	0x404f53a5	3.2394803
142	0x410f7607	8.966315
143	0x400464f6	2.0686622
144	0xbd025b61	-0.031825427
145	0x408b60cc	4.355566
146	0x40208e7b	2.5086963
147	0xbf6afac3	-0.9178888
148	0x3fe98cc1	1.824608
149	0xc136860c	-11.407726
150	0xbfa7fdbe	-1.3124311
151	0xbf060954	-0.52357984
152	0xbda9af6a	-0.08285411
153	0xc05883c3	-3.383042
154	0x3ebe103e	0.37121767
155	0xc0668524	-3.6018763
156	0xc09c1d61	-4.8785863
157	0xbe8e8bed	-0.2784113
158	0x3f507d8a	0.8144156
159	0x3e263f3d	0.16235061
160	0xc11431ec	-9.262188
161	0x402a8a74	2.6647005
162	0xbdbe0c06	-0.09279637
163	0x3e6dfb07	0.2324029
164	0xbe709165	-0.23492964
165	0xc015205a	-2.3300996
166	0xc0f60cb9	-7.689053
167	0xbf99ffed	-1.2031227
168	0x3e5d7ea9	0.21630348
169	0xc09b71b5	-4.8576303
170	0x4098ba81	4.7727666
171	0xc0bad3a1	-5.8383336
172	0xbe85ed2c	-0.2615751
173	0xc0ec48d2	-7.383889
174	0x4128289e	10.509916
175	0xc07ed6a9	-3.9818518
176	0x415be300	13.74292
177	0xc07675a6	-3.8509307
178	0xc04d35f0	-3.206417
179	0x400cf376	2.2023597
180	0x3c04c925	0.008104597
181	0x40029de9	2.040888
182	0x3fdb1d09	1.7118236
183	0xc01a9f90	-2.415989
184	0xc0bd285e	-5.9111776
185	0x3fc88df1	1.5668317
186	0xc0bd6691	-5.9187703
187	0xbfb62519	-1.4230071
188	0x40216b84	2.5221872
189	0xc007d622	-2.1224446
190	0x4073c4ed	3.8088944
191	0x40942c1c	4.6303844
192	0xc07cb49d	-3.9485238
193	0x409feada	4.9974184
194	0xc0018706	-2.0238662
195	0x3f8dcf81	1.107895
196	0x40ac5cba	5.386319
197	0xbefb5139	-0.49085405
198	0xc082d46c	-4.0884304
199	0x402a7eff	2.6640012
200	0x3e178eb6	0.14800534
201	0xc0182b37	-2.3776376
202	0xbfaaf393	-1.3355583
203	0x3ecd0010	0.4003911
204	0xbf436197	-0.76320785
205	0xc005df53	-2.0917556
206	0x4089b848	4.3037453
207	0xc10059a9	-8.02189
208	0x4055ad9d	3.3387215
209	0x3f404d29	0.7511774
210	0xc107e905	-8.49439
211	0x406e73ae	3.7258105
212	0xc03f95e6	-2.993524
213	0x402eead5	2.733083
214	0xbe74c65d	-0.23903795
215	0x40aba578	5.363949
216	0x3f2502cd	0.644574
217	0x40874c52	4.2280664
218	0xbfb66dc7	-1.4252251
219	0xbfee546e	-1.8619516
220	0x3eac5fba	0.33666784
221	0x3fbe1608	1.4850473
222	0xbf6c910e	-0.92408836
223	0xbf8fa60f	-1.1222552
224	0x3fc89374	1.5669999
225	0x3ff6bbd1	1.9276067
226	0xc0a73537	-5.225246
227	0xbf6d9fa4	-0.9282172
228	0x408f7175	4.4825997
229	0xc0a265df	-5.0749354
230	0x3f97f140	1.1870499
231	0xbfa12dc6	-1.2592094
232	0xc00165ce	-2.0218387
233	0xbe849650	-0.2589593
234	0x40258bed	2.5866654
235	0xc0cbde93	-6.3709197
236	0x3fc620cb	1.5478758
237	0x3fb8e848	1.4445887
238	0xc0183e7d	-2.378814
239	0x400becd9	2.186331
240	0x40b575b1	5.6706166
241	0x3d6cd49e	0.057819955
242	0xbf022770	-0.50841427
243	0x3f6d32d5	0.9265569
244	0xbbd28210	-0.006424196
245	0x3fff3819	1.9938995
246	0xbffc7091	-1.9721853
247	0xc08da526	-4.4264097
248	0xbfbaa7a4	-1.458241
249	0x412a0330	10.625778
250	0xc02bed4b	-2.6863582
251	0xbf08f57a	-0.5349957
252	0xbfb82cda	-1.4388688
253	0xbf3f738b	-0.7478568
254	0xc0204dcf	-2.504749
255	0xc0386882	-2.8813787

bn1.running_var f4 [400]
0	0x4280c54a	64.38533
1	0x420ff9f9	35.994114
2	0x424b1ed1	50.780094
3	0x4260419a	56.064064
4	0x3d1f5584	0.038899913
5	0x42be7d96	95.245285
6	0x4337687f	183.40819
7	0x427c9d47	63.15359
8	0x429e10f2	79.0331
9	0x41be3127	23.774
10	0x415b32a8	13.699867
11	0x41b8ba27	23.090895
12	0x4341b056	193.68881
13	0x421ffed4	39.998856
14	0x41882617	17.018599
15	0x432935ee	169.21066
16	0x42a5de63	82.93435
17	0x4149a580	12.602905
18	0x42568602	53.630867
19	0x3de9c966	0.11415367
20	0x42917c4b	72.74276
21	0x413ccab3	11.799487
22	0x428398fa	65.79878
23	0x41d347e7	26.410109
24	0x4231380e	44.30474
25	0x42c148db	96.642296
26	0x420fc3fe	35.9414
27	0x42175ee0	37.84265
28	0x4293f5c4	73.98001
29	0x41f848aa	31.03548
30	0x424e649e	51.59826
31	0x429ecf0c	79.40439
32	0x421d975b	39.397808
33	0x423cb4dc	47.17662
34	0x41696feb	14.589824
35	0x42a177ab	80.73373
36	0x42696f29	58.358555
37	0x41d303ec	26.376915
38	0x41f0ed77	30.11595
39	0x423a57fa	46.585915
40	0x421a23bd	38.5349
41	0x43134430	147.26636
42	0x4270ceeb	60.20207
43	0x42a4aa6e	82.33287
44	0x41cb1f1a	25.390186
45	0x42924164	73.127716
46	0x4128dd0c	10.5539665
47	0x42631371	56.768986
48	0x420c7e04	35.123062
49	0x422de77d	43.476063
50	0x420ae39d	34.72228
51	0x425de4fc	55.473618
52	0x42657ab1	57.369816
53	0x42373331	45.79999
54	0x4141c312	12.110125
55	0x41a79157	20.945967
56	0x42197ff3	38.37495
57	0x40ec2440	7.379425
58	0x41bbbfa9	23.468584
59	0x4159aad5	13.604207
60	0x41b06e3a	22.053822
61	0x428ec1b2	71.37831
62	0x41bf88e4	23.941841
63	0x42164cd3	37.575024
64	0x42e325d4	113.57388
65	0x426ca7d3	59.16389
66	0x41e0a0ac	28.078453
67	0x42ba16f2	93.044815
68	0x41e3f5b8	28.49498
69	0x4216585b	37.586285
70	0x422dd49d	43.45763
71	0x420f3647	35.803005
72	0x42b407f7	90.01556
73	0x4244bb30	49.1828
74	0x42548aa9	53.13541
75	0x416eb4d2	14.919146
76	0x429e918d	79.28428
77	0x42efcf80	119.90527
78	0x428e457d	71.13572
79	0x41925a8e	18.294216
80	0x4236ae31	45.67011
81	0x42d018fb	104.04879
82	0x425bcc26	54.949364
83	0x42a3661f	81.699455
84	0x4241b06e	48.422295
85	0x3ec585db	0.38578686
86	0x42dae206	109.44145
87	0x424982d7	50.377773
88	0x428b6a97	69.70818
89	0x42a3edd9	81.96455
90	0x41ed9d74	29.701881
91	0x4207a648	33.912384
92	0x426f811d	59.876087
93	0x41be71c3	23.805548
94	0x42b2e275	89.4423
95	0x420678dd	33.61803
96	0x421d7d57	39.372402
97	0x40b48aa2	5.641923
98	0x429add51	77.43226
99	0x420e2e51	35.54523
100	0x41afcd63	21.975286
101	0x4246e849	49.72684
102	0x41c883f4	25.06443
103	0x41573781	13.451051
104	0x426f482f	59.82049
105	0x421b9539	38.895725
106	0x43200a24	160.03961
107	0x424e2686	51.53762
108	0x3dc3af6f	0.09554946
109	0x419f7d3a	19.936146
110	0x420f09a7	35.759426
111	0x423d8b66	47.38613
112	0x419867a6	19.05061
113	0x4100af1d	8.042752
114	0x42a869dd	84.206764
115	0x4350f9c7	208.9757
116	0x42113518	36.30185
117	0x42848f41	66.27979
118	0x41a23072	20.273655
119	0x42d76e08	107.714905
120	0x422933b2	42.300484
121	0x423d369b	47.303326
122	0x41e02ca0	28.02179
123	0x429aadc8	77.33942
124	0x423521a3	45.28285
125	0x41703b40	15.014465
126	0x41bbde43	23.483526
127	0x413aabdc	11.666958
128	0x4286f859	67.485054
129	0x42764b7c	61.573715
130	0x420868f3	34.10249
131	0x41fef38f	31.868925
132	0x41dc0973	27.504614
133	0x423345e3	44.81825
134	0x41d22f60	26.273132
135	0x41a4c59a	20.596485
136	0x417a3412	15.6377125
137	0x418a9ff8	17.32811
138	0x41370875	11.439565
139	0x423fae41	47.92017
140	0x419f7c4e	19.935696
141	0x4227aaca	41.916786
142	0x41e0f6f3	28.12058
143	0x4292a062	73.31325
144	0x41b42fc3	22.523321
145	0x42401641	48.021732
146	0x41d5be7e	26.718014
147	0x4208d7ff	34.210934
148	0x429bdd4d	77.93223
149	0x431ecff6	158.81235
150	0x4205afb0	33.42157
151	0x42a909ab	84.51888
152	0x3e74c9b2	0.23905066
153	0x41533fb8	13.203056
154	0x42041ee8	33.03018
155	0x425d8d10	55.387756
156	0x42c4f36a	98.47542
157	0x415347cd	13.2050295
158	0x411b2855	9.697347
159	0x41ff4631	31.909273
160	0x4191cac4	18.224007
161	0x421f65c2	39.849373
162	0x427a1488	62.52005
163	0x42d5989c	106.798065
164	0x42db7b52	109.74086
165	0x4224ce98	41.20175
166	0x41f2730a	30.306171
167	0x416d7582	14.841188
168	0x41ac1de1	21.51459
169	0x42b07c8a	88.24324
170	0x42393f36	46.31173
171	0x41c450ba	24.539417
172	0x3e65315f	0.22382115
173	0x4231af70	44.421326
174	0x42e1d405	112.9141
175	0x4248018d	50.001514
176	0x4108a063	8.539157
177	0x42a43a15	82.11344
178	0x4209880d	34.382862
179	0x41be05d7	23.752851
180	0x43079789	135.59193
181	0x4338cdac	184.8034
182	0x42662307	57.534206
183	0x404b4bd3	3.176503
184	0x416e8502	14.907473
185	0x4265e56d	57.47405
186	0x42089538	34.14572
187	0x4241540d	48.33208
188	0x42fc27d6	126.077805
189	0x41ad0228	21.626053
190	0x42808b88	64.27252
191	0x42a1a54c	80.822845
192	0x41fcc7e9	31.597612
193	0x4187ea45	16.98939
194	0x41cab6ab	25.339193
195	0x429ab7d9	77.35908
196	0x428b9642	69.79347
197	0x4082529f	4.0725856
198	0x419bb993	19.465612
199	0x4307b74e	135.71603
200	0x410fc6c8	8.986031
201	0x42380272	46.002388
202	0x42a07f4b	80.24862
203	0x41eb2903	29.395025
204	0x41b1f5df	22.245054
205	0x419a84fc	19.314934
206	0x42237cae	40.871758
207	0x41fb0222	31.376041
208	0x419ced85	19.615976
209	0x42566ca0	53.60608
210	0x42c2ef28	97.4671
211	0x4104018a	8.250376
212	0x41d71e35	26.88975
213	0x41a69712	20.823765
214	0x423bc271	46.939884
215	0x422c39df	43.056515
216	0x4206d20f	33.705135
217	0x4139fb13	11.623797
218	0x416697fb	14.412105
219	0x41ccba88	25.59108
220	0x413f4168	11.953468
221	0x42065e25	33.591938
222	0x4228251a	42.036232
223	0x4247bac6	49.932396
224	0x4302f7b9	130.96767
225	0x418f84ad	17.939783
226	0x42835bd2	65.67934
227	0x42258a15	41.384846
228	0x42afa0c0	87.813965
229	0x421f0a8d	39.760303
230	0x428c6e52	70.21547
231	0x429af362	77.47536
232	0x42445039	49.078342
233	0x3f34908f	0.7053308
234	0x41bb43e7	23.408155
235	0x418f35de	17.901302
236	0x42d1ef89	104.96784
237	0x42590c3b	54.261944
238	0x41c5a19e	24.703915
239	0x4258e0d2	54.21955
240	0x413a51e1	11.64499
241	0x423218ec	44.524338
242	0x427fdb3c	63.964096
243	0x422ec414	43.691483
244	0x4262f813	56.74226
245	0x42d515c6	106.54253
246	0x4297a8ca	75.829666
247	0x4196dfec	18.859337
248	0x41f8709a	31.054981
249	0x423a1761	46.52283
250	0x42794264	62.314835
251	0x41c61957	24.762373
252	0x41493694	12.575825
253	0x410ea40e	8.915052
254	0x4269d8a7	58.461575
255	0x416e4469	14.891702

fc2.weight f4 [300, 404]
0	0xbd79e1ee	-0.06100648
1	0xbd71d54c	-0.059041306
2	0xbcdcfe09	-0.026976602
3	0x3c83824a	0.016053338
4	0xbcedb88b	-0.029018661
5	0x3d1a2b41	0.037638906
6	0x395ae86d	0.00020876685
7	0xba85f3ed	-0.001021979
8	0xbcf4e579	-0.029894577
9	0xbbebf4c7	-0.0072008106
10	0xbd88fff6	-0.06689446
11	0xbc888601	-0.01666546
12	0xbd44cdc8	-0.04804781
13	0xbd0a6b9d	-0.033794034
14	0x3b92c1f4	0.0044786874
15	0x3b828b40	0.003983885
16	0x3cf6e141	0.030136706
17	0xbb35fb9c	-0.002776838
18	0x3c170c9a	0.009219313
19	0x3cf2e3d5	0.029649654
20	0x3d273c7a	0.04082916
21	0xbe03efe5	-0.12884481
22	0xbde7a00f	-0.11309826
23	0xbd6607c4	-0.05615975
24	0xbcabbd8d	-0.020964408
25	0xbd36517c	-0.044511303
26	0xbcbb5159	-0.022865938
27	0xbc6d2fc0	-0.0144767165
28	0x3d0b95f1	0.034078542
29	0x3c1f64cb	0.009728621
30	0xbdc8467b	-0.09779068
31	0x3cafbf06	0.021453392
32	0xbd8297fb	-0.06376644
33	0x3c2347f9	0.00996589
34	0xbd1e9699	-0.03871784
35	0xbd21c2d7	-0.039492454
36	0xbd4b8f02	-0.04969693
37	0x3bafb60c	0.005362278
38	0x3cc1e3e1	0.023668231
39	0xbdc584e9	-0.09644491
40	0x3d85dea9	0.0653661
41	0xbd94b480	-0.0726099
42	0xbd5b4f9a	-0.05354271
43	0x3bb8f817	0.005644809
44	0xbd1b8889	-0.037972007
45	0xbdf5feff	-0.12011527
46	0xbd61c97e	-0.0551238
47	0x3ca33365	0.019921968
48	0xbc43fdb5	-0.011962344
49	0x3b860646	0.0040901033
50	0xbd41843c	-0.04724525
51	0xbdc48f5f	-0.09597658
52	0xbdbafa72	-0.091298
53	0xbd8f388f	-0.069932096
54	0xbc9efeec	-0.019408666
55	0x3ca86e69	0.02056046
56	0x399c7f7f	0.0002984963
57	0xbdc948e8	-0.09828359
58	0xbc8b27ce	-0.016986754
59	0xbd350f90	-0.044204295
60	0xbcb3136e	-0.02185985
61	0x3d1fdb1a	0.03902731
62	0xbc916d4d	-0.017752314
63	0xbd83e816	-0.06440751
64	0xbcc4fc50	-0.024046093
65	0xbc1abcca	-0.009444425
66	0xbdd6e8e3	-0.10493638
67	0xbc39cb83	-0.011340025
68	0xbda3f735	-0.080061354
69	0xbc878897	-0.016544623
70	0x3d008f38	0.031386584
71	0xbd92d4d1	-0.07169498
72	0xbd32d8d9	-0.043663833
73	0x3b38c18b	0.0028191532
74	0xbb2ecd71	-0.0026672746
75	0xbd44067c	-0.047857746
76	0xbd3a7dd5	-0.04553016
77	0xbcf0045d	-0.029298956
78	0xbd5b849f	-0.053593274
79	0xbd906d6d	-0.07052121
80	0x3cb5ab32	0.022176359
81	0x3d79ae7c	0.060957417
82	0xbc6014d5	-0.013676842
83	0x3d055079	0.032547448
84	0xbdd70d3e	-0.105005726
85	0x3bfae7ed	0.0076570422
86	0x3d293c95	0.04131754
87	0x3c7f3044	0.015575472
88	0xbd6b95b4	-0.057515815
89	0x3d2a8497	0.041630354
90	0x3a1f1f0e	0.0006069996
91	0x3d9e89d3	0.07741132
92	0xbb6f1b4a	-0.0036484771
93	0xbda1b454	-0.07895723
94	0x3b85a2a9	0.0040782285
95	0xbbfb5ed0	-0.0076712146
96	0xbd8bc759	-0.06825132
97	0xbd3244d3	-0.043522667
98	0x3cc8224e	0.02443042
99	0xbd93840e	-0.07202922
100	0x3d04d350	0.032428086
101	0xbc28b0c1	-0.010296048
102	0xbd29e2f8	-0.04147622
103	0xbd1d1198	-0.038346857
104	0x3c10a6e6	0.008828854
105	0xbd6d70d8	-0.057968944
106	0x3acfca9e	0.0015853231
107	0x3d257938	0.040398806
108	0x3bc47af8	0.0059961043
109	0xbdc71607	-0.09720998
110	0x3d484b3d	0.048899878
111	0xbcc49c8b	-0.024000427
112	0xbdb855cb	-0.09000739
113	0xbddbf551	-0.1074015
114	0xbcc00e79	-0.023444401
115	0xbdb62eaa	-0.08895619
116	0x3d2f89eb	0.04285614
117	0xbd53c212	-0.05169875
118	0x3c872ca0	0.016500771
119	0xbc1201e3	-0.008911583
120	0x3cdd582e	0.027019586
121	0xbcff18fb	-0.031139841
122	0xbc6fcc92	-0.014636176
123	0xbd003ef3	-0.031310033
124	0x3c216efd	0.009853122
125	0x3ce8b04b	0.028404376
126	0xbd42c766	-0.047553442
127	0xbd2b60a8	-0.041840225
128	0x3c037a0c	0.008024704
129	0xbd09d8d4	-0.03365405
130	0x3b71c108	0.0036888737
131	0x3d678bca	0.056529798
132	0xbd45e19a	-0.048310854
133	0xbd464dc6	-0.048414014
134	0x3d17a8a7	0.037026074
135	0x3d035893	0.032066893
136	0xbd472efe	-0.0486288
137	0xbd8c4be7	-0.06850415
138	0x3c47c336	0.012192538
139	0x3cf77f84	0.030212171
140	0xbb7e74ea	-0.003882701
141	0xbc1a3eb6	-0.0094143655
142	0xbd18fe62	-0.037351973
143	0xbd4aad3b	-0.04948161
144	0xbd8a4022	-0.067505136
145	0xbc17ed2c	-0.009272855
146	0xbc6400cc	-0.013916206
147	0x3c7d6d9f	0.01546803
148	0xbd52a394	-0.05142553
149	0xbd8259aa	-0.06364758
150	0xbcbdc746	-0.02316631
151	0x3da0651e	0.078317866
152	0xbccbaa01	-0.024861338
153	0x3c7f0e39	0.015567356
154	0xbd061f36	-0.03274461
155	0xbd9b7fc4	-0.07592729
156	0x3c722d56	0.014781317
157	0xbc099b71	-0.0083988765
158	0xbcd421eb	-0.02589508
159	0xbdac4739	-0.08412022
160	0xbdab7009	-0.083709784
161	0xbd9eeda0	-0.07760167
162	0xbc3ae039	-0.011405998
163	0xbcf55208	-0.029946342
164	0x3bae5d25	0.0053211623
165	0x3cea47f0	0.028598756
166	0xbce574d2	-0.028009806
167	0xbc8c6d7a	-0.017142046
168	0xbd6d6f94	-0.057967737
169	0xbd43c985	-0.047799606
170	0xbd7ab573	-0.0612082
171	0xbd35ccff	-0.044384953
172	0xbc031626	-0.008000886
173	0xbc2773c6	-0.010220474
174	0xbd15aba4	-0.036540642
175	0xbd683c13	-0.056697916
176	0xbc5045f3	-0.01271199
177	0x3cce5e61	0.025191488
178	0xbaef4ba8	-0.00182568
179	0xbd20abfd	-0.03922652
180	0xbbf3acda	-0.007436377
181	0xbdd7be1d	-0.10534308
182	0xbd12e531	-0.035863105
183	0xbdd8e7f1	-0.10591114
184	0xbd7c3164	-0.06157054
185	0xbd2b6794	-0.041846827
186	0xbde09e48	-0.1096769
187	0xbd434fd1	-0.04768354
188	0x3bde1098	0.0067768805
189	0xbd7e8cc7	-0.062145974
190	0x3bad11ef	0.005281679
191	0xbd949ffc	-0.07257077
192	0xbca720ed	-0.020401442
193	0xbd8ce616	-0.06879823
194	0xbdc41b29	-0.09575493
195	0x3d4f4838	0.050605983
196	0xbd60a4b3	-0.05484457
197	0xbd11483d	-0.035469282
198	0x3d0f9275	0.03505178
199	0xbc3966cb	-0.011316012
200	0xbd08000e	-0.033203177
201	0xbd886e5e	-0.06661676
202	0xbdb0c68c	-0.0863162
203	0xbd502341	-0.05081487
204	0xbc96e6a2	-0.018420521
205	0xbc39a5d2	-0.011331039
206	0xbd9e74bf	-0.07737111
207	0xbd1e47ae	-0.038642578
208	0xbd27a1f0	-0.04092592
209	0xbbbbaab9	-0.005727139
210	0xbba5e27c	-0.0050623994
211	0xbd7fef32	-0.062483974
212	0xbd924ec6	-0.07143931
213	0xbd05c8fa	-0.03266237
214	0xbd8e44d2	-0.0694672
215	0x3d02a96f	0.031899866
216	0x3d2321ac	0.039827034
217	0xbd701c75	-0.05862089
218	0xbdbb923c	-0.09158751
219	0xbd1521f9	-0.036409352
220	0x3d2bdb02	0.04195691
221	0xbc14621e	-0.009056596
222	0xba8fc91f	-0.0010969973
223	0xbc4aa453	-0.0123682795
224	0x39b7f613	0.0003508782
225	0xbd206cd6	-0.039166294
226	0xbb405f04	-0.0029353509
227	0xbd3e56f4	-0.046469644
228	0xbd28efa4	-0.041244164
229	0xbd2d8fa0	-0.0423733
230	0xbbda40cc	-0.0066605564
231	0xbd95efaf	-0.07321107
232	0x3b7eeb56	0.0038897595
233	0xbb52c475	-0.0032160555
234	0xbd4c4112	-0.049866743
235	0xbdc0ae00	-0.09408188
236	0xbd0e89e8	-0.034799486
237	0xbc066dfe	-0.008204935
238	0xbd70f315	-0.05882557
239	0xbbd2a82f	-0.0064287405
240	0xbd68673c	-0.056739077
241	0xbcd967a9	-0.026538687
242	0xbc8fc69e	-0.017550763
243	0xbd63ddaa	-0.055631317
244	0xbda1cfec	-0.07900986
245	0xbcaaed3c	-0.020865075
246	0xbba568a0	-0.0050478727
247	0x3c71735a	0.014736975
248	0x3d173f55	0.036925633
249	0x3cec9129	0.028877812
250	0xbc3767ab	-0.01119415
251	0x3d037f40	0.032103777
252	0xbcae24a6	-0.02125771
253	0xba00fe2c	-0.0004920687
254	0x3cece2fe	0.028916832
255	0x3c52a2ad	0.012856168
