checkpoint_actor.pth (torch_old, 110225 bytes, 6 tensors)

fc1.weight f4 [200, 33]
0.060298476 0.0035365021 0.08966355 -0.00038968396 0.04435204 -0.22062151 0.0062275594 0.062634826
0.009511006 0.031468578 0.011050651 -0.087708876 -0.053511262 -0.038129456 0.04977624 0.101850964
-0.02250698 -0.052538827 0.041237745 -0.00862267 -0.023914037 -0.03674677 -0.038302362 -0.105059914
-0.1236895 -0.081342645 -0.0032016854 -0.023699775 0.11237554 -0.046761043 0.059999548 0.0013375506
0.16461515 -0.06621084 -0.013182636 0.011476413 -0.0030833536 0.034443207 0.05063188 0.09803331
-0.0519559 0.090684265 -0.057842776 -0.010682525 0.0021818401 0.041952595 -0.093572654 0.03266722
0.03025112 -0.013306602 -0.05113184 -0.031398293 -0.050074734 -0.03558633 0.077086516 -0.00631962
-0.08386376 0.005587105 0.10950216 0.0814015 0.07605055 -0.035489313 -0.027676776 0.039652787
-0.025625885 -0.06260463 0.0066613457 0.040469013 0.1099377 0.016818918 0.054917015 -0.06824686
0.06920085 0.019458393 0.068488516 0.039090857 0.060088754 0.042997967 -0.096435264 -0.048913192
-0.071407415 0.12928703 0.07204081 0.0142619815 -0.100214794 -0.055502236 0.05035736 -0.022485025
-0.033390682 0.048796088 -0.054379936 0.046963096 -0.010121951 -0.04810719 0.0037681942 -0.06933961
0.046696525 -0.052704617 0.112094335 0.03421062 -0.1637237 -0.02833942 0.16194808 -0.07322497
-0.026280424 -0.07136922 -0.08544309 0.0036144408 -0.100825444 0.04268309 -0.04016731 -0.02137595
0.026919909 -0.110231325 -0.080219254 -0.014437906 0.08803871 -0.016305188 0.054284804 -0.08750934
0.009561886 -0.0052986112 -0.030948926 -0.06342262 -0.03341664 -0.026222967 -0.046122596 -0.11525475
-0.02027604 0.054735914 -0.00086179376 -0.2229785 -0.096009314 0.04135824 -0.075487696 0.0277542
-0.14742401 -0.061950922 -0.06117983 0.0010944445 0.03835984 -0.06478525 0.030553391 0.08898995
0.011297345 -0.026982052 0.13769092 -0.057768658 -0.052077897 -0.107358105 -0.026502037 0.06347258
-0.00034294184 0.012574714 -0.097022384 -0.0497084 0.040836975 -0.06985329 0.013635886 -0.05374932
0.018519113 0.06064888 0.061778422 -0.019146446 0.09816282 0.13531767 0.032463834 0.11448221
0.035862677 -0.2056575 -0.060179267 -0.015498543 -0.06476545 0.0065984237 -0.01880883 -0.0023747112
-0.031247905 0.047209937 0.061606914 0.049367387 0.15537667 -0.13384913 -0.05605598 0.060359996
0.098426186 -0.07698419 -0.030938514 -0.042817544 0.021678438 0.016422585 0.015318574 0.062281694
-0.032746408 -0.06299119 -0.06701739 0.025048126 0.033376917 -0.0016820044 -0.08271088 -0.008559081
0.1119184 0.05101799 -0.116421744 -0.028303638 -0.06868746 0.08186881 0.12597948 -0.044624995
0.015288092 0.11575211 -0.045295347 0.016140085 -0.007412014 -0.054165494 0.070165075 -0.0651592
0.009407339 0.13096783 -0.012960074 -0.05214054 -0.013539566 0.013017322 -0.04975794 0.02258642
-0.0181026 -0.10467302 -0.047655996 0.023400068 0.03160194 0.056819774 -0.017540012 -0.044018228
-0.0377152 -0.039741468 -0.012088047 0.0047191805 -0.08282316 0.039936744 0.09181061 -0.025547793
0.031874068 -0.00038851897 -0.03747462 0.12259063 -0.0765584 -0.0022017385 0.026378091 -0.13761538
0.03299755 0.038145978 0.059180453 -0.050914794 0.006975471 -0.027680384 -0.028875869 0.0056865867
00000000: 89fb 763d a9c4 673b 86a1 b73d 7f4e ccb9
00000010: 7caa 353d 9bea 61be 8e10 cc3b b046 803d
00000020: 0dd4 1b3c 32e5 003d ca0d 353c b6a0 b3bd
00000030: a02e 5bbd a22d 1cbd 2ce2 4b3d 3d97 d03d
00000040: 8f60 b8bc f432 57bd e9e8 283d 1946 0dbc
00000050: 5fe7 c3bc c883 16bd f0e2 1cbd a729 d7bd
00000060: ec50 fdbd f996 a6bd 5ed3 51bb 0826 c2bc
00000070: 2625 e63d 8288 3fbd 16c2 753d c050 af3a
00000080: e090 283e 8d99 87bd fcfb 57bc 9107 3c3c
00000090: 1712 4abb 5214 0d3d 6063 4f3d b0c5 c83d
000000a0: b6cf 54bd acb8 b93d 8cec 6cbd c205 2fbc
000000b0: 34fd 0e3b 7cd6 2b3d 05a3 bfbd 10ce 053d
000000c0: 32d1 f73c ef03 5abc 9f6f 51bd 7f9b 00bd
000000d0: 2a1b 4dbd f9c2 11bd 89df 9d3d d114 cfbb
000000e0: c3c0 abbd 0914 b73b ab42 e03d d4b5 a63d
000000f0: 64c0 9b3d 3e5d 11bd 68ba e2bc f66a 223d
00000100: 60ed d1bc db36 80bd 6b47 da3b d6c2 253d
00000110: 0427 e13d d4c7 893c aaf0 603d 02c5 8bbd
00000120: 2db9 8d3d 3567 9f3c b543 8c3d bc1d 203d
00000130: a01f 763d a31e 303d da7f c5bd 3359 48bd
00000140: 0d3e 92bd d263 043e 228a 933d 16ab 693c
00000150: 6a3d cdbd 5056 63bd 8543 4e3d 8432 b8bc
00000160: abc4 08bd 68de 473d 7fbd 5ebd 605c 403d
00000170: 8ad6 25bc 0b0c 45bd cff3 763b ed01 8ebd
00000180: db44 3f3d cce0 57bd b791 e53d 6f20 0c3d
00000190: 30a7 27be 1228 e8bc b8d5 253e f9f6 95bd
000001a0: 0b4a d7bc 072a 92bd c9fc aebd 41e0 6c3b
000001b0: 927d cebd 77d4 2e3d 7a86 24bd 9e1c afbc
000001c0: 2487 dc3c f6c0 e1bd fe49 a4bd f88c 6cbc
000001d0: a44d b43d 7592 85bc be59 5e3d 1938 b3bd
000001e0: 75a9 1c3c f99f adbb 9a88 fdbc b8e3 81bd
000001f0: e3df 08bd 8cd1 d6bc 0ceb 3cbd af0a ecbd
00000200: f019 a6bc c432 603d 00ea 61ba 7a54 64be
00000210: 88a0 c4bd 4267 293d 4b99 9abd c75c e33c
00000220: 52f6 16be 40c0 7dbd b497 7abd 7773 8f3a
00000230: 351f 1d3d 21ae 84bd 1b4b fa3c 5d40 b63d
00000240: 8018 393c 7709 ddbc d9fe 0c3e d49e 6cbd
00000250: a24f 55bd 91de dbbd cd1a d9bc e9fd 813d
00000260: e0cc b3b9 2c06 4e3c acb3 c6bd 099b 4bbd
00000270: ac44 273d 3e0f 8fbd 0d69 5f3c 3f28 5cbd
00000280: 65b5 973c f66a 783d 5f0b 7d3d 02d9 9cbc
00000290: 9709 c93d b790 0a3e ccf8 043d a675 ea3d
000002a0: bee4 123d e197 52be 897e 76bd 9aed 7dbc
000002b0: c0a3 84bd 9737 d83b fa14 9abc 0ba1 1bbb
000002c0: 9bfb ffbc 355f 413d 8857 7c3d 7535 4a3d
000002d0: 101b 1f3e bf0f 09be f59a 65bd 0b3c 773d
000002e0: ab93 c93d e3a9 9dbd c472 fdbc 7361 2fbd
000002f0: fb96 b13c a888 863c c2fa 7a3c 171b 7f3d
00000300: 1921 06bd 8601 81bd 6a40 89bd ba31 cd3c
00000310: 3cb6 083d b476 dcba 5264 a9bd 633b 0cbc
00000320: 7935 e53d 3df8 503d 866e eebd 08dd e7bc
00000330: 03ac 8cbd d6aa a73d c400 013e b3c8 36bd
00000340: e87a 7a3c 710f ed3d 9d87 39bd 3638 843c
00000350: 7be0 f2bb a3dc 5dbd b5b2 8f3d 3072 85bd
00000360: 3d21 1a3c 6e1c 063e 7d56 54bc 5291 55bd
00000370: 0ed5 5dbc 9b46 553c fbce 4bbd 2807 b93c
00000380: e74b 94bc cf5e d6bd ef32 43bd 80b1 bf3c
00000390: 0971 013d dabb 683d 12b0 8fbc 754c 34bd
000003a0: 417b 1abd f3c7 22bd f20c 46bc 5ba3 9a3b
000003b0: 309f a9bd b694 233d 3307 bc3d 9b49 d1bc
000003c0: 628e 023d 22b2 cbb9 fd7e 19bd cc10 fb3d
000003d0: a7ca 9cbd 0b4b 10bb de16 d83c 0ceb 0cbe
000003e0: 7028 073d f53e 1c3d 3467 723d 088c 50bd
000003f0: 7e92 e43b f9c1 e2bc 168d ecbc 8c56 ba3b

fc1.bias f4 [200]
0.10604788 -0.15957083 0.026128618 0.16253328 -0.021761969 0.01587174 0.13532099 -0.059210565
-0.07258729 -0.074941345 -0.111003526 -0.13345587 0.03806832 0.08459966 -0.09096554 -0.10920676
-0.029151902 0.12294399 0.07267699 0.0637555 -0.044377673 0.13847493 -0.06662734 0.011644514
-0.07377171 -0.018387163 -0.024830312 0.081192724 0.20315173 0.1645405 0.09534718 0.15658443
0.09324726 0.22272712 -0.0719392 0.12743978 0.23153238 0.080489576 -0.15745638 0.18778616
-0.056513518 -0.07322839 -0.09339023 0.23023435 0.19727439 -0.07905099 0.04036538 -0.10760336
-0.10551014 -0.08847422 -0.10380727 0.039596062 -0.018483587 0.05394339 -0.078911476 0.14663815
0.13581131 0.095906794 -0.034965303 -0.08959264 0.108987205 -0.10049741 -0.06997215 -0.06738891
0.18390927 -0.0073123043 0.21065259 -0.08097908 0.15109572 -0.059820436 0.11795743 0.06598233
0.030359093 -0.13318415 0.07877149 0.04377926 0.052551083 -0.010959771 0.08536221 -0.020767458
0.07311201 -0.027990997 0.22916313 -0.014337922 0.15279551 0.19430763 0.043837827 -0.092259705
0.19932078 -0.04632826 0.098544486 0.005867305 0.1553569 -0.11493582 0.21216355 -0.042450067
-0.11608927 -0.034723256 -0.20939352 -0.091930926 -0.07147688 0.12981112 0.032416716 -0.0055402443
0.11373493 0.017223293 -0.0022537748 -0.08560706 0.22877075 0.16666333 0.0748734 0.13852325
0.042230707 0.12412637 0.12131716 -0.11642787 0.1630364 -0.09314631 0.011768124 -0.11366092
-0.03780296 0.079640396 0.100329585 -0.08171841 0.16282058 0.044680316 0.18194881 0.1178561
0.078156844 -0.11364097 0.035418164 0.08472485 0.066781536 0.12003876 0.03223011 -0.12148437
0.036857385 0.25703734 0.075310886 0.047386613 -0.07075896 -0.11506187 -0.05286111 -0.028023422
-0.028102454 -0.049993265 0.14638728 0.03566875 -0.076809615 -0.056238268 0.0990372 0.0939083
0.010511994 0.036442406 -0.10711426 0.007938817 -0.009474904 0.11334035 0.19533382 0.17417511
0.07829355 -0.19037402 -0.023066899 0.025301905 0.21954632 0.1982195 -0.01857921 0.11740026
-0.08401191 -0.1007629 0.07606116 0.03342829 -0.13804774 -0.03925843 -0.12798989 0.1245472
-0.12598996 0.053329967 0.23764862 -0.1359089 0.13654503 0.15050665 0.16376777 0.0021470638
-0.12863825 0.20987377 -0.03380441 -0.049130753 0.07554376 0.02043072 -0.027427271 -0.10236451
0.1586631 -0.0763192 0.16060473 -0.064287625 -0.07268764 0.063730404 -0.0029524053 -0.08521695
00000000: a22f d93d 8966 23be af0b d63c 206f 263e
00000010: 2846 b2bc 7405 823c 9691 0a3e c786 72bd
00000020: a5a8 94bd d97a 99bd d155 e3bd a8a8 08be
00000030: 87ed 1b3d 9642 ad3d 244c babd cba7 dfbd
00000040: f8cf eebc 0fca fb3d acd7 943d 3e92 823d
00000050: 5dc5 35bd 5fcc 0d3e ea73 88bd a2c8 3e3c
00000060: 9f15 97bd ada0 96bc f068 cbbc 5f48 a63d
00000070: 0207 503e 4e7d 283e 6245 c33d ab57 203e
00000080: 6bf8 be3d 9412 643e dc54 93bd 937f 023e
00000090: d316 6d3e b8d7 a43d 3f3c 21be 044b 403e
000000a0: b87a 67bd c4f8 95bd 6043 bfbd 8ec2 6b3e
000000b0: 4c02 4a3e 7ce5 a1bd 2b56 253d 275f dcbd
000000c0: b315 d8bd f931 b5bd e898 d4bd 7b2f 223d
000000d0: e46a 97bc bef3 5c3d 579c a1bd 5028 163e
000000e0: 1f12 0b3e c86a c43d c737 0fbd 597c b7bd
000000f0: af34 df3d 96d1 cdbd 8f4d 8fbd 3203 8abd
00000100: b652 3c3e 0e9c efbb 50b5 573e 5cd8 a5bd
00000110: d6b8 1a3e 4606 75bd aa93 f13d be21 873d
00000120: a2b3 f83c 6d61 08be f252 a13d e251 333d
00000130: ce3f 573d 9d90 33bc 62d2 ae3d 8420 aabc
00000140: c0bb 953d 604d e5bc bda9 6a3e 9be9 6abc
00000150: 6d76 1c3e 94f8 463e 4b8f 333d a8f2 bcbd
00000160: bf1a 4c3e b4c2 3dbd b1d1 c93d 8642 c03b
00000170: e115 1f3e 7963 ebbd 6741 593e 1fe0 2dbd
00000180: 36c0 edbd f939 0ebd 416b 56be 4846 bcbd
00000190: 7862 92bd 35ed 043e 64c7 043d f08a b5bb
000001a0: dced e83d dd17 8d3c 11b4 13bb c152 afbd
000001b0: e142 6a3e cba9 2a3e 3a57 993d 0ad9 0d3e
000001c0: 1bfa 2c3d f735 fe3d 2275 f83d bc71 eebd
000001d0: 04f3 263e 7ec3 bebd 17cf 403c 0ec7 e8bd
000001e0: 47d7 1abd 811a a33d 9979 cd3d fb5b a7bd
000001f0: 70ba 263e b502 373d ca50 3a3e 8a5e f13d
00000200: b210 a03d 99bc e8bd a312 113d 3984 ad3d
00000210: c2c4 883d e2d6 f53d b803 043d cccc f8bd
00000220: c5f7 163d 669a 833e 983c 9a3d 7718 423d
00000230: 13ea 90bd 8fa5 ebbd e484 58bd 6091 e5bc
00000240: 1e37 e6bc bdc5 4cbd 8ce6 153e 6519 123d
00000250: 5c4e 9dbd 195a 66bd 04d4 ca3d ff52 c03d
00000260: 803a 2c3c a244 153d b95e dbbd d011 023c
00000270: a13c 1bbc fc1e e83d 9705 483e f65a 323e
00000280: 5e58 a03d 68f1 42be cbf6 bcbc f145 cf3c
00000290: c0d0 603e 0dfa 4a3e 6d33 98bc 8c6f f03d
000002a0: 700e acbd c85c cebd f4c5 9b3d 1aec 083d
000002b0: 635c 0dbe 73cd 20bd c80f 03be 9a12 ff3d
000002c0: 8303 01be 8670 5a3d 295a 733e b42b 0bbe
000002d0: 76d2 0b3e 6a1e 1a3e bdb2 273e c1b5 0c3b
000002e0: bfb9 03be 26e9 563e 7e76 0abd 543d 49bd
000002f0: b0b6 9a3d 535e a73c 28af e0bc 7ca4 d1bd
00000300: 9478 223e 3e4d 9cbd 9175 243e 3ba9 83bd
00000310: 42dd 94bd 1685 823d 247d 41bb 3986 aebd

fc2.weight f4 [100, 200]
-0.036667775 -0.07704893 0.11704592 0.053066567 0.15237923 0.15839541 0.040333044 -0.049776915
-0.057461772 0.065063186 0.06988856 -0.06771564 -0.04286179 -0.004000651 0.006027668 -0.02171083
0.053934228 0.056647986 -0.018035125 0.1513278 0.07844862 0.049215995 -0.0156163415 0.067986555
-0.061319258 -0.058386125 0.05902913 -0.020380063 0.08282488 0.1730457 0.09677515 -0.0967135
0.050888263 0.0027811104 -0.018556021 -0.08259686 0.11501583 0.086196736 0.028492624 0.063520916
-0.034715276 -0.0150418095 0.029067941 0.14201415 0.18712707 0.05241626 -0.022869641 -0.08664954
-0.011028215 0.014204947 0.021528536 0.043038446 0.043534964 -0.08704481 0.042962793 -0.04974693
-0.08858209 0.1899606 0.11196988 0.058695287 -0.011676616 -0.06392507 -0.027179897 0.08554656
-0.015885139 -0.036057036 0.13209493 -0.08635225 0.042425733 -0.04969469 -0.051213454 0.15110578
0.10638065 0.00026037375 0.053925898 -0.005030905 -0.04173981 0.042426348 0.029579615 -0.07816601
0.08000822 -0.015990928 0.09808414 0.16041972 0.04103357 0.11575782 -0.13163961 0.10356565
-0.052151438 0.13450058 -0.032544613 -0.023037694 0.0241874 0.03286979 0.13893603 -0.08685889
0.07599033 -0.08528231 -0.069732405 -0.036323152 0.04784477 0.027662752 0.045649048 -0.059758533
0.021646274 0.058924716 0.10905052 0.052032243 0.21137358 0.061009686 0.020013887 0.0639854
-0.060421433 -0.08270675 0.05775101 0.020655878 -0.04080879 -0.001201679 0.11237385 -0.113062486
0.15654755 0.036682397 -0.039524153 0.018566461 0.012322244 0.07999765 -0.07808505 -0.03220144
-0.040617585 0.054418378 -0.07864275 0.028071573 0.098664396 0.11042739 0.06535973 0.060896993
0.0104572475 0.019415628 0.06461703 -0.006072353 0.02244467 -0.03211145 -0.12055401 -0.0038473376
0.026801258 0.10411502 -0.051295288 -0.011470965 0.09168288 -0.0023888214 0.17641619 -0.011565749
-0.06603486 -0.043631032 -0.034489553 0.16406187 0.058631614 -0.050741203 0.051381502 -0.036849633
-0.12231379 -0.03616133 0.056044225 0.037831992 -0.07001106 0.059297014 -0.11580013 -0.060037673
0.05931084 -0.021284718 -0.04923549 -0.1129631 0.05340081 -0.0142058525 -0.025497926 -0.055054337
0.017529622 -0.010470311 -0.07201789 -0.027544662 0.06550938 0.03553725 0.044096697 0.038302306
-0.084184535 -0.053208753 0.008001337 0.10375603 0.06066904 0.004061812 -0.074684836 0.0035482922
-0.016445003 0.017197285 0.13454771 0.074455045 0.054867953 0.044128545 0.034871068 0.0825278
-0.01008579 0.033620562 0.022477297 0.025817558 -0.039977264 0.003516334 0.014099023 -0.029197292
0.06646307 0.11352524 0.1500801 -0.06854806 -0.08211881 -0.14206852 0.15119757 0.10811916
-0.052910324 0.095945135 0.05861957 -0.07151144 0.12705219 0.015392053 0.0057377843 0.1745393
-0.013552499 0.038610276 0.094063 0.052935522 0.036830418 0.058981027 -0.025277697 -0.06886281
-0.049651485 0.030724073 0.081640355 0.06437054 0.13243227 -0.04233205 0.04967546 0.041118514
-0.04161326 -0.04358889 0.038022976 0.060742725 -0.047886144 -0.054227892 0.04854816 -0.047129434
-0.1260573 -0.007055383 0.1844824 0.12990347 0.060157422 -0.014993051 -0.005704205 0.11333065
00000000: f330 16bd d4cb 9dbd c5b5 ef3d 545c 593d
00000010: 4d09 1c3e 6832 223e 4334 253d e1e2 4bbd
00000020: 095d 6bbd d93f 853d bc21 8f3d 7fae 8abd
00000030: d88f 2fbd e517 83bb be83 c53b e9da b1bc
00000040: 23ea 5c3d b807 683d 66be 93bc adf5 1a3e
00000050: aca9 a03d b696 493d afdb 7fbc 893c 8b3d
00000060: e729 7bbd 4a26 6fbd 87c8 713d 17f4 a6bc
00000070: 17a0 a93d e432 313e 0d32 c63d ba11 c6bd
00000080: 3670 503d 4a43 363b cc02 98bc 8b28 a9bd
00000090: 6b8d eb3d ea87 b03d 5d69 e93c 4117 823d
000000a0: 9b31 0ebd ec71 76bc e41f ee3c 286c 113e
000000b0: 3d9e 3f3e 6fb2 563d 1d59 bbbc 5075 b1bd
000000c0: b0af 34bc debb 683c 9d5c b03c 1549 303d
000000d0: b851 323d 8d44 b2bd c1f9 2f3d 70c3 4bbd
000000e0: 876a b5bd 0885 423e 7750 e53d 786a 703d
000000f0: 474f 3fbc 26eb 82bd 60a8 debc 0933 af3d
00000100: 8d21 82bc 8bb0 13bd e543 073e 73d9 b0bd
00000110: 9bc6 2d3d a98c 4bbd 33c5 51bd 79bb 1a3e
00000120: 19de d93d c682 8839 67e1 5c3d 4ada a4bb
00000130: 5df7 2abd 40c7 2d3d f350 f23c 8015 a0bd
00000140: 5adb a33d 68ff 82bc 56e0 c83d 1145 243e
00000150: d112 283d 7012 ed3d 89cc 06be 3a1a d43d
00000160: bf9c 55bd 85ba 093e 804d 05bd 8cb9 bcbc
00000170: a724 c63c 79a2 063d 3f45 0e3e 13e3 b1bd
00000180: d1a0 9b3d 7ea8 aebd ddcf 8ebd 96c7 14bd
00000190: e1f8 433d ff9c e23c 7ffa 3a3d 5dc5 74bd
000001a0: 8753 b13c 0b5b 713d e155 df3d c31f 553d
000001b0: 5172 583e 4be5 793d 2af4 a33c c70a 833d
000001c0: 777c 77bd 2862 a9bd 538c 6c3d 8436 a93c
000001d0: 1e27 27bd a881 9dba 4324 e63d 4e8d e7bd
000001e0: 004e 203e 4840 163d 14e4 21bd b118 983c
000001f0: 3de3 493c cfd5 a33d 0eeb 9fbd a8e5 03bd
00000200: a05e 26bd cee5 5e3d 730f a1bd 5bf6 e53c
00000210: 8f10 ca3d c127 e23d 52db 853d 206f 793d
00000220: e054 2b3c 860d 9f3c ef55 843d 97fa c6bb
00000230: e2dd b73c 4c87 03bd 05e5 f6bd 9d23 7cbb
00000240: 508e db3c 413a d53d 021b 52bd b7f0 3bbc
00000250: 3cc4 bb3d c68d 1cbb 72a6 343e 447e 3dbc
00000260: 493d 87bd 74b6 32bd eb44 0dbd d6ff 273e
00000270: b427 703d 02d6 4fbd 6975 523d a4ef 16bd
00000280: a77f fabd e71d 14bd a18e 653d b8f5 1a3d
00000290: f561 8fbd 6de1 723d 9e28 edbd 10ea 75bd
000002a0: ecef 723d 4a5d aebc 27ab 49bd 3359 e7bd
000002b0: cfba 5a3d aabf 68bc 07e1 d0bc a880 61bd
000002c0: 489a 8f3c ab8b 2bbc 1e7e 93bd 58a5 e1bc
000002d0: c829 863d 828f 113d bd9e 343d e1e2 1c3d
000002e0: f168 acbd 6cf1 59bd 0a18 033c 0b7e d43d
000002f0: 1980 783d f318 853b 5df4 98bd 778a 683b
00000300: acb7 86bc 52e1 8c3c e0c6 093e e37b 983d
00000310: 38bd 603d 22c0 343d f7d4 0e3d 5604 a93d
00000320: df3e 25bc b7b5 093d 4f22 b83c 587f d33c
00000330: 33bf 23bd 4c72 663b 97ff 663c 292f efbc
00000340: ca1d 883d ec7f e83d 99ae 193e ed62 8cbd
00000350: e82d a8bd 697a 11be 89d3 1a3e 946d dd3d
00000360: 7fb8 58bd e27e c43d 131b 703d 9774 92bd
00000370: f819 023e f32e 7c3c 0604 bc3b 6eba 323e
00000380: 4d0b 5ebc cf25 1e3d 1aa4 c03d ebd2 583d
00000390: 7edb 163d 1796 713d 2c13 cfbc f207 8dbd
000003a0: 5b5f 4bbd 0db1 fb3c 0f33 a73d b4d4 833d
000003b0: 539c 073e 5f64 2dbd 7f78 4b3d e36b 283d
000003c0: aa72 2abd 448a 32bd fbbd 1b3d 5dcd 783d
000003d0: 4324 44bd 111e 5ebd 6fda 463d cb0a 41bd
000003e0: 2a15 01be d830 e7bb f4e8 3c3e 6a05 053e
000003f0: a167 763d 6aa5 75bc 57ea babb e619 e83d

fc2.bias f4 [100]
0.040195934 0.01470119 0.07164425 0.04895258 0.07621236 0.08823933 0.025490519 -0.046703216
-0.0034134202 -0.06614845 -0.03622165 0.014942117 0.016215779 -0.032616038 -0.03291069 0.0706392
0.056142524 0.044225723 0.050630774 -0.011660768 0.07703517 -0.015839893 -0.0144621935 0.006744863
0.0016419768 0.06187824 -0.0012982195 0.021117521 0.107491955 -0.028640065 0.01473233 0.074942514
-0.015861979 0.08312331 0.06859824 0.060352102 0.05091385 0.14595395 0.036179006 -0.035828292
-0.010811916 -0.03779849 -0.024488596 -0.0042503644 0.09778366 0.06908068 0.0281632 0.07174589
0.016819207 -0.048570413 0.017111044 0.056924958 0.10579905 0.060627777 -0.04039134 0.007270117
0.092592634 0.06720303 0.058179867 -0.004764769 0.065773755 0.020715121 -0.057335824 0.011206411
-0.03270129 0.064735815 0.025754096 0.015946982 -0.0012400859 0.0052754595 0.0085480595 0.07836716
-0.00053871813 0.08829183 -0.028111428 0.099180944 -0.013797704 0.049131338 0.06601321 -0.009574687
0.0923378 0.09721168 0.13305865 -0.09357572 0.033792477 0.014092048 0.0076303785 -0.008622494
0.0053173644 0.024667483 0.09955959 0.008662569 0.038750306 0.016217992 -0.03452609 -0.019024508
-0.004138117 0.042445246 0.042331398 0.036213234
00000000: 7ea4 243d 43dd 703c 38ba 923d 8082 483d
00000010: 3a15 9c3d d2b6 b43d 7ed1 d03c df4b 3fbd
00000020: b0b3 5fbb d778 87bd 275d 14bd c8cf 743c
00000030: f4d6 843c 6598 05bd 5ccd 06bd 49ab 903d
00000040: b4f5 653d 0826 353d 3762 4f3d ce0c 3fbc
00000050: 9dc4 9d3d aac2 81bc d6f2 6cbc 0304 dd3b
00000060: 9937 d73a 0a74 7d3d 0529 aaba a7fe ac3c
00000070: be24 dc3d 929e eabc df5f 713c 767b 993d
00000080: fbf0 81bc 8e3c aa3d 3c7d 8c3d c433 773d
00000090: 0b8b 503d f474 153e 7030 143d b0c0 12bd
000000a0: 7624 31bc 97d2 1abd 4f9c c8bc a446 8bbb
000000b0: cd42 c83d 2c7a 8d3d 83b6 e63c 82ef 923d
000000c0: 6fc8 893c c5f1 46bd 762c 8c3c 252a 693d
000000d0: 2cad d83d d554 783d 6471 25bd 293a ee3b
000000e0: 35a1 bd3d bea1 893d 034e 6e3d c821 9cbb
000000f0: 64b4 863d c2b2 a93c f8d8 6abd 189b 373c
00000100: caf1 05bd 3694 843d 41fa d23c 3fa3 823c
00000110: 618a a2ba c3dd ac3b 290d 0c3c f67e a03d
00000120: c338 0dba 59d2 b43d f049 e6bc 611f cb3d
00000130: c40f 62bc f13d 493d ef31 873d 26df 1cbc
00000140: 9a1b bd3d eb16 c73d 8740 083e a1a4 bfbd
00000150: fb69 0a3d 55e2 663c 4108 fa3b 5c45 0dbc
00000160: 493d ae3b 7613 ca3c e6e5 cb3d 73ed 0d3c
00000170: a4b8 1e3d 98db 843c 3b6b 0dbd 49d9 9bbc
00000180: 0b99 87bb 11db 2d3d b063 2d3d 5454 143d

fc3.weight f4 [4, 100]
-0.025597958 0.048884235 -0.017686598 -0.055248555 0.0040927995 -0.06174184 0.04742842 0.00291619
-0.053490005 0.012025273 -0.023678066 0.0059753987 0.032068342 -0.002411602 0.024705356 -0.11641247
0.05680974 0.027164947 0.0013836069 0.057048205 -0.055249207 -0.11867665 0.039778113 -0.02429759
-0.030206319 0.020656677 -0.043332264 -0.051962413 0.046492457 0.053245097 -0.101008005 -0.06736152
-0.123623304 0.04282392 0.06573932 0.07469288 -0.090787575 -0.04253739 0.042797633 0.07783271
-0.042837966 -0.030341644 0.050542645 0.054033123 -0.08006933 -0.049265873 0.042546548 0.010408269
-0.046295945 0.02620259 -0.0008469571 -0.041421812 0.0244454 0.052252162 -0.04111125 -0.04169796
0.06386545 -0.10986812 0.062602505 -0.09400687 0.04046865 0.049133155 0.012014024 -0.07709741
0.079427734 0.053114776 -0.06989072 -0.04186783 -0.1068291 -0.110372774 0.038523182 0.044674274
0.016628915 0.06848053 0.0030286678 0.07263515 0.057984814 -0.07825817 0.019304857 -0.06685576
-0.10520904 0.0408723 -0.054155063 0.0042988546 -0.018637897 0.08539052 0.14778799 0.06527649
0.026877152 0.08716394 -0.0741043 -0.044097375 0.044463556 0.025345856 -0.06049969 0.006011002
-0.07506265 -0.045363296 -0.032697264 0.010345461 -0.049557615 -0.05934411 -0.030092338 -0.040147718
-0.065353 -0.028639158 -0.0874497 -0.045387886 -0.07259101 -0.055953328 -0.03955965 -0.04524009
-0.069651 -0.06354126 -0.04350649 -0.027182072 -0.06446767 -0.062261388 -0.057445243 -0.05230687
-0.05012938 -0.026807986 -0.052492965 -0.043141153 -0.039796513 -0.058610942 -0.05177949 -0.0533784
-0.080186695 -0.058714535 -0.06389594 -0.039604336 -0.04526143 -0.059879664 -0.06440597 -0.052022528
-0.04572625 -0.023317391 -0.058296457 -0.06721569 -0.050959554 -0.04658259 -0.07282666 -0.060360476
-0.0215526 -0.04647362 -0.060716067 -0.05608468 -0.022964818 -0.050520983 -0.053779576 -0.06562309
-0.056194663 -0.06312225 -0.03948931 -0.025296872 -0.053692363 -0.03274128 -0.043150425 -0.034482684
-0.057340324 -0.06148845 -0.051280335 -0.029060073 -0.06294214 -0.040557947 -0.028261479 -0.030144196
-0.035352364 -0.039787415 -0.074762985 -0.07718792 -0.048352554 -0.055610355 -0.057022598 -0.07548039
-0.06894323 -0.034671906 -0.07021464 -0.041074816 -0.05122205 -0.031971246 -0.036122978 -0.040200505
-0.03290725 -0.07134307 -0.07993511 -0.0580452 -0.065905705 -0.07655126 -0.023164311 -0.048685763
-0.1055361 -0.05951277 -0.04317506 -0.06414537 -0.029994788 -0.025267605 -0.03339611 -0.037285946
0.034494705 0.063272625 0.030830557 0.012332257 -0.016132595 -0.044527367 -0.0038995561 -0.052470624
-0.034989305 -0.06766197 -0.12327076 0.024211615 -0.004120708 -0.07554736 -0.09033823 0.021513043
0.032667402 -0.031983886 -0.08938727 0.014068507 -0.053419106 -0.033018377 0.02762558 0.0061313347
-0.020408275 -0.004610796 0.044978376 -0.00913036 0.06569529 0.05148202 -0.026533835 -0.06682371
-0.03620428 0.04660215 0.033059042 0.054037973 -0.16298035 0.15277594 0.017371213 0.017276248
-0.025368458 -0.04492279 0.05610271 0.022302598 -0.038127843 -0.10613077 -0.056654263 -0.047594704
0.035079706 -0.053319953 -0.050083887 -0.033326417 0.024778886 0.025331227 -0.14915596 -0.06725886
00000000: cfb2 d1bc d63a 483d 7ce3 90bc 4f4c 62bd
00000010: e41c 863b 03e5 7cbd 4e44 423d 8d1d 3f3b
00000020: 5618 5bbd a705 453c 81f8 c1bc 47cd c33b
00000030: 185a 033d f80b 1ebb e362 ca3c a969 eebd
00000040: 54b1 683d 0689 de3c 255a b53a 61ab 693d
00000050: fe4c 62bd be0c f3bd 60ee 223d bd0b c7bc
00000060: 3e73 f7bc 3138 a93c 2c7d 31bd 8ad6 54bd
00000070: e06e 3e3d 8817 5a3d 49dd cebd d6f4 89bd
00000080: 372e fdbd 2268 2f3d 56a2 863d 95f8 983d
00000090: d6ee b9bd b03b 2ebd 924c 2f3d c266 9f3d
000000a0: dd76 2fbd 0a8f f8bc ce05 4f3d d651 5d3d
000000b0: 64fb a3bd 03cb 49bd 4a45 2e3d 7287 2a3c
000000c0: d1a0 3dbd d0a6 d63c 5406 5eba eba9 29bd
000000d0: b841 c83c 5d06 563d 4564 28bd 7bcb 2abd
000000e0: e4cb 823d 8902 e1bd be35 803d ad86 c0bd
000000f0: 75c2 253d d93f 493d 78d6 443c 3fe5 9dbd
00000100: 02ab a23d e18e 593d de22 8fbd 9a7d 2bbd
00000110: 37c9 dabd 1f0b e2bd 7cca 1d3d 5ffc 363d
00000120: 5d39 883c 853f 8c3d 9d7c 463b bdc1 943d
00000130: 7c81 6d3d d245 a0bd 3825 9e3c aceb 88bd
00000140: d677 d7bd b669 273d b3d1 5dbd 68dd 8c3b
00000150: 81ae 98bc 3ae1 ae3d bc55 173e aeaf 853d
00000160: 792d dc3c 0283 b23d ffc3 97bd 739f 34bd
00000170: 6b1f 363d 1da2 cf3c 86ce 77bd f1f7 c43b
00000180: 72ba 99bd ddce 39bd 91ed 05bd 0280 293c
00000190: edfc 4abd cf12 73bd 3584 f6bc ef71 24bd
000001a0: cbd7 85bd ab9c eabc d418 b3bd a6e8 39bd
000001b0: 98aa 94bd 512f 65bd 4d09 22bd ac4d 39bd
000001c0: 2fa5 8ebd ec21 82bd dc33 32bd f0ac debc
000001d0: a007 84bd cc05 7fbd b44b 6bbd bb3f 56bd
000001e0: 7754 4dbd 6c9c dbbc dd02 57bd c7b4 30bd
000001f0: ab01 23bd 0712 70bd bb16 54bd 4fa3 5abd
00000200: ec38 a4bd a77e 70bd e0db 82bd 2838 22bd
00000210: 0d64 39bd 6144 75bd 47e7 83bd 9315 55bd
00000220: 734b 3bbd 1d04 bfbc 44c8 6ebd 61a8 89bd
00000230: f7ba 50bd 63cd 3ebd 2526 95bd 8c3c 77bd
00000240: 148f b0bc 1f5b 3ebd 69b1 78bd 0db9 65bd
00000250: b720 bcbc 17ef 4ebd f947 5cbd 6665 86bd
00000260: 602c 66bd 3d46 81bd 8bbf 21bd 633b cfbc
00000270: 86ec 5bbd b81b 06bd 80be 30bd b73d 0dbd
00000280: b0dd 6abd 50db 7bbd 540b 52bd 640f eebc
00000290: cfe7 80bd 1720 26bd 9e84 e7bc f6f0 f6bc
000002a0: a4cd 10bd 21f8 22bd 561d 99bd b314 9ebd
000002b0: 540d 46bd afc7 63bd 8790 69bd 7695 9abd
000002c0: 1c32 8dbd 2104 0ebd b1cc 8fbd 113e 28bd
000002d0: 36ce 51bd 48f4 02bd b0f5 13bd 49a9 24bd
000002e0: c1c9 06bd 511c 92bd 05b5 a3bd cec0 6dbd
000002f0: 92f9 86bd e8c6 9cbd 15c3 bdbc b96a 47bd
00000300: 5023 d8bd aac3 73bd 55d8 30bd a65e 83bd
00000310: a1b7 f5bc 02fe cebc 5cca 08bd 26b9 18bd
00000320: 524a 0d3d 1495 813d 5d90 fc3c 3c0d 4a3c
00000330: 8128 84bc 5462 36bd b28f 7fbb 70eb 56bd
00000340: f250 0fbd 5c92 8abd 6175 fcbd 7057 c63c
00000350: 0107 87bb 93b8 9abd 4003 b9bd 1f3c b03c
00000360: 41ce 053d 8901 03bd ac10 b7bd 987f 663c
00000370: fecd 5abd 473e 07bd 0a4f e23c 5de9 c83b
00000380: 412f a7bc 2916 97bb 3f3b 383d 8197 15bc
00000390: 418b 863d d0de 523d 7c5d d9bc dfda 88bd
000003a0: f04a 14bd e5e1 3e3d eb68 073d ec56 5d3d
000003b0: 52e4 26be 4c71 1c3e 134e 8e3c eb86 8d3c
000003c0: 83d1 cfbc f600 38bd f5cb 653d f0b3 b63c
000003d0: f12b 1cbd 175b d9bd 4d0e 68bd aaf2 42bd
000003e0: bdaf 0f3d 0666 5abd c324 4dbd 4881 08bd
000003f0: 17fd ca3c 6f83 cf3c 57bc 18be 03bf 89bd

fc3.bias f4 [4]
-0.03717174 -0.1296056 0.06794368 -0.020069271
00000000: 6541 18bd 55b7 04be 0e26 8b3d 5068 a4bc
