checkpoint_critic.pth (torch_old, 542628 bytes, 5 tensors)

fcs1.weight f4 [400, 33]
0	0x3c8a5f5b	0.016891172
1	0xbcd15fe9	-0.025558429
2	0x3d8ac1da	0.067752555
3	0x3d9ee4a9	0.07758457
4	0xbdc4ff43	-0.09619
5	0xbdafd414	-0.085853726
6	0xbdae23cc	-0.085029215
7	0x3d157420	0.0364877
8	0x3db29cc4	0.08721307
9	0x3c81d5b3	0.01584897
10	0x3c50e241	0.012749256
11	0xbc016547	-0.007897682
12	0xbc40169d	-0.011724141
13	0xbcfcf395	-0.030877868
14	0x3da5a604	0.080883056
15	0xbd46da67	-0.04854813
16	0xbd796b4e	-0.06089335
17	0x3dee508c	0.11636457
18	0x3d92b145	0.07162718
19	0x3d19e152	0.037568398
20	0x3d3ede95	0.04659899
21	0xbbe331e8	-0.0069334395
22	0xbd2a3191	-0.041551176
23	0xbd8bdf32	-0.068296805
24	0xbd01d1c9	-0.031694207
25	0xbd0867cb	-0.03330211
26	0x3d434171	0.04766983
27	0x3d92f272	0.07175149
28	0x3c27ff0a	0.010253677
29	0xbd035e58	-0.032072395
30	0xbdd05dda	-0.10174151
31	0x3ca3e0c2	0.020004634
32	0xbe05376a	-0.1300942
33	0xbc98e77a	-0.018665064
34	0xbb0045b8	-0.0019572806
35	0xba85fbdb	-0.0010222154
36	0xbd100d36	-0.03516885
37	0xbde4d334	-0.11173096
38	0xbe3f58c6	-0.18686208
39	0xbda9cad9	-0.08290643
40	0x3dc5b508	0.096536696
41	0xbd33a56f	-0.04385894
42	0xbb9430aa	-0.004522403
43	0x3c5675e6	0.013089633
44	0x3a8fc9a3	0.0010970127
45	0xbd5d4022	-0.05401624
46	0x3cb0b848	0.021572247
47	0x3dc53877	0.096299104
48	0x3d44ebd1	0.048076455
49	0x3d358d4e	0.04432421
50	0xbc16ad85	-0.009196644
51	0x3e6b0cc5	0.2295409
52	0xbd90fc1a	-0.070793346
53	0xbaf85bc4	-0.0018948247
54	0x3c92fc22	0.017942492
55	0xbd2273c3	-0.03966118
56	0xbceab3d8	-0.02865021
57	0x3befb31e	0.0073150536
58	0x3d039d90	0.032132685
59	0x3bfb3971	0.0076667597
60	0x3d8d439a	0.068976596
61	0x3d24f60b	0.040273707
62	0x3d010431	0.031498138
63	0x3c94dee0	0.018172681
64	0xbd114382	-0.03546477
65	0x3cd739f0	0.026272744
66	0x3cc77958	0.024349853
67	0x3c8c3a9d	0.017117793
68	0xbcc82a9e	-0.024434384
69	0x3d31eb87	0.043437507
70	0xbd153fc2	-0.036437757
71	0xbd316227	-0.043306496
72	0xbe101ade	-0.14072749
73	0x3d633ebb	0.055479746
74	0x3db45d67	0.088068776
75	0x3c9b8e1e	0.018988665
76	0xbd38a7a9	-0.04508177
77	0xbd3e5438	-0.046467036
78	0xbd769738	-0.060202807
79	0xbd5cf69a	-0.053946115
80	0xbccf06a4	-0.025271721
81	0xbddc0c99	-0.1074459
82	0xbde40217	-0.11133211
83	0xbdf2eed0	-0.11861956
84	0xbdc5c87a	-0.096573785
85	0xbb8f2ee4	-0.0043696035
86	0x3d674386	0.05646088
87	0xbd92763d	-0.071514584
88	0x3d4e1830	0.050316036
89	0xbcec406e	-0.028839316
90	0xbbc67d39	-0.006057408
91	0x3d06baa1	0.032892827
92	0x3c9f7fc8	0.01947011
93	0x3e0490de	0.12945887
94	0x3d13bc8c	0.036068484
95	0xbc420b14	-0.011843462
96	0xbe1e8705	-0.15481193
97	0xbcb454ba	-0.022013057
98	0xbe059ca5	-0.13048036
99	0x3d027cb7	0.03185722
100	0x3c8ae2b7	0.01695381
101	0x3d392646	0.045202516
102	0x3d0a8a14	0.033823088
103	0x3cba3e00	0.022734642
104	0xbe195cd7	-0.14976822
105	0xbd9c4f32	-0.07632293
106	0x3d3e27a6	0.04642453
107	0x3d0cf0bd	0.034409273
108	0x3e3d8111	0.18506266
109	0x3d11393e	0.03545498
110	0x3d15f44c	0.036609933
111	0xbd848058	-0.06469792
112	0x3d25f683	0.040518295
113	0x3d027ec4	0.031859174
114	0xbd742114	-0.05960186
115	0xbce48b30	-0.027898401
116	0xbe012add	-0.12614007
117	0x3c14daa4	0.009085331
118	0x3ded1754	0.11576715
119	0xbb0261ad	-0.0019894645
120	0x3cd30723	0.025760239
121	0x3cc8009d	0.024414355
122	0xba4ec39e	-0.00078874256
123	0x3cccbb39	0.024991618
124	0xbd221dab	-0.039579075
125	0xbc43492f	-0.011919304
126	0xbd0257f4	-0.03182216
127	0xbd34a69f	-0.044104215
128	0xbd0024fa	-0.031285264
129	0xbc9abb5e	-0.018888172
130	0x3a884ba0	0.0010398515
131	0xbe958751	-0.292048
132	0xbdcedac7	-0.10100322
133	0xbd54d62f	-0.051962074
134	0xbde0c89b	-0.109757625
135	0xbd95c85c	-0.07313606
136	0x3e49964d	0.19686241
137	0x3d5c41d0	0.0537737
138	0x3dc14292	0.094365254
139	0x3c44e352	0.012017088
140	0x3da9270a	0.08259399
141	0x3d2248ed	0.03962033
142	0xbce8ded5	-0.028426567
143	0xbcc063c7	-0.023485078
144	0xbd097c06	-0.033565544
145	0xbc9f5c72	-0.019453261
146	0x3d86e402	0.06586458
147	0xbc8cb960	-0.017178237
148	0x3e89cbe2	0.26913363
149	0x3d9ab9e4	0.07554987
150	0xbcc3761e	-0.023860034
151	0xbe6e98ec	-0.23300523
152	0x3df0aabb	0.11751314
153	0x3d4a623e	0.049410097
154	0xbbc9129e	-0.0061362525
155	0xba1996f7	-0.00058589823
156	0xbc85cefc	-0.01633405
157	0x3ab0213d	0.001343764
158	0x3de76a03	0.11299517
159	0x3d622864	0.0552143
160	0xbc3ff796	-0.011716744
161	0xbc8924f4	-0.016741253
162	0xbd5b9606	-0.05360987
163	0x3d2a2b9f	0.041545507
164	0xbe4cdb7c	-0.20005602
165	0xbc3c6498	-0.011498593
166	0x3d2ef88d	0.042717505
167	0x3d284380	0.041079998
168	0x3e2eb59d	0.17061467
169	0x3da6bf2d	0.08141933
170	0xbdf91da5	-0.12163857
171	0x3cefb6a7	0.0292619
172	0x3df533c6	0.119727656
173	0x3e415aa2	0.1888223
174	0x3d2d2cc3	0.042279016
175	0xbd12d2c1	-0.03584552
176	0x3d2a9e56	0.041654907
177	0x3ca0b28c	0.019616388
178	0x3d1d0ad3	0.0383404
179	0x3d26cf31	0.040724937
180	0xbd9467be	-0.0724635
181	0xbdab8173	-0.083743
182	0xbc36c895	-0.011156221
183	0xbe010bcf	-0.12602161
184	0xbd36ecc6	-0.0446594
185	0x3df877a6	0.12132196
186	0x3d08fc05	0.03344347
187	0x3d7f8616	0.062383734
188	0x3d573ef8	0.052550286
189	0x3d0b2124	0.033967152
190	0x3c1215a5	0.008916293
191	0xbd5684d2	-0.05237276
192	0x3de20ba9	0.1103738
193	0x3aee820d	0.0018196717
194	0xbd0a7a9d	-0.03380834
195	0xbda1cd53	-0.079004906
196	0x3ce4affa	0.027915943
197	0xbe0e9077	-0.13922296
198	0x3b349681	0.0027555528
199	0x3da1972f	0.07890164
200	0x3de3489e	0.11097835
201	0x3d21034f	0.039309796
202	0x3d690b9a	0.05689583
203	0x3d7be566	0.06149807
204	0xbe0632b5	-0.1310528
205	0xbbb76b4a	-0.0055975066
206	0x3e0f686f	0.14004682
207	0x3d96cf63	0.073637746
208	0xbc9b6806	-0.0189705
209	0xbd3904c1	-0.04517055
210	0x3dd2f8b9	0.10301346
211	0xbbcc136f	-0.0062279026
212	0x3dad4b87	0.08461671
213	0x3d268f80	0.040664196
214	0xbe074003	-0.13208012
215	0x3ded4b62	0.11586644
216	0xbd677bb1	-0.056514446
217	0xbddd2c8f	-0.107995145
218	0x3d18da55	0.037317593
219	0x3b2bca68	0.0026213173
220	0x3d9abe46	0.07555823
221	0xbd7cb15d	-0.061692584
222	0xbd2b102b	-0.041763466
223	0xbb978dd4	-0.0046250615
224	0x3d12f9ff	0.035882946
225	0x3cde2590	0.02711752
226	0xbc445e90	-0.011985436
227	0xbcb65c9a	-0.022260953
228	0xbd3ba795	-0.045814116
229	0xbc8b7394	-0.017022885
230	0x3de65697	0.112469845
231	0x3ba2e0dc	0.004970653
232	0x3d16e111	0.036835734
233	0xbd2510e2	-0.040299304
234	0x3d0eff5b	0.034911495
235	0xbc20296a	-0.009775499
236	0x3e5ba601	0.21450044
237	0xbda75872	-0.081711665
238	0x3cf489b8	0.029850826
239	0xbd14108c	-0.036148593
240	0x3db0a239	0.086246915
241	0xbc2c465d	-0.010514823
242	0x39c7f1c7	0.00038136376
243	0x3d8db6bb	0.06919619
244	0x3d6006d5	0.054694016
245	0x3e05238d	0.13001843
246	0x3bd9b95c	0.006644411
247	0xbdd1da4a	-0.102467135
248	0x3e75b413	0.23994474
249	0xbd96ec9d	-0.07369349
250	0xbd578f48	-0.052626878
251	0x3cacb350	0.021081597
252	0xbc55b935	-0.013044645
253	0xbcc97c55	-0.024595419
254	0xbc384faf	-0.011249467
255	0xbd03fdf5	-0.032224614

fcs1.bias f4 [400]
0	0x3d818274	0.0632371
1	0x3dd22d2b	0.10262521
2	0xbc8a8fb4	-0.016914226
3	0x3dc5622d	0.09637866
4	0x3cdfdc79	0.02732681
5	0x3d97f67c	0.0742006
6	0x3dbf1168	0.09329492
7	0xbdaece78	-0.085354745
8	0x3d96dac9	0.07365949
9	0xbdc10ca8	-0.09426242
10	0x3dcdec44	0.1005483
11	0x3cb2e163	0.021835988
12	0xbd9bd204	-0.07608417
13	0xbe5b49c1	-0.21414854
14	0x3df0bd85	0.11754898
15	0xbb9ab67d	-0.0047214613
16	0x3c9368e2	0.017994348
17	0xbe199a00	-0.15000153
18	0xbe0ec7f9	-0.13943471
19	0x3dfbf057	0.123017006
20	0xbe40936c	-0.18806237
21	0x3deed7a4	0.11662224
22	0x3db6726e	0.089085445
23	0xbdf50ae6	-0.11964969
24	0xbe2015fe	-0.1563339
25	0xbdd7fb17	-0.105459385
26	0xbd66cdd6	-0.056348644
27	0xbdc4292a	-0.09578164
28	0xbdfbbd65	-0.122919835
29	0xbe4694ec	-0.19392747
30	0xbdf3bc2e	-0.11901127
31	0x3db5167d	0.0884218
32	0x3d5bbcce	0.053646855
33	0xbcc486c9	-0.023990052
34	0x3ce0e64c	0.027453564
35	0xbdb7d386	-0.08975892
36	0xbd8114bf	-0.06302785
37	0xbe4554ef	-0.19270681
38	0x3de8701a	0.11349507
39	0xbdce7e4c	-0.10082683
40	0xbe014a6a	-0.12626043
41	0xbe1f4d9b	-0.15556948
42	0x3d971450	0.07376921
43	0xbddfa1f6	-0.109195635
44	0xbd63b1d9	-0.05558953
45	0xbe421445	-0.18953045
46	0xbd23b0f7	-0.03996369
47	0x3c369cd7	0.011145792
48	0x3dc50c6b	0.09621509
49	0xbe65b433	-0.22432022
50	0xbe56e9f2	-0.2098768
51	0xbca13125	-0.019676754
52	0xbdb2a89e	-0.087235674
53	0xbe13bf96	-0.14428553
54	0xbe5d83c0	-0.2163229
55	0x3d1a088c	0.037605807
56	0xbcb88793	-0.022525584
57	0x3dabff76	0.08398335
58	0xbc4c8e6d	-0.012485129
59	0x3d16b2ff	0.036791798
60	0xbbf52f63	-0.0074824556
61	0xbdf86cdb	-0.121301375
62	0xbdb684ff	-0.08912086
63	0xbd9679bf	-0.0734744
64	0xbe5880db	-0.21142904
65	0x3d9aea1f	0.07564186
66	0xbe4f7934	-0.20261079
67	0xbe0c7f23	-0.13720374
68	0xbdb31818	-0.0874483
69	0x3d3c9c3c	0.046047434
70	0xbe2117ab	-0.15731685
71	0xbc3a670f	-0.01137711
72	0xbd58aca9	-0.052899037
73	0xbe315f37	-0.17321478
74	0x3ce79820	0.028270781
75	0xbe38ed72	-0.18059328
76	0xbde0ba83	-0.10973074
77	0xbe17290d	-0.14761753
78	0xbe25d99a	-0.1619629
79	0xbe305c3f	-0.17222689
80	0xbe79737f	-0.24360465
81	0x3cf0f725	0.029414723
82	0xbe319d9e	-0.17345282
83	0xbd4656a0	-0.048422456
84	0xbddbe0db	-0.10736247
85	0xbe3d025d	-0.18457933
86	0x3d585714	0.05281742
87	0x3df5ab8b	0.1199561
88	0xbe1916cb	-0.14950101
89	0xbe3a6a09	-0.18204512
90	0x3d8dffeb	0.06933578
91	0x3e010fc7	0.12603675
92	0x3d753ca7	0.059872296
93	0xbde383ec	-0.111091465
94	0xbe37fb78	-0.17967021
95	0xbd008a24	-0.03138174
96	0x3dc6c585	0.097056426
97	0xbe3ecfb7	-0.18633924
98	0xbb986873	-0.004651123
99	0xbe22ba36	-0.15891346
100	0xbe3333b3	-0.1750019
101	0x3dfd527b	0.123692475
102	0xbd38f8cb	-0.045159142
103	0x3d76edfc	0.060285553
104	0xbc06469b	-0.008195545
105	0xbda0eadd	-0.078572966
106	0x3dcbfc87	0.09960275
107	0x3d148c91	0.036266867
108	0xbe4e2732	-0.2013214
109	0xbe27f72c	-0.16402882
110	0x3dee5dcf	0.11638986
111	0x3c43d299	0.011952066
112	0x3d5b415d	0.053529132
113	0xbe23a5bd	-0.15981193
114	0xbcdb597e	-0.026776072
115	0xbddd87e4	-0.10816935
116	0xbe4ea13c	-0.20178694
117	0x3d2388f8	0.039925545
118	0x3d397ee2	0.04528702
119	0x3dc6dd18	0.09710139
120	0x3dc21a5c	0.09477684
121	0xbe1a2fba	-0.15057269
122	0x3d4e6344	0.050387636
123	0x3d82b5d6	0.06382339
124	0xbe5b934e	-0.21442911
125	0x3de599b3	0.112109564
126	0x3d8a55e4	0.067546636
127	0x3dd587cb	0.10426291
128	0xbe408068	-0.18798983
129	0x3ccda860	0.025104702
130	0x3d78e9fe	0.060770027
131	0xbdae4b0a	-0.08510406
132	0x3d861901	0.06547738
133	0xbe0dcd22	-0.13847783
134	0xbdfce16b	-0.123476826
135	0xbd16c2b3	-0.036806773
136	0xbe7b2eee	-0.24529621
137	0xbe228f88	-0.15875065
138	0xbe56bb9a	-0.20970002
139	0xbe4b61b9	-0.19861497
140	0xbdcfc25c	-0.10144493
141	0x3dbf3431	0.093361266
142	0xbe605661	-0.21907951
143	0x3dd75bfb	0.10515591
144	0xbd70ff7c	-0.0588374
145	0xbe3beb32	-0.18351439
146	0x3d677e0c	0.056516692
147	0x3d60d4fe	0.054890625
148	0xbe1c049f	-0.15236138
149	0x3df04919	0.11732692
150	0xbdd33de3	-0.10314538
151	0xbc0fcb08	-0.008776434
152	0x3ca508e4	0.020145841
153	0xbd6fad7a	-0.05851505
154	0xbe345ce8	-0.17613566
155	0x3d84f212	0.06491484
156	0xbe5a1b06	-0.21299371
157	0xbdcfa495	-0.101388134
158	0xbd227eb1	-0.039671604
159	0xbc75be5e	-0.014999
160	0x3d906aac	0.07051596
161	0xbd46db78	-0.048549145
162	0xbc860bd1	-0.016363056
163	0xbe384540	-0.17995167
164	0x3e0545f1	0.13014962
165	0xbe394863	-0.1809402
166	0xbd8adcab	-0.0678037
167	0xbdb5a350	-0.0886904
168	0xbe3c1cd9	-0.1837038
169	0x3cc42b2d	0.023946369
170	0x3d845360	0.06461215
171	0x3d76bebe	0.0602405
172	0xbd1ee49a	-0.03879223
173	0xbe4d5dd1	-0.2005532
174	0x3da8d806	0.08244328
175	0xbe681c0e	-0.22666952
176	0xbdf91087	-0.121613555
177	0xbcae74dc	-0.021295957
178	0xbccf4f35	-0.025306324
179	0xbb658899	-0.0035024046
180	0xbe359b5f	-0.1773505
181	0xbdf3cbfe	-0.11904143
182	0xbce82a6b	-0.028340539
183	0x3d2da675	0.042395074
184	0xbdbe8c66	-0.093041226
185	0xbe1eb109	-0.15497221
186	0x3c9d02c2	0.019166354
187	0xbd74bdc0	-0.059751272
188	0xbd98f91c	-0.07469389
189	0xbd83e5dd	-0.06440327
190	0x3cbbd127	0.02292688
191	0xbe1de24d	-0.15418358
192	0xbd7b627e	-0.061373226
193	0xbe031f2c	-0.1280486
194	0xbce2b716	-0.027675193
195	0xbe1d5d6a	-0.15367666
196	0xbe1af9b4	-0.15134317
197	0xbe137d8c	-0.14403361
198	0x3c9f7612	0.01946548
199	0xbc391c8b	-0.011298309
200	0xbd83717f	-0.06418132
201	0xbd0ea8d3	-0.034828972
202	0x3c1d893d	0.00961524
203	0xbc9c0f2b	-0.019050201
204	0xbd4475be	-0.04796385
205	0xbd9cccac	-0.076562256
206	0xbd980a6d	-0.074238636
207	0xbde54284	-0.111943275
208	0xbdde896e	-0.108660564
209	0xbded1982	-0.11577131
210	0xbd565fe3	-0.05233754
211	0xbdc668d2	-0.09687962
212	0xbe52e6cd	-0.20595856
213	0x3d5e286f	0.05423778
214	0xbd51b503	-0.051198017
215	0xbd755917	-0.059899416
216	0x3d894a82	0.06703664
217	0xbd7138e3	-0.058892142
218	0xbdfcb416	-0.12339036
219	0x3e3bdd6a	0.18346182
220	0x3b40f329	0.002944181
221	0xbe1425bb	-0.14467518
222	0x3ce1f06a	0.027580459
223	0xbddd1609	-0.107952185
224	0xbdc751d5	-0.09732405
225	0x3c201c65	0.009772395
226	0x3d4f7608	0.050649673
227	0xbe369260	-0.17829275
228	0xbe109130	-0.14117885
229	0xbe1cfbdf	-0.15330456
230	0xbe579c25	-0.21055658
231	0xbe5106b8	-0.20412719
232	0xbe218284	-0.15772444
233	0x3cdf36ba	0.027247775
234	0x3a251382	0.00062971574
235	0x3d99bef5	0.07507125
236	0x3d266a56	0.040628754
237	0xbe306e5d	-0.172296
238	0xbd1e1401	-0.038593296
239	0xbe6637bf	-0.22482203
240	0x3de04944	0.10951474
241	0xbc64a996	-0.013956448
242	0x3d36f418	0.04466638
243	0xbe39b609	-0.18135847
244	0x3d8a4190	0.06750786
245	0xbe401e3f	-0.18761538
246	0x3c0bd873	0.008535492
247	0xbd088abc	-0.033335432
248	0xbd895ea7	-0.067075066
249	0xbd0c423c	-0.034242854
250	0x3d6ad0f2	0.057328172
251	0xbc952eba	-0.018210758
252	0x3d5871a2	0.052842744
253	0xbdddf00b	-0.108368
254	0xbdadb048	-0.084808886
255	0x3d52a66b	0.05142824

fc2.weight f4 [300, 404]
0	0xbc870c12	-0.016485248
1	0x3d07b3c4	0.033130422
2	0x3c49605d	0.012291041
3	0x3cef5d5b	0.02921932
4	0xbc08e33d	-0.008354959
5	0x3d14bf26	0.036315106
6	0xbd68b2de	-0.056811206
7	0xbcaf79eb	-0.02142044
8	0x3d5c170b	0.053732913
9	0x3cb5cd26	0.022192549
10	0xbd7b3ec6	-0.061339162
11	0xbc87e770	-0.01658985
12	0xbd7722a4	-0.06033577
13	0xbc1a18ed	-0.009405357
14	0x3d84d05a	0.064850524
15	0x3c2e7a73	0.010649311
16	0x3cc2356b	0.023707112
17	0x3c58f78e	0.013242615
18	0x3d0e148d	0.034687568
19	0xbcc00f26	-0.023444723
20	0x3da1bb1a	0.07897015
21	0x3c1a7227	0.00942663
22	0x3bc47c8d	0.005996293
23	0xbbb1a79a	-0.005421591
24	0xbdd5dda7	-0.104426675
25	0xbcae0d55	-0.021246592
26	0xbbdcefd4	-0.006742457
27	0x3d5b0cff	0.05347919
28	0xbd097908	-0.03356269
29	0xbcd10d14	-0.025518931
30	0xbd52e7fd	-0.051490773
31	0x3cc43b30	0.023954004
32	0x3d7bea90	0.061502993
33	0xbcf51268	-0.029916003
34	0x3d23d86d	0.04000132
35	0xbc585b7a	-0.013205403
36	0xbc3068b0	-0.010767147
37	0xbb15ccd9	-0.0022857694
38	0xbc394a18	-0.011309169
39	0xbb39a724	-0.0028328383
40	0x3b56f165	0.003279769
41	0xbd06b9ab	-0.03289191
42	0x3b11bed9	0.0022238998
43	0x3c0e3dc6	0.00868172
44	0x3c1fcdbb	0.00975364
45	0x3d22b9f5	0.039728124
46	0x3cd7680d	0.026294732
47	0x3caa0a42	0.020756844
48	0x3d01fa86	0.03173306
49	0xbd31a21e	-0.043367498
50	0x3c2fba76	0.010725608
51	0xbd3bc6d0	-0.0458439
52	0xbd8c5c13	-0.06853499
53	0xbda171c2	-0.07883026
54	0xbd150473	-0.036381196
55	0xbc91eeed	-0.017814124
56	0xbd7b6016	-0.06137093
57	0xbd98ba46	-0.07457404
58	0xbc823bdf	-0.01589769
59	0xbdc43acb	-0.09581526
60	0x3ceb9b6e	0.028760638
61	0xbc37206a	-0.011177162
62	0x3ca8eddc	0.020621233
63	0xbca92171	-0.020645829
64	0xbd435cd2	-0.047695942
65	0x3d220dd7	0.03956398
66	0xbd2ddf57	-0.04244932
67	0xbd6f950a	-0.058491744
68	0xbdcacc2e	-0.099022254
69	0xbcfa7b96	-0.030576508
70	0x3cbcc4e0	0.023043096
71	0x3d168262	0.036745436
72	0x3ba2ae3b	0.0049646175
73	0xbd2f8a52	-0.042856522
74	0x3d67e650	0.056616127
75	0xbbcb295a	-0.006199998
76	0x3b87979d	0.0041379468
77	0xbde0cb2f	-0.10976254
78	0xbd37f6af	-0.04491299
79	0xbcf4a069	-0.029861646
80	0xbc7f07dd	-0.01556584
81	0x3da6f4e4	0.08152178
82	0xbd3b1cd1	-0.04568178
83	0x3d536e43	0.051618826
84	0xbd5599ac	-0.052148506
85	0xbbd88b24	-0.0066083837
86	0xbd3e5f11	-0.04647738
87	0x3cc19935	0.023632625
88	0x3cc80916	0.024418395
89	0x3d1197bb	0.035545092
90	0x3c117557	0.008878074
91	0xbce259c2	-0.02763069
92	0xbd7a4fde	-0.061111324
93	0xbd98b87c	-0.074570626
94	0x3d6b8881	0.057503227
95	0xbd171639	-0.036886428
96	0x3cf99f00	0.030471325
97	0x3c2ba9b9	0.010477477
98	0x3db33ee9	0.087522335
99	0xbdc631c7	-0.09677463
100	0x3d06463a	0.032781817
101	0xbb7f3c10	-0.0038945712
102	0x3c731ab6	0.014837911
103	0x3ce2c8da	0.027683664
104	0xbd523c56	-0.051327072
105	0x3cca5dda	0.024702955
106	0xbc19aa99	-0.009379053
107	0x3ba5be59	0.0050580916
108	0x3d876ef5	0.0661296
109	0x3d0ae497	0.033909407
110	0xbd5b369d	-0.05351888
111	0x3d14ea52	0.036356278
112	0xbd292762	-0.041297324
113	0xbd966fda	-0.07345553
114	0xbd011d57	-0.03152212
115	0x3dbbcf17	0.09170359
116	0xbdb028f6	-0.08601563
117	0x3c824e20	0.015906394
118	0xbc2c180d	-0.010503781
119	0xbdfdd407	-0.12393957
120	0xbdc47517	-0.095926456
121	0x3d524093	0.051331114
122	0x3cc099dc	0.023510866
123	0xbbdfc9a5	-0.006829458
124	0x3d0250fd	0.031815518
125	0xbda14776	-0.07874958
126	0x3d2ad51e	0.04170715
127	0x3c60d77c	0.0137232505
128	0x3d0d569b	0.03450642
129	0x3cdb5dbc	0.026778094
130	0xbc0e05d2	-0.00866838
131	0xbda9e36d	-0.08295331
132	0x3d6815cc	0.056661412
133	0xbcf861d0	-0.030320078
134	0xbe0fca35	-0.1404198
135	0x3dd3fe18	0.10351199
136	0x3d836873	0.064164065
137	0xbc7e8e2f	-0.015536829
138	0x3cba4775	0.022739151
139	0x3d45ca14	0.04828842
140	0xbe35e34a	-0.17762485
141	0xbd00fdfb	-0.031492215
142	0x3ddd69f4	0.108112246
143	0x3cd9957d	0.02656054
144	0x3c8a8b66	0.016912173
145	0x3d684eb5	0.056715686
146	0x3df34ca8	0.118798554
147	0xbd0387ac	-0.03211181
148	0xbdf10efa	-0.11770435
149	0xbaed0749	-0.0018083836
150	0xbd4db4d0	-0.050221264
151	0x3d7c5c6e	0.061611585
152	0x3d7ba66e	0.061438017
153	0x3c97c449	0.018526213
154	0xbdb156cd	-0.08659134
155	0x3d6b8883	0.057503235
156	0x3c1c7a5a	0.009550655
157	0x3db29906	0.08720593
158	0xbd9b1867	-0.07573014
159	0xbd7d84e8	-0.061894327
160	0xbb72138d	-0.0036937923
161	0xbd469c13	-0.048488688
162	0x3bcd28c9	0.0062609655
163	0x3a4889f7	0.0007649953
164	0xbddea007	-0.108703665
165	0x3cd56c93	0.026052749
166	0xbc82c95f	-0.015965162
167	0xbdfedda4	-0.12444618
168	0x3d5bd772	0.05367226
169	0x3bcb823e	0.0062105944
170	0x3d1b10f8	0.03785798
171	0xbdeac4eb	-0.1146334
172	0xbd67702e	-0.056503467
173	0xbda05095	-0.0782787
174	0xbcb7361e	-0.022364672
175	0xbdb0e9bd	-0.08638332
176	0xbcf4c8df	-0.029880939
177	0xbd6d5e91	-0.057951514
178	0x3c3282e5	0.0108954655
179	0x3d131ba4	0.035915032
180	0x3dc19a29	0.09453232
181	0xbca70aeb	-0.020390948
182	0xbd09e770	-0.03366798
183	0x3c91d3af	0.017801134
184	0xba94e600	-0.0011360049
185	0xbd1fe9e6	-0.039041422
186	0x3cd1e4a6	0.025621723
187	0xbd8a31a7	-0.06747752
188	0xbcc3aea1	-0.02388698
189	0xbd254deb	-0.04035751
190	0xbd350179	-0.044190858
191	0xbdd83b30	-0.10558164
192	0x3bd567c7	0.0065126154
193	0x3c09a243	0.008400503
194	0xbce11c53	-0.027479326
195	0xbd0f6cb2	-0.03501577
196	0xbac2942d	-0.0014845185
197	0xbd6b2f16	-0.05741795
198	0x3d58302e	0.052780323
199	0x3ccff8a3	0.025387114
200	0xbdd20061	-0.102539785
201	0x3cf86a6c	0.030324183
202	0x3d0c1802	0.034202583
203	0x3d95f2a3	0.0732167
204	0xbd0e13b0	-0.034686744
205	0xbcbaa205	-0.022782335
206	0x3d3ecfcf	0.0465849
207	0xbd12f3a6	-0.035876893
208	0x3be66b82	0.007031859
209	0xbda6c145	-0.08142332
210	0xbcb3db62	-0.021955196
211	0x3d2964bd	0.041355837
212	0x3d43a126	0.047761105
213	0x3d8fc2ab	0.07019552
214	0xbcb1bd6e	-0.021696772
215	0xbb925a11	-0.004466303
216	0xbd51fb75	-0.0512652
217	0xbd5661bd	-0.052339304
218	0xbdba50d8	-0.09097451
219	0x3d2add51	0.04171497
220	0xb94971e5	-0.00019211283
221	0x3da0ad9f	0.078456156
222	0xbdfc5e6d	-0.12322698
223	0xbd782a12	-0.060586996
224	0x3b106bc5	0.0022036892
225	0xbd45a516	-0.04825314
226	0xbd64d496	-0.0558668
227	0xbde6eb90	-0.11275399
228	0xbdc3e2b7	-0.09564727
229	0xbdda12ec	-0.1064814
230	0xbd3a36e4	-0.045462504
231	0xbbcc7511	-0.0062395413
232	0xbdc50284	-0.096196204
233	0xbd3bf990	-0.0458923
234	0xbe08565c	-0.13314193
235	0xbb9a4eab	-0.004709085
236	0x3d94c7e8	0.072646916
237	0x3cc8d589	0.024515884
238	0xbd101fd4	-0.035186604
239	0x3d93caa7	0.07216387
240	0xbdaf7ef7	-0.085691385
241	0xbd9ab07f	-0.07553195
242	0x3d8bd596	0.06827848
243	0x3d951245	0.07278875
244	0xbd1ca3b6	-0.038242064
245	0x3c7bbb8e	0.015364541
246	0x3dcca241	0.09991885
247	0xbdbe1c1c	-0.09282705
248	0xbe07a183	-0.13245206
249	0x3da8c619	0.08240909
250	0x3d88dcf5	0.06682769
251	0xbbd2472c	-0.0064171758
252	0x3a1a6f84	0.0005891251
253	0x3d50b136	0.05095025
254	0xbd1ef009	-0.038803134
255	0xbd3b2ba5	-0.04569592

fc2.bias f4 [300]
0	0x3aaa70e6	0.0013003617
1	0x3ca5e171	0.0202491
2	0x3d9a6068	0.07537919
3	0x3d1dcdb8	0.038526267
4	0xbd305da2	-0.043058045
5	0x3d28de27	0.041227486
6	0x3cd24733	0.025668716
7	0x3b7a8c96	0.0038230768
8	0xbcaf7e86	-0.021422636
9	0x3c400b4f	0.011721446
10	0xbca23a9a	-0.019803334
11	0x3b81a9d3	0.003957012
12	0x3d9d3962	0.076769605
13	0x3ccad0e5	0.024757812
14	0xbd74becf	-0.05975228
15	0xbcd471d0	-0.025933176
16	0x3d19b79d	0.037528623
17	0xbd62f88c	-0.055412814
18	0xbcd6cd0e	-0.026220825
19	0xbc9c351c	-0.019068293
20	0x3c98dc4b	0.018659731
21	0xbd32db2d	-0.043666054
22	0xbc93d8ea	-0.018047769
23	0xbbe4bd64	-0.006980585
24	0x3deaca41	0.11464358
25	0x3cd520b8	0.026016578
26	0xbb89dac4	-0.004206987
27	0x3c593afb	0.013258691
28	0xbc6fc5ad	-0.014634532
29	0xbca1f554	-0.019770302
30	0xbd346320	-0.044039845
31	0x3bbfc2d4	0.0058520827
32	0xbce8c149	-0.028412478
33	0xbd5fe28e	-0.05465942
34	0xbaec108b	-0.0018010301
35	0x3c3078d3	0.010770994
36	0xba14a7e7	-0.00056707714
37	0xbd482eb9	-0.048872683
38	0xbd64d297	-0.055864897
39	0xb9f4e8bc	-0.00046712707
40	0x3cbfc08c	0.023407243
41	0x3cff293e	0.031147595
42	0xbc285b0a	-0.010275612
43	0xbc8bfe7d	-0.017089123
44	0xbbe9165a	-0.00711326
45	0x3c101019	0.0087929005
46	0xbaf8f6c4	-0.001899444
47	0x3b945b6c	0.0045275
48	0x3bcce97e	0.0062534204
49	0x3d160ce7	0.0366334
50	0x3d7cdb89	0.061732803
51	0x3cebeb10	0.02879861
52	0x3d00bd74	0.031430677
53	0x3ca9b7c7	0.020717515
54	0xbc2f4822	-0.01069835
55	0x3cf02221	0.029313149
56	0x3d4f0a72	0.05054707
57	0x3bb53312	0.0055297697
58	0x3bf5968d	0.0074947537
59	0xbc1a926a	-0.009434322
60	0xbd19248e	-0.037388377
61	0xbb94a091	-0.0045357426
62	0x3cf63f36	0.030059438
63	0x3cb67ed7	0.022277279
64	0xbca3f6af	-0.020015089
65	0xbb9a8544	-0.0047155935
66	0xbc48a3cb	-0.012246083
67	0xbad0b0d4	-0.001592184
68	0x3cf4c5a1	0.029879393
69	0x3cb79d04	0.022413738
70	0xbccea859	-0.025226759
71	0x3bedd923	0.0072585507
72	0xbd122247	-0.03567722
73	0x3d7b527e	0.061357968
74	0x3bbf4a3b	0.0058377064
75	0x3c8bba7d	0.017056698
76	0x3b50e02c	0.0031871898
77	0x3d13e3b5	0.03610583
78	0xbc60fd9a	-0.013732338
79	0x3c581dc2	0.013190689
80	0xbd1c43f4	-0.038150743
81	0xbd0a72bc	-0.033800825
82	0xbd2f770a	-0.042838134
83	0xbd081b05	-0.033228893
84	0xbc2c5130	-0.0105174035
85	0xbb397dfe	-0.0028303857
86	0xbd942f7a	-0.07235618
87	0x3d746e77	0.05967566
88	0x3c3d1253	0.011540013
89	0x3cc1c8e3	0.02365536
90	0x3cfe3b5a	0.03103416
91	0xbd620517	-0.055180635
92	0xbd201180	-0.03907919
93	0x3c6ad35c	0.014332619
94	0xbd62cce1	-0.05537117
95	0xbd21d58f	-0.039510306
96	0x3ca74d28	0.020422533
97	0xbcdca21b	-0.026932767
98	0x3d907d59	0.07055158
99	0x3c6cb74d	0.014447999
100	0x3d31acfe	0.04337787
101	0xbc0c67c2	-0.00856966
102	0xbaa7eab0	-0.0012811031
103	0xbcbc4638	-0.022982702
104	0xbcef3015	-0.029197732
105	0x3c91da0a	0.017804164
106	0x3d32b42a	0.04362885
107	0x3be07be9	0.0068507087
108	0xbd233edc	-0.03985487
109	0x3d399ea9	0.045317326
110	0x3d6eb7aa	0.058280624
111	0xbd2eddb0	-0.042691886
112	0x3cf28f9d	0.029609496
113	0x3d806744	0.06269696
114	0x3d017a5b	0.031610828
115	0x3d53dec4	0.051726118
116	0x3bdf3600	0.006811857
117	0x3cc9c65b	0.024630716
118	0x3b42185f	0.0029616577
119	0x3cec82e3	0.028871005
120	0xbd3a101a	-0.045425512
121	0xbcb808d3	-0.022465145
122	0x3c86ddc5	0.01646317
123	0xbcff683f	-0.031177638
124	0x3db93696	0.090436146
125	0xbcd5c34b	-0.0260941
126	0xbd1c449c	-0.03815137
127	0xbcb32759	-0.021869348
128	0x3d369d0e	0.044583373
129	0xbd1e5072	-0.038650937
130	0xbc833ebf	-0.01602113
131	0x3db2fe6c	0.08739933
132	0x3c49e58f	0.012322797
133	0x3d571286	0.0525079
134	0xbcb960eb	-0.022629222
135	0x3d696c01	0.056987766
136	0xbc349a3a	-0.011023099
137	0xbc7aead2	-0.015314775
138	0x3c8f9af4	0.017529942
139	0xbbd345fb	-0.0064475513
140	0xbd595258	-0.053057045
141	0xbc3402f4	-0.010987032
142	0x3d8d7b35	0.069082655
143	0x3b9b03d1	0.0047306796
144	0xbcb6c56d	-0.022310937
145	0xbbb5dec8	-0.0055502392
146	0xbde94feb	-0.11392196
147	0x3cc16730	0.023608774
148	0x3c7b5598	0.015340231
149	0x3d605996	0.054772936
150	0x3ccb4b97	0.024816317
151	0x3d128f20	0.035781026
152	0xbd004f5c	-0.031325683
153	0x3cedf300	0.029046535
154	0xbc571cc4	-0.013129417
155	0xbd35fc8b	-0.044430297
156	0x3cff6a6a	0.031178672
157	0xbc861b85	-0.016370544
158	0x3e151930	0.1456039
159	0xbc36316a	-0.01112018
160	0xbcb9fc82	-0.022703413
161	0xbd699d60	-0.05703485
162	0x3bbbc90a	0.005730753
163	0xbbd1a04d	-0.006397283
164	0xbd5f7520	-0.05455506
165	0x3af1d3c0	0.0018449947
166	0x3ccc735e	0.024957355
167	0x3cf528a4	0.029926606
168	0x3d2a64e9	0.04160014
169	0x3d48b3c6	0.04899957
170	0x3cbb5d83	0.022871738
171	0xbcb3e5ce	-0.021960165
172	0x3d3d199c	0.046167
173	0xbcca4d0b	-0.02469494
174	0x3c81e1b3	0.015854692
175	0xbc214d22	-0.00984505
176	0xbc3818c8	-0.011236377
177	0x3d74f655	0.059805233
178	0x3d10b6ad	0.035330463
179	0x3d37adc4	0.04484345
180	0xbd0ad7ea	-0.033897318
181	0xbdb99bff	-0.09062957
182	0x3d28cb86	0.04120972
183	0x3d749917	0.05971631
184	0xbb6cc06d	-0.0036125437
185	0x3c99566e	0.01871797
186	0xbcaea196	-0.021317285
187	0x3d8c98fe	0.068651184
188	0xbc38f946	-0.0112899
189	0x3c8c865b	0.01715391
190	0x3cfb1ef7	0.030654414
191	0x3cfc4846	0.030796181
192	0x3bbbca4d	0.0057309032
193	0x3d313487	0.043262985
194	0x3c993e0b	0.018706342
195	0x3d1e6d04	0.038678184
196	0xbc361df3	-0.011115539
197	0x3d170591	0.036870543
198	0x3dadee38	0.08492702
199	0x3d830416	0.06397264
200	0x3c213f65	0.009841775
201	0x3d57a218	0.05264482
202	0x3d36a372	0.044589467
203	0xbc195226	-0.009357965
204	0xbca6f53b	-0.020380607
205	0xbc9d1f62	-0.019180004
206	0x3bc62548	0.0060469247
207	0xbc84d159	-0.016213106
208	0x3d5bdd2b	0.05367772
209	0x3d0d4dd6	0.03449806
210	0x3d85d082	0.0653391
211	0x3b39ccbf	0.0028350798
212	0x3cc67a7a	0.024228323
213	0x3d2691c6	0.040666364
214	0xbc80c8b8	-0.01572071
215	0xbccd98af	-0.02509722
216	0x3d239878	0.039940327
217	0x3cb58e83	0.022162681
218	0x3d35dd81	0.044400696
219	0xbd39f712	-0.04540164
220	0x3d69da3e	0.057092898
221	0xbc86159d	-0.016367728
222	0x3c9e3c04	0.019315727
223	0xbbd651be	-0.006540506
224	0xbc8cefcb	-0.017204186
225	0xbc3f6095	-0.011680742
226	0xbbade617	-0.00530697
227	0xbce05345	-0.027383456
228	0xbcd294a7	-0.025705649
229	0x3935d484	0.00017340673
230	0xbbd9b7ff	-0.0066442485
231	0x3d0fff98	0.035155863
232	0xbcd59763	-0.026073163
233	0x3c313157	0.010814986
234	0xbd191c2c	-0.037380382
235	0x3d24727d	0.040148247
236	0x3c363f22	0.0111234505
237	0x3bf9911c	0.0076161753
238	0xbca47d1b	-0.020079186
239	0x3d3af334	0.045642093
240	0x3d711a12	0.058862753
241	0xbbdf226e	-0.0068095243
242	0xbae81437	-0.001770622
243	0xbc83b4b9	-0.016077386
244	0x3d793d21	0.060849313
245	0x3cfd2308	0.030900493
246	0x3ca3b50c	0.01998379
247	0xbb255ce2	-0.0025232364
248	0x3d0a8fc2	0.033828504
249	0x3acbadf6	0.0015539515
250	0xbd2c071d	-0.04199897
251	0xbd0ca832	-0.03434009
252	0xbd44002c	-0.047851726
253	0x3ddb6b59	0.10713834
254	0x3d2bae1f	0.0419141
255	0xbd386492	-0.045017786

fc3.weight f4 [1, 300]
0	0xbce9f2a2	-0.02855808
1	0x3e53d9d4	0.20688564
2	0x3d95131b	0.07279035
3	0x3db75396	0.089514896
4	0xbd2aefe4	-0.041732684
5	0x3d9ce72d	0.07661281
6	0xbd9b2e6a	-0.07577212
7	0xbdc3dc5c	-0.095635146
8	0xbccd5dd7	-0.02506916
9	0x3df37f26	0.11889486
10	0xbde71d1c	-0.11284849
11	0x3e82da91	0.25557378
12	0x3dd61af5	0.104543604
13	0x3e42187f	0.18954657
14	0xbd0cc3b8	-0.03436634
15	0xbd79aaa2	-0.060953744
16	0x3e06419a	0.13110963
17	0xbad9840b	-0.0016595138
18	0xbd607e16	-0.054807745
19	0x3dc6db07	0.09709745
20	0x3dd22bd5	0.102622665
21	0xbdaf0aa0	-0.085469484
22	0x3b0fa89e	0.0021920572
23	0xbd9aa96d	-0.07551847
24	0x3d3cf998	0.04613647
25	0x3dcff0c7	0.101533465
26	0x3dcddee7	0.10052281
27	0xbcdaa529	-0.026690083
28	0x3de67c10	0.11254132
29	0x3d8b1fbb	0.067931615
30	0x3dd60fae	0.104522094
31	0xbcb1dbb1	-0.021711202
32	0xbcd4f5ca	-0.025996108
33	0xbdc46fe6	-0.095916554
34	0xbd99be13	-0.07506957
35	0xbdc6e2a8	-0.097112
36	0xbd9f6916	-0.077837154
37	0xbe29d0b8	-0.16583526
38	0xbcc5b462	-0.024133865
39	0xbe076c39	-0.13224877
40	0x3d3e13c0	0.046405554
41	0xbda1e271	-0.079045184
42	0xbd216c8d	-0.039410163
43	0xbd815c39	-0.06316418
44	0x3e050848	0.1299144
45	0xbe01038b	-0.12599008
46	0xbd47039c	-0.048587427
47	0x3de068f7	0.109575205
48	0x3e288af8	0.16459262
49	0x3d161b9c	0.036647424
50	0x3e079e76	0.13244042
51	0x3e13c77d	0.14431567
52	0x3da9650c	0.08271226
53	0x3dfba481	0.12287236
54	0x3d4b2866	0.049599074
55	0xbd74ad18	-0.059735388
56	0x3e12bd61	0.14330055
57	0xbd909bf1	-0.070609935
58	0xbdd1cd74	-0.10244265
59	0xbd303573	-0.043019723
60	0xbdb44929	-0.08803017
61	0xbd585d06	-0.05282309
62	0xbb45dfd3	-0.0030193224
63	0x3e54c085	0.20776565
64	0x3e1a01a5	0.1503969
65	0x3e07b05a	0.13250867
66	0xbd2902d7	-0.041262474
67	0x3c49a5ea	0.012307623
68	0x3d3ead2f	0.04655188
69	0xbd86d6d6	-0.065839455
70	0xbd400d07	-0.046887424
71	0x3e1e5966	0.1546379
72	0xbc879ed1	-0.016555222
73	0x3e346c46	0.17619428
74	0x3dcb04db	0.099130355
75	0x3de2a1d9	0.11066026
76	0xbdd330f3	-0.10312071
77	0x3d8cd4c3	0.068765186
78	0x3d7d2e59	0.06181178
79	0xbdc5b5af	-0.09653794
80	0xbdab5d8a	-0.083674505
81	0xbb899767	-0.004198957
82	0xbab7d428	-0.001402502
83	0xbd81fb42	-0.06346752
84	0xba8e72c4	-0.0010867943
85	0x3e0ed806	0.13949594
86	0xbc6439c0	-0.013929784
87	0x3d485df1	0.048917715
88	0xbd8a9a1e	-0.06767677
89	0x3e67c60c	0.22634143
90	0x3d4993a7	0.049213078
91	0xbe071304	-0.13190848
92	0x3cb7311e	0.022362288
93	0xbe044952	-0.12918594
94	0x3d963a6d	0.073353626
95	0xbda9825d	-0.08276818
96	0xbb7516bd	-0.0037397586
97	0xbde87c44	-0.11351827
98	0xbd435b75	-0.047694642
99	0xbe180388	-0.14845097
100	0x3cc490b6	0.023994785
101	0xbcd68e79	-0.026190983
102	0x3dc847ee	0.097793445
103	0xbdb606d7	-0.08888023
104	0x3dc8964f	0.09794294
105	0x3dae1c16	0.08501451
106	0x3e131923	0.14365058
107	0x3e4851d8	0.19562471
108	0x3a474281	0.00076011574
109	0x3e0a7801	0.1352234
110	0x3dc9691d	0.09834502
111	0xbd36ed91	-0.044660155
112	0x3e0fa379	0.14027204
113	0x3de85c6f	0.11345755
114	0x3d8cc7d7	0.06874054
115	0x3de62666	0.11237793
116	0x3d7c54d7	0.061604347
117	0xbdc37eed	-0.095456935
118	0x3a832e58	0.0010008318
119	0xbda5471b	-0.08070203
120	0xbd3564d2	-0.044285603
121	0xbd5f4666	-0.054510497
122	0x3d497f2e	0.049193554
123	0xbdcc1850	-0.09965575
124	0x3d6eb8d4	0.058281735
125	0x3e064fbf	0.13116358
126	0xbde20550	-0.110361695
127	0x3dcd5d50	0.100275636
128	0xbda6e52f	-0.08149182
129	0xbdc8c093	-0.098023556
130	0x3da68feb	0.08132919
131	0x3dcf2554	0.10114542
132	0x3e35b658	0.1774534
133	0x3e00061f	0.12502335
134	0x3e066580	0.13124657
135	0x3e3d31a0	0.18475962
136	0x3dbbc925	0.09169225
137	0x3dcd5351	0.10025657
138	0xbcdd2905	-0.026997099
139	0xbe048ada	-0.12943593
140	0xbcef4901	-0.029209616
141	0x3ac09c7e	0.0014695076
142	0x3de299e0	0.110645056
143	0xbd8bbc89	-0.068230696
144	0x3ce79b33	0.028272247
145	0xbd219486	-0.039448284
146	0xbc281879	-0.010259741
147	0xbcc38a2b	-0.023869595
148	0x3e0dd18f	0.13849472
149	0x3da07a4e	0.07835828
150	0x3df05ce9	0.11736471
151	0xbe0e330b	-0.13886659
152	0x3dee6a19	0.1164133
153	0x3dfb8585	0.12281326
154	0xbd45f6f1	-0.048331205
155	0xbd29602c	-0.041351482
156	0xbd7c884a	-0.061653413
157	0xbd748ec1	-0.059706453
158	0x3d0c53cf	0.034259614
159	0xbd4e18e0	-0.05031669
160	0xbdb93eb3	-0.09045162
161	0xbbbae145	-0.0057031238
162	0x3daecd6f	0.08535277
163	0xbc77eb57	-0.015131793
164	0xbd881ea6	-0.06646471
165	0x3e1827b7	0.148589
166	0x3dc0dd32	0.0941719
167	0x3d7eb611	0.06218535
168	0xbdb5194b	-0.08842715
169	0x3d1d7906	0.038445495
170	0xbdb4e900	-0.08833504
171	0xbd868e38	-0.06570095
172	0x3e1eec84	0.15519911
173	0xbdc2cf99	-0.09512252
174	0xbd471613	-0.048605036
175	0x3e4fbf1e	0.20287749
176	0xbda14573	-0.078745745
177	0x3d2bd5b1	0.04195184
178	0x3d08baa6	0.033381127
179	0x3e0c0c33	0.13676529
180	0xbc6c8546	-0.014436072
181	0xbcdb0c68	-0.026739314
182	0xbd699ca0	-0.057034135
183	0x3d93e389	0.07221133
184	0x3de45365	0.11148719
185	0x3ac6dbe4	0.0015171734
186	0xbd4acd95	-0.049512465
187	0x3d10884d	0.035286237
188	0xbde24bea	-0.11049636
189	0xbd784124	-0.060608998
190	0x3de3ebe8	0.1112898
191	0x3e20e46b	0.15712135
192	0x3e1ed6f0	0.1551168
193	0xbdcadd1d	-0.09905455
194	0x3d6261ec	0.055269167
195	0xbd0841eb	-0.03326599
196	0xbdbb4f14	-0.09145942
197	0x3db81694	0.089886814
198	0x3daaaf6c	0.0833424
199	0x3e09347e	0.1339893
200	0xbb188738	-0.0023273956
201	0xbd470a31	-0.048593704
202	0x3e03425b	0.12818281
203	0xbd2ca29d	-0.042147268
204	0x3af468bc	0.0018646936
205	0xbd96e3f8	-0.073677
206	0x3e065f47	0.13122283
207	0xbd9486bb	-0.0725226
208	0xbdca4fba	-0.09878488
209	0x3db51ed4	0.088437706
210	0x3dd7e909	0.10542495
211	0x3b8e2cdb	0.0043388433
212	0xbd5fe6c2	-0.054663427
213	0xbe12db46	-0.14341459
214	0xbe17b762	-0.14816049
215	0x3e07d600	0.13265228
216	0xbe0d1140	-0.13776112
217	0x3db56215	0.08856598
218	0xbd6244c8	-0.055241376
219	0xbd98f379	-0.07468314
220	0x3ddcf7ff	0.10789489
221	0x3daf1ab4	0.08550015
222	0x3e3355fe	0.17513272
223	0xbd80d353	-0.06290307
224	0xbd52ac00	-0.051433563
225	0x3db5e0a0	0.088807344
226	0x3da5ff02	0.081052795
227	0x3e37a469	0.17933811
228	0x3deff778	0.11717123
229	0xbdc04b39	-0.093893476
230	0x3e16c19d	0.14722295
231	0x3e134f4a	0.14385715
232	0x3e0ba680	0.13637733
233	0xbdde041f	-0.1084063
234	0xba4113e7	-0.00073653314
235	0x3d57478e	0.052558474
236	0xbdbbf4d0	-0.09177554
237	0x3dd3015c	0.10302994
238	0x3cb7ccbe	0.022436496
239	0xbd1ca960	-0.038247466
240	0xbd89a2f9	-0.06720538
241	0x3d738b0c	0.059458777
242	0xbd889753	-0.06669488
243	0x3e81e7a9	0.25372055
244	0x3db1662f	0.08662068
245	0x3d9ed331	0.07755125
246	0x3db1747c	0.08664796
247	0xbdd7de6a	-0.10540469
248	0x3dbca649	0.09211404
249	0xbdfe7f14	-0.12426582
250	0xbd9a51d9	-0.075351425
251	0xbdbe9577	-0.09305852
252	0xbdc0ffbe	-0.09423779
253	0x3cf9efa8	0.030509785
254	0x3dabdafb	0.083913766
255	0x3e305401	0.17219545
