checkpoint_critic.pth (torch_old, 542628 bytes, 5 tensors)

fcs1.weight f4 [400, 33]
000000 b7 16 b5 3b f9 e5 84 bd db e2 b2 3d 83 94 00 3e
       0.0055263895 -0.06489176 0.087346755 0.12556653
000010 71 2e c7 bd d7 1a e9 bd d3 e3 86 bd d6 5b cc 3c
       -0.09725655 -0.113820724 -0.06586423 0.024946135
000020 ec a9 f7 3d c2 a3 34 3d 3c b7 61 3c c5 a2 af 3c
       0.12092957 0.044101484 0.013776597 0.02143992
000030 04 75 4e bc 27 d4 ae bc 60 0b b1 3d 5f fe 00 bd
       -0.012601141 -0.021341396 0.08644748 -0.031492587
000040 17 00 47 bd d4 01 04 3e 53 c9 56 3d 28 0a 95 3d
       -0.04858407 0.12891322 0.05243809 0.07277328
000050 9d 57 8f 3d 2f b0 36 bb 2b 3f 1a bd c2 5a 6f bd
       0.06999133 -0.002787601 -0.037657898 -0.058436163
000060 81 17 9e bc 94 d2 f9 bc b3 51 f6 3c 96 49 b1 3d
       -0.019298317 -0.03049592 0.030068254 0.086566135
000070 14 3e 09 3c 58 5e 03 bd fe b4 ee bd c2 e0 a3 3c
       0.008376617 -0.032072395 -0.11655615 0.020004634
000080 c1 32 12 be 46 e5 73 bc db 7c 1e bd e0 de 89 3c
       -0.14277174 -0.014886206 -0.03869329 0.016829908
000090 12 18 1a bd df 18 d9 bd e5 74 51 be 93 76 b5 bd
       -0.03762061 -0.10600447 -0.20454748 -0.08860507
0000a0 64 bc c6 3d 8e 4c ef bc 1c d1 af bc 09 b9 b2 bb
       0.097039014 -0.029211309 -0.021462016 -0.005454187
0000b0 e2 11 fc 3c 67 3c 11 bd d9 43 23 3d 94 ca c0 3d
       0.030770246 -0.035457995 0.039859626 0.09413639
0000c0 09 53 61 3d 86 71 d0 3d 1a 98 3e 3d 06 ed 88 3e
       0.05501083 0.10177903 0.046531774 0.26743335
0000d0 f4 39 d1 bd 55 e1 d5 3b 5f b3 05 3d e0 08 71 bd
       -0.10216132 0.006527106 0.032641765 -0.058846354
0000e0 53 d2 ee bc 53 ce 84 3b 9b 42 0e 3d d8 96 36 bb
       -0.029153025 0.004052916 0.03473149 -0.0027860906
0000f0 ea ec a0 3d 1f 49 13 3d 31 04 01 3d 1b 70 0c 3c
       0.07857688 0.035958406 0.031498138 0.00857165
000100 82 43 11 bd 7d fc ee 3c 81 90 2f 3d 93 52 07 3b
       -0.03546477 0.02917313 0.04286242 0.0020648583
000110 23 16 4f bb e7 05 9c 3d 9e a8 32 bd da cc 94 bd
       -0.0031598888 0.07618313 -0.043617837 -0.07265635
000120 ee e6 23 be e8 dd 85 3d da b2 81 3d f6 7b 8a 3d
       -0.16006061 0.06536466 0.06332941 0.06761925
000130 8d 35 cb bc d8 68 81 bd 03 e1 97 bd 5a dc 64 bd
       -0.024805808 -0.063188255 -0.074159645 -0.055874206
000140 96 e8 f0 bc ad d0 ed bd e9 8a 07 be d4 3b 3a be
       -0.02940778 -0.11612067 -0.13236584 -0.18186885
000150 13 48 e2 bd 90 98 48 bd a3 8b 45 3d 4e c9 30 bd
       -0.11048903 -0.04897362 0.04822887 -0.04316073
000160 b4 e9 18 3d df 62 c9 bc 00 ad 09 bc 4d 13 bd 3b
       0.03733225 -0.024583278 -0.008403063 0.005770123
000170 72 37 95 3c 4e 7e 21 3e 94 50 e3 3c 14 0b 42 bc
       0.018214915 0.15770838 0.027748384 -0.011843462
000180 76 74 3b be ba 54 b4 bc 44 75 0e be 1d 45 8c 3c
       -0.18306145 -0.022013057 -0.13911921 0.0171228
000190 14 76 02 3d ed 86 67 3d b5 a9 a9 3c c4 2c 21 3d
       0.03185089 0.05652516 0.020710805 0.039349332
0001a0 70 f5 2a be 4a a4 88 bd 2b 38 23 3d 35 d2 ce 3c
       -0.1669519 -0.06671961 0.039848488 0.025246719
0001b0 9f 19 3a 3e a5 c6 40 3d 8f fa c2 3c 70 4f 6b bd
       0.18173836 0.047064442 0.023801116 -0.057448804
0001c0 fb e3 da 3c a4 a0 25 3d 86 c6 0b bd cc 23 78 bd
       0.026720038 0.040436402 -0.034124874 -0.060581014
0001d0 0a 2c f8 bd c2 25 06 3b 38 c0 ec 3d ac f9 46 bc
       -0.12117775 0.0020469283 0.115601 -0.012144487
0001e0 16 64 45 3b b7 e3 03 3c 03 4f 2b 3c 3a dc de 3c
       0.003011947 0.008049897 0.01045585 0.027204622
0001f0 07 41 0f bd 9a 6d 89 bc 58 9d 0c bd db a9 48 bd
       -0.034974124 -0.016775895 -0.034329742 -0.04899011
000200 fa 24 00 bd e1 30 86 bc a0 4b 88 3a 76 18 93 be
       -0.031285264 -0.01638073 0.0010398515 -0.287296
000210 f3 56 b4 bd 87 a9 6b bd 62 a1 bd bd a9 aa ae bd
       -0.08805647 -0.05753472 -0.09259297 -0.085286446
000220 fb 12 4c 3e a7 7f ec 3d 28 30 d7 3d 71 50 f3 3a
       0.19929115 0.11547785 0.10507232 0.0018563402
000230 8d 3e dd 3d 92 a7 2d 3d c2 fe 04 bd 7d 00 e7 bc
       0.10802946 0.042396136 -0.03246952 -0.028198475
000240 ba 2c 9d bc ba b2 ac bb f1 df 9d 3d 26 82 99 bc
       -0.019186366 -0.0052703293 0.07708729 -0.018738817
000250 f3 cd 8e 3e 2f 87 c1 3d 88 f9 57 bd be 5d 7c be
       0.27891502 0.09449612 -0.052728206 -0.24645135
000260 10 92 fe 3d 50 0a 91 3d d4 61 0a 3c 92 d6 a1 bb
       0.12430203 0.07082045 0.008446176 -0.004938909
000270 09 b5 8b 3c 3f f8 7e 3b e6 4f 01 3e 6e 5a a5 3d
       0.017054098 0.003890529 0.12628135 0.08073889
000280 2e f6 40 bc f4 24 89 bc 32 11 a2 bd 9f 2b 2a 3d
       -0.011777444 -0.016741253 -0.07913436 0.041545507
000290 9a 89 55 be 97 93 79 bb 2f 6d a8 3c 6c c4 68 3d
       -0.20853272 -0.0038082355 0.020559875 0.056827947
0002a0 c9 64 4f 3e 9d 5d 80 3d 1b 09 fe bd 19 e4 05 3d
       0.2025329 0.06267855 -0.124040805 0.032688234
0002b0 b2 dc e5 3d 18 f3 5a 3e cf 40 c4 3c 7f b5 2a bd
       0.11223735 0.21381795 0.023956684 -0.041676994
0002c0 d6 a5 1f 3b 94 77 06 3d e2 f0 1c 3d 13 2d 00 3d
       0.002436032 0.032828882 0.03831566 0.031292986
0002d0 4b 65 8a bd 70 5b 51 bd 44 ac 6b bc 59 56 fa bd
       -0.06757601 -0.051112592 -0.014384333 -0.12223501
0002e0 02 f1 a7 bc 8b 51 df 3d a7 91 1a 3d c5 35 8e 3d
       -0.020500664 0.10904225 0.03773656 0.069438495
0002f0 68 03 6f 3d b7 79 0d 3d 4e a3 01 bc 34 78 81 bd
       0.058352858 0.034539904 -0.00791247 -0.06321755
000300 e3 70 e1 3d c8 65 76 3b 9d 7a 0a bd 8d 32 a1 bd
       0.110078596 0.0037597287 -0.03380834 -0.0787097
000310 fa af e4 3c a9 1d 09 be 48 f1 31 3c e4 91 b5 3d
       0.027915943 -0.1339022 0.010860749 0.08865717
000320 b5 ef db 3d b1 9e c9 3c c2 24 9e 3d 07 1c 9b 3d
       0.1073908 0.024611803 0.07721855 0.07573705
000330 a2 05 06 be e0 58 cb bb 3f d2 21 3e 66 5f dd 3d
       -0.13088086 -0.006205663 0.15802859 0.108092114
000340 74 85 b7 3b 54 12 2e bd 8d 38 c1 3d 3a a3 3e 3c
       0.0056006256 -0.042497948 0.09434614 0.011635596
000350 2c d6 e6 3d a4 7e 0e 3d 96 d6 cf bd 0e cc 10 3e
       0.11271319 0.034788743 -0.10148351 0.1414034
000360 70 d0 7f bd 01 af c5 bd 1f aa 2d 3d d6 0b 7d 3c
       -0.06245464 -0.0965252 0.04239857 0.015444716
000370 43 d8 b6 3d f9 b8 b8 bd 7e d5 aa bc f1 c0 2f 3c
       0.089279674 -0.09019656 -0.020853754 0.010727153
000380 48 fe ee 3c 25 51 f5 3c a0 de b2 bc 9a 5c b6 bc
       0.029173985 0.02994592 -0.021834671 -0.022260953
000390 80 3d 47 bd 94 73 8b bc 03 f6 19 3e d6 47 5e bc
       -0.048642635 -0.017022885 0.15035252 -0.013566932
0003a0 ed 3d bb 3b 8a 63 61 bd 1f 2f 8c 3d fb 36 a0 bc
       0.0057141692 -0.05502657 0.06844925 -0.019557467
0003b0 ce 74 7a 3e 4d 9b 83 bd 59 de fc 3c df 38 b8 bc
       0.2445862 -0.06426106 0.030867742 -0.022488056
0003c0 51 33 7d 3d d0 9d 45 bc 87 1a 06 bc 15 39 99 3d
       0.061816517 -0.012061551 -0.008185036 0.07481591
0003d0 40 bc 40 3d 22 d7 1a 3e db ff 0f 3c 27 1a e1 bd
       0.04705453 0.15121129 0.008789028 -0.10991316
0003e0 61 99 7e 3e 60 66 9b bd fe a3 81 bc ab 68 be bb
       0.24863197 -0.07587886 -0.015825268 -0.0058108172
0003f0 09 5c 92 bc d6 22 98 bc b8 eb 32 bb 1a 7c 1c 3a
       -0.017866151 -0.018571299 -0.0027301144 0.00059694203

fcs1.bias f4 [400]
000000 16 57 46 3d de 83 be 3d cc fc 38 bd a9 84 ca 3d
       0.048422895 0.093024954 -0.04516296 0.09888584
000010 21 3f ec 3a 42 91 98 3d cb 46 b9 3d 7e 0a b4 bd
       0.0018024185 0.07449581 0.09046706 -0.08791064
000020 2d fb 6a 3d b5 cd b4 bd 32 b4 a3 3d 07 e0 3e 3c
       0.057368446 -0.08828298 0.07993354 0.011650092
000030 0c 4c 93 bd 4e 79 6d be 86 9b df 3d c5 00 08 bd
       -0.07192239 -0.23190805 0.109183356 -0.03320386
000040 b1 d3 cf 3a 9d 7a 18 be a8 ee 11 be 4c 35 f2 3d
       0.0015855936 -0.14890523 -0.14251196 0.11826572
000050 d5 0d 47 be a3 30 e2 3d c7 d1 a0 3d 53 a8 ea bd
       -0.1943887 0.11044433 0.07852512 -0.114578865
000060 38 4c 28 be 5d db d3 bd 5e 41 81 bd 6b 62 cf bd
       -0.16435325 -0.103445746 -0.06311296 -0.101261936
000070 15 fe 01 be 06 17 4b be e8 87 04 be f9 25 74 3d
       -0.12694581 -0.19833001 -0.12942469 0.059606526
000080 45 51 17 3d 07 5f aa bc 62 9b ab 3c 26 1f d1 bd
       0.03694274 -0.020797266 0.020948116 -0.10211019
000090 b6 13 b0 bd 95 d2 39 be 15 9d d7 3d 2b a5 e9 bd
       -0.085975096 -0.18146737 0.10528008 -0.114084564
0000a0 51 05 f9 bd 4b b9 21 be c8 1b 81 3d 0f 5f f3 bd
       -0.12159217 -0.1579334 0.06304127 -0.11883365
0000b0 d2 a6 96 bd 86 53 55 be 27 74 18 bc 50 80 7f bc
       -0.07356037 -0.20832643 -0.009305037 -0.015594557
0000c0 b6 cc c4 3d 0b 7b 5e be 26 52 51 be 93 d9 b3 bc
       0.09609358 -0.21726625 -0.20441493 -0.021954333
0000d0 42 49 b8 bd 90 48 2f be e9 30 63 be 21 71 b2 3c
       -0.08998348 -0.17117524 -0.22186626 0.02178246
0000e0 59 3c d6 bc 46 cf 90 3d 33 36 0c bd d1 cd 16 3d
       -0.026151823 0.07070784 -0.034231376 0.036817376
0000f0 76 fb 5c bc 17 f0 fd bd d7 1a ad bd 8a 9e a6 bd
       -0.013487687 -0.12399309 -0.08452385 -0.08135708
000100 1d cf 5b be e9 69 9b 3d e9 bb 54 be 0e b9 15 be
       -0.21465726 0.0758856 -0.20774807 -0.14621374
000110 57 fe d5 bd 73 a1 06 3d 77 88 21 be 09 e3 20 bd
       -0.10448902 0.032868814 -0.15774713 -0.039279018
000120 24 94 70 bd cd aa 45 be 51 ed 93 3c 11 46 3e be
       -0.058735028 -0.19303437 0.018057497 -0.18581416
000130 19 ed fa bd 8e fb 1c be b9 fd 31 be 87 13 2a be
       -0.12252254 -0.15330335 -0.17381944 -0.16609012
000140 35 32 81 be 4f 1a ac 3c 10 ce 38 be 12 2c 58 bd
       -0.25233617 0.021008639 -0.18047357 -0.052776404
000150 f9 53 ef bd f5 85 52 be ea 96 08 3d 4e 37 de 3d
       -0.116859384 -0.20558913 0.033347048 0.10850392
000160 0e 79 10 be 28 e4 53 be fd 18 a8 3d 2d 83 eb 3d
       -0.14108679 -0.20692503 0.08207891 0.11499629
000170 e8 fe 09 3d 6f dd b7 bd fc b7 3c be f2 01 d2 bc
       0.033690363 -0.08977782 -0.1842956 -0.025635693
000180 ae ac 9b 3d 07 c3 4a be 3c 0b 4f bc 42 ee 2f be
       0.076012954 -0.1980096 -0.012636956 -0.17180732
000190 fc b4 2a be c2 29 e6 3d 89 6c 18 bd 4e 84 03 3d
       -0.16670603 0.112384334 -0.037212882 0.032108597
0001a0 c2 f0 e0 bc 43 ec 9f bd 3c f5 d7 3d c7 d1 87 3c
       -0.027458552 -0.07808735 0.105448216 0.016579522
0001b0 59 22 53 be 6e d7 3c be 95 d2 ff 3d 76 4b c4 3b
       -0.20618571 -0.18441555 0.12491337 0.005990441
0001c0 06 62 f8 3c fe 6e 22 be 8a 8f b5 bc c8 fa e3 bd
       0.030320179 -0.15862653 -0.022163171 -0.11131817
0001d0 9d 25 50 be bb d2 e1 3c b5 b9 1e 3d 87 bb d0 3d
       -0.20326848 0.027566304 0.038751323 0.10192018
0001e0 85 13 8a 3d 0c 78 21 be cf b6 26 3d a6 22 62 3d
       0.06742004 -0.1576845 0.040701684 0.055208825
0001f0 01 fa 5a be aa f4 f1 3d 00 22 83 3d 6a 80 8e 3d
       -0.21384431 0.11814244 0.06402969 0.06958087
000200 ca 27 56 be e1 e9 e2 3c b5 a6 76 3d ed 3f cf bd
       -0.20913616 0.027699413 0.060217578 -0.10119615
000210 d5 42 4c 3d b8 32 1a be b4 6a 0e be 79 22 4c bd
       0.049868423 -0.1505841 -0.13907892 -0.049837563
000220 f9 0f 78 be f8 f8 2e be c6 5c 64 be b4 dd 4e be
       -0.24224843 -0.17087162 -0.22301015 -0.2020176
000230 22 88 c5 bd f9 fb a2 3d 06 aa 5a be 99 b2 b8 3d
       -0.09645106 0.07958216 -0.21353921 0.0901844
000240 d6 41 61 bd 54 5d 4a be ae 5c 46 3d c3 b2 3b 3d
       -0.054994427 -0.19762164 0.04842823 0.045824777
000250 32 48 1e be da 93 e1 3d a5 19 d2 bd dd 4a cd bb
       -0.15457228 0.110145286 -0.102587976 -0.006265028
000260 88 74 56 bc fe e4 87 bd bd 6f 43 be a3 bc 5b 3d
       -0.013089307 -0.06635474 -0.19085594 0.053646695
000270 88 b5 5c be 28 58 f1 bd 3c 0a 28 bd 93 f1 b7 bc
       -0.21553624 -0.117843926 -0.041025385 -0.022454059
000280 91 41 85 3d be 69 72 bd 3e 87 f2 bc f4 45 3b be
       0.065066464 -0.059182875 -0.029605504 -0.18288404
000290 8b a1 f2 3d 8d ab 4e be 74 29 86 bd e9 d2 c5 bd
       0.11847218 -0.20182629 -0.06550875 -0.096593685
0002a0 18 9a 3d be b2 b4 b8 3c c1 f9 8c 3d cb 79 51 3d
       -0.18515813 0.0225471 0.06883574 0.05114154
0002b0 45 70 1b bd 65 b8 52 be e1 ba 8c 3d 12 f1 6d be
       -0.037948865 -0.20578153 0.06871582 -0.23236492
0002c0 ce d9 f0 bd 9b 2a 8f bb d5 b7 83 bd 45 2a 2d bb
       -0.11760293 -0.0043690926 -0.064315476 -0.00264229
0002d0 12 c3 39 be 41 b4 eb bd 56 f6 2b bd d4 0f cd 3c
       -0.1814082 -0.1150899 -0.04198297 0.025031962
0002e0 02 c9 d7 bd dc 8e 29 be af a7 68 3a 38 85 93 bd
       -0.10536386 -0.16558403 0.00088750845 -0.07203144
0002f0 56 52 a0 bd 79 a2 8d bd 61 06 49 3b bb 6c 0c be
       -0.07828204 -0.06915755 0.0030673968 -0.13713352
000300 be 9d 66 bd fb 86 12 be fe c5 18 bd c7 b7 26 be
       -0.05630278 -0.14309303 -0.037298195 -0.16281043
000310 dd c1 0d be d0 40 08 be 15 cb 5b 3c 02 cd d1 bc
       -0.13843484 -0.13305974 0.013415118 -0.02561045
000320 72 3f 96 bd ee 64 22 bd 80 96 da bc 17 21 db bc
       -0.0733632 -0.039647035 -0.026683092 -0.026749177
000330 51 c6 71 bd b9 4e a2 bd 03 8d 9a bd cb ff ce bd
       -0.05902702 -0.079251714 -0.07546427 -0.101073824
000340 31 fb e6 bd 0c 6d 16 be 20 5f 70 bd 2a 07 ea bd
       -0.1127838 -0.14690036 -0.05868447 -0.11427148
000350 3a f4 59 be c8 65 52 3d a5 67 54 bd 91 0c 80 bd
       -0.21284571 0.051366597 -0.051856656 -0.06252397
000360 02 83 80 3d 84 f1 7e bd 72 eb 08 be 78 41 24 3e
       0.06274988 -0.062242046 -0.13371065 0.160406
000370 f0 7c c9 3b 44 7a 18 be 5a cf e1 3c 69 2e 02 be
       0.006148927 -0.1489039 0.027564693 -0.12713017
000380 5c e7 e3 bd 5d f0 d3 bc b1 7e ad 3c ac db 33 be
       -0.11128113 -0.02587145 0.021178575 -0.17564267
000390 cc 7a 17 be a4 7c 1d be 89 04 5f be f8 11 53 be
       -0.14792937 -0.15379578 -0.21779074 -0.20612323
0003a0 00 37 2e be 05 2c 57 3c 8e 2a 95 3b c7 21 63 3d
       -0.17013168 0.013133054 0.004552192 0.055452134
0003b0 4c 3a 4a 3d 6a 83 40 be dc 13 eb bc 87 9d 65 be
       0.049372002 -0.1880013 -0.028695993 -0.22423373
0003c0 fc 21 bc 3d b5 8c 06 bc 92 b3 ce 3b 19 1f 44 be
       0.091861695 -0.008212258 0.0063080275 -0.19152488
0003d0 79 1d 7e 3d 4f c7 4a be ba 55 6c bc 8a b7 34 bd
       0.062039826 -0.19802593 -0.014424736 -0.04412035
0003e0 52 71 a2 bd c9 a8 5c bd 54 65 46 3d c2 85 9c bc
       -0.079317704 -0.053871904 0.048436478 -0.01910675
0003f0 da 1b f4 3c 76 73 dc bd ad 21 a8 bd 00 11 5e 3d
       0.029798437 -0.1076421 -0.08209548 0.05421543

fc2.weight f4 [300, 404]
000000 61 54 02 bc 55 19 6f 3d a5 c4 49 3d e2 d8 94 3c
       -0.007954688 0.058373768 0.0492598 0.018169824
000010 c3 66 26 3d 02 cf 34 3d a6 70 9e bd 9c 10 0d bd
       0.040625345 0.04414273 -0.0773633 -0.034439668
000020 17 87 67 3d 50 51 be 3c 48 91 61 bd 9e ec 15 bd
       0.056525316 0.023232132 -0.05507019 -0.03660261
000030 25 e0 cd bd f2 62 16 bc d0 8d 6f 3d 7c b0 29 3d
       -0.10052518 -0.009178864 0.058484852 0.041428074
000040 7f 1b 95 3c 6c 5e 50 3a 30 af 9f 3c fd bb 4e bd
       0.018201588 0.000794864 0.019492716 -0.05047225
000050 c1 fa 89 3d 4b 25 73 3b 4b 6f 79 3c 43 44 b9 bb
       0.06737281 0.0037101086 0.015224288 -0.0056538894
000060 d3 17 89 bd 28 3c 1e bd e5 96 ab bc 44 0c 8b 3d
       -0.06693997 -0.03863159 -0.020945976 0.06789449
000070 8f 98 3c bc 24 90 52 bc 88 08 3d bd 0e dd fc 3c
       -0.011510982 -0.012851749 -0.046150714 0.030867126
000080 ab 0f 8f 3d 80 18 ff bc 54 1c b8 3c 61 04 de bc
       0.0698541 -0.031139612 0.022474445 -0.027101697
000090 e7 f9 23 bc b4 77 77 3c 5d 82 53 3b ce 2b 9f 3c
       -0.010008312 0.015104223 0.0032273747 0.019430067
0000a0 39 ad 9f bb 02 81 ba bc cd 2e 67 3b 74 47 ec 3c
       -0.0048729447 -0.022766594 0.0035275698 0.028842665
0000b0 e9 a0 8b 3c da 60 76 3d 46 48 e4 3c 1a 8d ee 3c
       0.017044501 0.06015096 0.027866494 0.029120017
0000c0 d6 30 07 3d 1e b3 43 bd 9f 31 35 bb 8f e3 2c bd
       0.033005558 -0.04777824 -0.0027647985 -0.042209204
0000d0 98 4f 57 bd be 82 d8 bd 98 9f 53 bc 17 c9 9e bc
       -0.05256614 -0.10571812 -0.012916468 -0.019382996
0000e0 6e 48 7c bd e9 e9 84 bd be 8e cb bc 70 d7 8a bc
       -0.06159251 -0.06489927 -0.024848338 -0.016948432
0000f0 8d a2 5b 3c 33 75 ad bb b2 80 16 3d 2b db a5 bb
       0.013405454 -0.0052935123 0.036743827 -0.0050615272
000100 1c fb d7 bd 3e 49 3b 3d f1 19 e8 bc a9 da 76 bd
       -0.10545942 0.045724146 -0.028332682 -0.060267124
000110 d9 71 e2 bd c9 6a 3d bd 75 e9 17 3d 6c 1d fe 3c
       -0.11056871 -0.046244416 0.037087876 0.031019889
000120 f1 0f 82 bb 92 bc 07 bd f5 7d 6d 3d c2 f4 2a bd
       -0.0039691855 -0.03313882 0.05798145 -0.041737325
000130 da 05 f7 3b 0d ab d9 bd 63 b5 f7 bb 44 8d 8c bb
       0.0075385394 -0.106283285 -0.007559465 -0.004289301
000140 4e fc 0a 3c 53 be a1 3d 66 02 1d bd b0 56 fc 3c
       0.008483006 0.078976296 -0.038332365 0.030803055
000150 84 0f 1f bd 66 4f 4e bc 1c 87 9b bd f2 6d 2d 3d
       -0.038833156 -0.012592172 -0.075941294 0.04234118
000160 6a 2a 3a 3d 74 ab 28 3d e9 b9 b3 3a 44 4e 27 bd
       0.045450605 0.041179135 0.0013712022 -0.040846124
000170 49 0b 17 bd 65 97 73 bd 88 6a 64 3d 92 f6 0d bd
       -0.036875997 -0.059470553 0.05576566 -0.034658976
000180 95 e3 6f 3d dc 90 93 3b cd 2b 8d 3d ed 86 cc bd
       0.05856665 0.0045033526 0.0689312 -0.099866726
000190 7e 10 e4 3c c3 d9 48 bc 69 a2 09 bc 6d ee 52 3d
       0.027839895 -0.01225895 -0.008400538 0.05149691
0001a0 dd a1 54 bd 99 8c 83 3c d3 bb 31 3a 75 41 77 3c
       -0.051912177 0.016058253 0.0006780002 0.01509129
0001b0 f7 24 de 3d 8d 9e 43 3d 39 33 69 bd 9b 39 fc 3c
       0.10846894 0.047758628 -0.056933615 0.030789187
0001c0 1b 48 2d bd 19 d1 58 bd 56 f8 8c bc 58 d9 c9 3d
       -0.042305093 -0.052933786 -0.01720826 0.09855908
0001d0 62 44 be bd ef 4b 92 3c eb b0 fe 3b 2c 73 05 be
       -0.09290387 0.017858474 0.007772555 -0.13032216
0001e0 4b 2b 9a bd d2 23 38 3d b1 8c 4e 3d 88 39 e8 bc
       -0.07527789 0.044956036 0.050427143 -0.028347746
0001f0 78 79 08 3d 65 73 6a bd 89 0a 36 3d dc 70 3a 3d
       0.033318967 -0.057238955 0.04444364 0.045517787
000200 02 0c 53 3d 50 7f 5f 3d 67 a2 40 bc 1a 1e c1 bd
       0.051525123 0.054564774 -0.01175747 -0.094295695
000210 b2 e2 42 3d 41 a9 3b bd e4 7f 1b be e8 79 c5 3d
       0.047579475 -0.04581571 -0.15185505 0.096423924
000220 8a 65 84 3d 5c 35 9b bd d0 63 19 3d 9b f6 4f 3c
       0.064646795 -0.07578537 0.037448704 0.012693073
000230 e9 21 52 be 91 7c ca bc de ad d9 3d 2d 46 7a bc
       -0.20520748 -0.024717601 0.10628866 -0.01527552
000240 a0 7e b8 3c be af 5e 3d 31 e1 e0 3d a0 5f 08 bd
       0.022521317 0.05436682 0.10980452 -0.03329432
000250 a0 b5 e8 bd 54 d4 ab bb f9 b5 eb bc 2d f7 6c 3d
       -0.11362767 -0.0052438173 -0.028773295 0.057852913
000260 9e cf 97 3d 8f a0 eb 3c 83 f1 e5 bd 17 ba 76 3d
       0.07412647 0.028763084 -0.11227705 0.060236063
000270 0b 03 de 3c 26 ab a3 3d e0 ba 93 bd 92 2c 93 bd
       0.02710106 0.07991628 -0.07213378 -0.071862355
000280 8e a5 20 3d 2a cc 91 bd c2 b5 92 bb 3a cc 08 3d
       0.039220385 -0.07119019 -0.0044772336 0.03339789
000290 c1 0d 12 be 4f c4 03 3d b6 77 e0 bc cb ca dc bd
       -0.14263059 0.032169636 -0.027400833 -0.10780867
0002a0 3f 1d 20 3d 58 22 f1 39 eb 0a 52 3d b3 54 f7 bd
       0.03909039 0.0004599269 0.051279943 -0.12076702
0002b0 0a 97 e6 bc fe 96 cc bd 9d 21 8c bc 00 3a 97 bd
       -0.028148193 -0.09989737 -0.017105872 -0.073841095
0002c0 2d 6a 7a bc 42 d0 32 bd 56 d0 a2 bc 84 f8 a6 3c
       -0.015284103 -0.04365564 -0.019874733 0.020382173
0002d0 98 ae b2 3d d5 b4 e7 bc 96 45 c8 bc 1c fc 02 3c
       0.08724707 -0.02828447 -0.024447244 0.007994678
0002e0 c9 8e 45 3b f9 eb 0d bd da bb 6b 3d 41 2e b2 bd
       0.003014492 -0.03464887 0.057552196 -0.087002285
0002f0 19 f5 b8 3c 18 1d b9 bd 65 69 e8 3b 77 8a ce bd
       0.02257781 -0.09038752 0.007092642 -0.10085004
000300 0a 91 81 3b 1f 7d ac bb f6 b7 0a bd 8b 3a 05 bd
       0.0039540576 -0.005263939 -0.033866845 -0.032526534
000310 dc f3 d7 bb 47 ce 8c bc 3a 76 79 3d 09 76 38 3c
       -0.0065903496 -0.017188204 0.060903765 0.0112586105
000320 de da 75 bd 6f 31 58 3d c4 ff 4c 3d d7 61 bd 3d
       -0.06002318 0.05278152 0.050048605 0.09247177
000330 4c 2a b9 bc 40 3a f6 bc 5b f5 11 3d 83 07 74 bd
       -0.022603177 -0.030057073 0.03563438 -0.059577476
000340 c0 8e e1 3b 72 9c a7 bd a1 d4 9f 39 48 f6 8b 3d
       0.006883472 -0.081841365 0.00030485264 0.06834084
000350 14 f7 5a 3d ad 17 7a 3d e3 88 5e bd c2 79 bf bb
       0.05345829 0.061057735 -0.054329764 -0.005843372
000360 41 65 b4 bd 6d 54 2e bd b0 92 ae bd 33 ff 06 3d
       -0.08808375 -0.042560983 -0.08524072 0.03295822
000370 ce 7a db bc c9 a1 ba 3d e0 e8 d9 bd 0d e5 69 bd
       -0.026791956 0.09112889 -0.106401205 -0.057103205
000380 e0 e8 84 3c 46 84 9b bb d3 8f 74 bd d0 0a e5 bd
       0.016224325 -0.004745993 -0.059707474 -0.11183703
000390 32 ec 6a bd 19 f7 b8 bd 39 93 97 bd ec a8 ab bc
       -0.05735416 -0.09031505 -0.07401127 -0.020954572
0003a0 18 db 80 bd fb b7 f3 bc f6 d9 bc bd 7f de 02 bd
       -0.06291789 -0.029750815 -0.0922126 -0.03195047
0003b0 d3 6e 5a 3d 59 48 ff 3b 0f 3a 31 bd 7a 60 94 3d
       0.053328346 0.007790607 -0.04326826 0.07244964
0003c0 3c c1 b8 bd ca 40 7c bd 86 d3 a9 3d 2f 91 83 3d
       -0.090212315 -0.061585225 0.08292298 0.06424176
0003d0 a1 bb 2e bd 56 f7 e3 3c 0a f2 07 3e 02 77 b7 bd
       -0.042659406 0.0278279 0.13275924 -0.08958246
0003e0 52 7d 03 be 89 b5 ae 3d 81 5b c3 3d 71 1c 29 bb
       -0.12840775 0.08530719 0.09538937 -0.0025804306
0003f0 8b 05 7c bc ea 3d bc 3d 7b 4c 88 bd b5 3b fa bc
       -0.015382181 0.09191497 -0.066552125 -0.030546049

fc2.bias f4 [300]
000000 3f cd 80 bb 2e 2d b8 3c f2 d3 a3 3d ff 08 3a 3d
       -0.0039307172 0.02248248 0.0799941 0.045418736
000010 e2 6b 32 bd 02 90 40 3d fd d1 9c 3c 0c 7d cd 3b
       -0.043559916 0.047012337 0.019143099 0.0062710103
000020 7e d0 b2 bc ca 65 cd 3b 6a c0 86 bc 7e 92 a4 3b
       -0.021827932 0.0062682377 -0.016449172 0.005022346
000030 43 57 a2 3d af 38 05 3d fd 6f 7f bd fc 63 19 bd
       0.079268 0.03252476 -0.06236266 -0.03744887
000040 e3 97 13 3d ef 42 41 bd 7d 97 16 bd d8 11 a8 bc
       0.036033522 -0.047182973 -0.036765564 -0.020516321
000050 77 70 95 3c fc f0 50 bd ea d8 93 bc c0 1d 56 bc
       0.018242104 -0.05101107 -0.018047769 -0.013068616
000060 32 3e 09 3e 6d 74 d2 3c cf 4c 2b bc cc 7b 68 3c
       0.13402632 0.025690282 -0.010455324 0.014189672
000070 29 d4 b7 bc 37 5f 22 bc 20 63 34 bd 50 e8 40 3b
       -0.022440033 -0.009910396 -0.044039845 0.0029435344
000080 49 c1 e8 bc 36 a4 66 bd 1e 46 16 bc 6e d4 83 3c
       -0.028412478 -0.056308948 -0.009171991 0.016092505
000090 f3 59 1c bc bc 9d 40 bd cf 94 83 bd fa 3d 09 bc
       -0.00954293 -0.047025427 -0.06424867 -0.008376593
0000a0 17 00 d5 3c 8e e3 e0 3c 91 4e 8a bc 30 a3 80 bc
       0.02600102 0.027452257 -0.016883167 -0.015702814
0000b0 1e 50 2f bb 8a b0 ed ba 87 d3 0c bc 32 5d de 3b
       -0.0026750634 -0.0018134278 -0.008595354 0.006786012
0000c0 a9 0c e1 3b 7c 98 d5 3c c3 fe 8e 3d e8 7e b3 3c
       0.0068679643 0.026073687 0.06982186 0.0219111
0000d0 94 ed fa 3c b3 dd 0f 3d 28 5b 90 bb 6b 8b 1e 3d
       0.030630864 0.03512354 -0.004405398 0.038707178
0000e0 ea 82 41 3d 6d e1 c1 3a 6a 15 78 bb 6a 92 1a bc
       0.04724399 0.0014791914 -0.003785456 -0.009434322
0000f0 9b 9f 17 bd 29 0a f2 3b 9b d2 f1 3c 55 e0 c5 3c
       -0.037017446 0.007386465 0.02951937 0.024154821
000100 ac c2 28 bc 5f 1c 42 bc b2 30 a3 bc dd 57 c2 3b
       -0.01030032 -0.0118475845 -0.01992068 0.0059308843
000110 a1 c5 f4 3c a8 82 d5 3c 4d 38 13 bd 0f 3d da 3b
       0.029879393 0.026063278 -0.035942364 0.006660111
000120 47 22 12 bd 8e 28 5d 3d 8b 81 f3 3a 71 5a c5 3c
       -0.03567722 0.053993754 0.0018578036 0.024090977
000130 dd 1c 44 3b 24 bf 13 3d a6 99 5c bc 28 b3 4c 3c
       0.002992443 0.036070958 -0.013464367 0.012493886
000140 5d 67 28 bd bc 72 0a bd 0a 77 2f bd a1 f9 0f bd
       -0.0411142 -0.033800825 -0.042838134 -0.035150174
000150 30 51 2c bc b0 d6 cc bb 1c 94 95 bd 86 f4 7d 3d
       -0.0105174035 -0.0062511787 -0.0730364 0.062000774
000160 48 16 24 3c 73 84 cb 3c 5a 3b fe 3c 59 a9 6d bd
       0.010015078 0.02484343 0.03103416 -0.05802283
000170 80 11 20 bd f5 50 a4 3c e1 cc 62 bd 76 51 f9 bc
       -0.03907919 0.020058135 -0.05537117 -0.030434351
000180 28 4d a7 3c 07 be 39 bd 1a 69 95 3d 4a 13 6e 3c
       0.020422533 -0.04534724 0.07295437 0.014530966
000190 43 4a 4a 3d 11 d4 92 bb 89 76 cb bb d6 94 df bc
       0.049387228 -0.0044808467 -0.006209199 -0.02729265
0001a0 68 b7 08 bd 4f 23 95 3c 90 ba 12 3d b1 fe 9b 3c
       -0.033378035 0.018205313 0.03582245 0.019042345
0001b0 dc 3e 23 bd c2 b9 4f 3d 50 ca 7e 3d 34 51 3b bd
       -0.03985487 0.05071426 0.06220466 -0.04573174
0001c0 e9 e3 90 3c 48 89 86 3d ff 42 ed 3c c1 38 56 3d
       0.017686801 0.06569153 0.02896261 0.05230022
0001d0 28 a7 ba 3b 57 35 ff 3c 5f 18 42 3b 17 08 22 3d
       0.005696196 0.031153364 0.0029616577 0.039558496
0001e0 63 9d 59 bd a9 41 c8 bc c5 dd 86 3c 58 c3 cd bc
       -0.05312861 -0.024445372 0.01646317 -0.025117561
0001f0 fa 15 d4 3d 25 45 bc bc 34 99 4b bd 48 02 d0 bc
       0.10355754 -0.02298219 -0.049706653 -0.025391713
000200 24 fc 1f 3d 26 55 21 bd 21 26 43 bb 96 44 b9 3d
       0.03905882 -0.039387845 -0.0029777365 0.09046285
000210 26 7f 10 3c 03 24 7b 3d ae d0 68 bc 51 72 6c 3d
       0.008819377 0.06131364 -0.014209909 0.057726208
000220 e5 1a 2f 3b b9 58 59 bc f4 9a 8f 3c 9b 65 d4 ba
       0.0026718911 -0.013265782 0.017529942 -0.0016204597
000230 b1 a0 78 bd f4 02 34 bc 6a 21 98 3d 7c 09 d3 bb
       -0.060700122 -0.010987032 0.07428248 -0.0064403396
000240 6d c5 b6 bc 49 c5 dc 39 79 7f 01 be bb 1f ec 3b
       -0.022310937 0.0004210866 -0.12646283 0.007205931
000250 34 bb 91 3c 6c e9 76 3d 7b c8 18 3d 23 ee 18 3d
       0.01778946 0.060281202 0.037300568 0.03733648
000260 05 4b 15 bd ba 23 bd 3c b1 3d 91 bc c0 09 32 bd
       -0.036448497 0.023088325 -0.017729612 -0.04346633
000270 cf 58 fc 3c 7b 80 c0 bc 5f 25 1b 3e bc 58 fe bb
       0.030804066 -0.023498764 0.15150975 -0.007762043
000280 48 e4 92 b9 60 9d 69 bd 58 cf e4 3b 4d a0 d1 bb
       -0.00028017373 -0.05703485 0.006982725 -0.006397283
000290 3c 8a 5b bd 55 60 c4 3b f5 e2 aa 3c fb d6 eb 3c
       -0.053598627 0.005992929 0.020860175 0.028789034
0002a0 dc 0a 1a 3d c4 a6 5e 3d 7a ff 8d 3c bd d5 ad bc
       0.037608013 0.05435826 0.017333735 -0.021220082
0002b0 87 1d 24 3d 1c a2 be bc 09 2f 5f 3c 0b b2 8a bb
       0.040067222 -0.02327066 0.013622054 -0.00423265
0002c0 50 b4 a7 bc dc f7 93 3d 87 cd 4e 3d 11 ff 18 3d
       -0.020471722 0.0722501 0.050488975 0.037352625
0002d0 ea d7 0a bd ac 95 d7 bd ad e0 19 3d 90 05 8b 3d
       -0.033897318 -0.105265945 0.037567783 0.0678817
0002e0 28 b0 b5 bb 6e 56 99 3c f5 de d7 bc 68 9b 96 3d
       -0.005544681 0.01871797 -0.026351431 0.0735386
0002f0 35 c0 aa bc b4 d9 93 3c 65 61 ab 3c 9d 8b 30 3d
       -0.020843605 0.018048145 0.020920465 0.043101896
000300 ec 97 ac 3b 7d 19 45 3d 93 0f 00 3d d9 19 26 3d
       0.005267134 0.04812001 0.031264853 0.040551994
000310 19 66 55 bc 4d 7d 10 3d 8b 9b b7 3d df 55 90 3d
       -0.01302483 0.035275746 0.08965214 0.070476286
000320 65 3f 21 3c 46 1e 42 3d 11 7b 59 3d b7 05 cc ba
       0.009841775 0.047392152 0.05309588 -0.0015565668
000330 99 3e bd bc 9d 95 6a bc 30 e0 3a 3c 02 d6 54 bc
       -0.023101138 -0.014317897 0.0114059895 -0.012990477
000340 f3 21 36 3d e7 cf f7 3c 8c f8 9c 3d 06 d3 18 bb
       0.04446597 0.030250503 0.07664594 -0.002331914
000350 d0 f5 bd 3c 8d 80 23 3d f0 08 81 bc ec ab b9 bc
       0.023188502 0.039917517 -0.015751332 -0.022664987
000360 2a f7 27 3d 14 48 0a 3d de c7 31 3d 95 13 1c bd
       0.0410072 0.033760145 0.0434035 -0.038104612
000370 6e 56 80 3d 9a 79 5a bc c5 d4 fa 3c f3 ff 5c bc
       0.06266485 -0.013334656 0.030619035 -0.013488757
000380 f5 14 f4 bc d7 d3 e8 bb d7 95 78 ba de bf c4 bc
       -0.02979515 -0.0071053314 -0.0009482777 -0.02401727
000390 eb b5 b7 bc 46 19 42 3c cb c3 5a bc ff f7 39 3d
       -0.022425612 0.011846846 -0.013352345 0.045402523
0003a0 88 c4 d3 bc 76 0c ee 3b ea 7d 2b bd a5 21 2e 3d
       -0.02585055 0.007264669 -0.041868128 0.042512555
0003b0 9a 10 5d 3c 50 5d 12 3c 1b 7d a4 bc c3 0b 4b 3d
       0.013492728 0.00893338 -0.020079186 0.049571764
0003c0 25 81 69 3d 9a 22 a9 bb 1b 1a b5 b9 35 4e 83 bc
       0.057007927 -0.0051615955 -0.0003454246 -0.016028503
0003d0 c7 5c 5b 3d e9 7b cb 3c e7 6a 65 3c 9b 7a 93 bc
       0.053555276 0.024839358 0.014002538 -0.018002799
0003e0 94 b2 38 3d f5 45 93 3b 26 54 37 bd 6d a5 fa bc
       0.04509218 0.0044944235 -0.044757985 -0.03059646
0003f0 ac 6b 36 bd 08 e4 fa 3d 32 6d 1d 3d e9 0f 24 bd
       -0.044536278 0.12250525 0.038434215 -0.040054236

fc3.weight f4 [1, 300]
000000 af 61 2e bd d8 c3 7d 3e ae c9 87 3d 65 d7 f4 3d
       -0.042573627 0.2478174 0.06630264 0.11955146
000010 79 f6 40 bd 6b ce aa 3d 67 12 a4 bd bb 2c b4 bd
       -0.047110055 0.08340152 -0.080113225 -0.08797594
000020 21 23 44 bd 99 77 0c 3e e3 f0 1a be fa e0 9a 3e
       -0.047885064 0.13717498 -0.15130953 0.30249768
000030 91 51 f3 3d dc 07 34 3e ba 9b 39 bd 53 bb 6c bd
       0.11880792 0.17581123 -0.045314528 -0.057795834
000040 16 52 01 3e 71 77 31 bd f4 29 7b bd fb 32 00 3e
       0.1262897 -0.0433268 -0.061319306 0.12519448
000050 26 6e ad 3d 87 ce cb bd 9e a8 0f 3b e5 21 d9 bd
       0.08468275 -0.09951501 0.0021920572 -0.10602168
000060 00 72 82 3d e7 75 fe 3d ed f7 f2 3d b0 17 29 bd
       0.063694 0.12424832 0.11863694 -0.041282356
000070 fc 4c e5 3d 45 e5 8a 3d ae 0f d6 3d 77 af 21 bd
       0.11196324 0.06782011 0.104522094 -0.039473977
000080 ca f5 d4 bc c5 80 04 be 8c 6e ca bd 6d e1 ea bd
       -0.025996108 -0.12939747 -0.098843664 -0.11468778
000090 4a 0a d1 bd 95 72 35 be 95 0f 12 bd a9 f4 3b be
       -0.102070406 -0.17719491 -0.03565939 -0.18355049
0000a0 a3 06 4f 3d 6c 85 9e bd dc bd 73 bd 25 c0 aa bd
       0.05054344 -0.07740292 -0.059507236 -0.0833743
0000b0 8a ee 1a 3e 63 42 d7 bd 87 e0 69 bd cb c6 ce 3d
       0.15130058 -0.10510709 -0.05709889 0.100965105
0000c0 8a 76 34 3e de 5e 90 3d 45 97 d3 3d dd 79 2a 3e
       0.17623344 0.070493445 0.10331587 0.1664805
0000d0 0a 02 aa 3d 1b 62 f1 3d 76 2d 58 3d 00 85 75 bd
       0.0830117 0.1178629 0.05277773 -0.05994129
0000e0 bd 37 f0 3d ae d5 97 bd 0d d9 d4 bd 73 35 30 bd
       0.11729381 -0.07413803 -0.10392962 -0.043019723
0000f0 1d 5d c2 bd 1d 10 98 bd d5 30 e8 ba 7b d7 7c 3e
       -0.09490416 -0.07424948 -0.0017714748 0.24691574
000100 cb 51 1d 3e 13 95 12 3e 35 b7 82 bd 1e 6d 93 3d
       0.15363233 0.1431468 -0.063826 0.07198547
000110 2f ad 3e 3d a7 b7 7f bd ec bc 6e bd a9 20 23 3e
       0.04655188 -0.062431004 -0.05828564 0.15930428
000120 d1 9e 87 bc 85 9a 31 3e 2b a6 cc 3d fb 8b 07 3e
       -0.016555222 0.17344101 0.099926315 0.13236992
000130 ec 8b d9 bd 67 f0 99 3d 96 c7 ff 3d e9 7a b0 bd
       -0.10622391 0.07516556 0.1248924 -0.08617193
000140 32 bb ac bd 67 97 89 bb 28 d4 b7 ba c5 51 d7 bd
       -0.08434142 -0.004198957 -0.001402502 -0.10513643
000150 c4 72 8e ba 3f 49 1e 3e 74 e5 a3 bc f9 3b 65 3d
       -0.0010867943 0.15457629 -0.020006873 0.055965398
000160 de de ad bd 2a c1 7d 3e a7 93 49 3d 7b 21 f8 bd
       -0.08489774 0.24780717 0.049213078 -0.12115761
000170 1e 31 b7 3c ce 5d 0d be 6d 3a 96 3d 79 47 a2 bd
       0.022362288 -0.13805315 0.073353626 -0.079237886
000180 bd 16 75 bb 79 ed f0 bd 9d ab f8 bc fb 27 3b be
       -0.0037397586 -0.11764044 -0.03035527 -0.1827697
000190 d7 84 17 3d 5f 51 00 bd 7e 31 c7 3d 17 bb be bd
       0.03699192 -0.0313276 0.09726237 -0.09313028
0001a0 06 4f 0a 3e 2c d4 96 3d c6 c5 20 3e 21 e4 32 3e
       0.13506708 0.07364687 0.15700445 0.17469837
0001b0 81 42 47 3a a9 ba 12 3e b3 cf da 3d 51 4f 66 bd
       0.00076011574 0.14329018 0.10684147 -0.056227986
0001c0 74 bc ff 3d 72 19 e2 3d e2 d3 99 3d 4d 11 04 3e
       0.124871165 0.110400096 0.075111166 0.12897225
0001d0 6a c0 9e 3d 12 81 e2 bd 58 2e 83 3a fc a2 dc bd
       0.07751544 -0.110597745 0.0010008318 -0.10773274
0001e0 1c 34 3f bd d1 dc 79 bd 2e 7f 49 3d 31 ff 04 be
       -0.046680555 -0.061001603 0.049193554 -0.12987973
0001f0 3b 8c 8c 3d 79 1b 1b 3e 84 de c2 bd 65 8c 01 3e
       0.06862684 0.15147199 -0.09515098 0.12651213
000200 f2 b8 a3 bd 2b 80 c1 bd 30 73 a6 3d 40 a6 f6 3d
       -0.0799426 -0.09448274 0.08127439 0.120434284
000210 6a e8 62 3e 44 e1 28 3e 17 6a 15 3e fd 90 34 3e
       0.22158971 0.16492182 0.14591251 0.17633434
000220 84 a4 d5 3d 4e f7 d6 3d 05 29 dd bc f8 18 f8 bd
       0.104317695 0.104963884 -0.026997099 -0.121141374
000230 f1 2d 22 bd 7e 9c c0 3a dc ba 11 3e 53 3c cb bd
       -0.039594594 0.0014695076 0.14231437 -0.09923615
000240 33 9b e7 3c 4b 97 9d bd 64 5b dd bc 33 df 9d bc
       0.028272247 -0.076948725 -0.027021118 -0.019271469
000250 6e df ec 3d 6f 76 d7 3d e4 35 04 3e 5a d4 13 be
       0.11566053 0.10520636 0.12911183 -0.14436474
000260 d9 7c f3 3d f9 72 0f 3e 7c 9a 72 bd f5 92 8f bd
       0.11889047 0.14008702 -0.05922936 -0.07010452
000270 01 b3 6a bd 60 04 f9 bc b5 e7 12 3d 08 72 90 bd
       -0.057299618 -0.030397594 0.035865504 -0.07053
000280 fa 7b 0f be 45 e1 ba bb 97 b4 c2 3d 57 eb 77 bc
       -0.14012137 -0.0057031238 0.09507101 -0.015131793
000290 23 12 73 bd cf e7 2b 3e b7 bf d0 3d 24 cc 80 3d
       -0.05934347 0.16787647 0.10192817 0.06288937
0002a0 7c 52 91 bd c2 89 10 3d 60 a6 a6 bd d4 e5 77 bd
       -0.07095811 0.035287626 -0.08137202 -0.060521916
0002b0 4b d9 22 3e d5 9c d1 bd 62 26 83 bd 4f 30 7c 3e
       0.15903203 -0.102349915 -0.06403805 0.24627803
0002c0 60 05 ae bd c5 23 45 3d 11 a6 41 3d 77 ae e9 3d
       -0.08497119 0.048129816 0.047277514 0.1141023
0002d0 46 85 6c bc e2 fb 08 bd 0c 01 92 bd b6 48 a1 3d
       -0.014436072 -0.03344334 -0.07129106 0.07875197
0002e0 35 e1 fa 3d e4 db c6 3a f9 a6 9e bd d5 36 18 3d
       0.12249986 0.0015171734 -0.07746691 0.037161667
0002f0 b0 93 ba bd 17 87 96 bd eb 70 14 3e 5f fc 37 3e
       -0.091102004 -0.07349985 0.144962 0.17967366
000300 fe 76 27 3e 8e 16 a5 bd 4c fb b7 3d f1 3b 62 bd
       0.16353986 -0.080609426 0.08983478 -0.055232946
000310 2e f3 e7 bd 91 da eb 3d 05 ca a3 3d bb c8 1c 3e
       -0.1132568 0.115162976 0.079975165 0.15310948
000320 38 87 18 bb a0 08 67 bd fe 32 1a 3e 92 ea 59 bd
       -0.0023273956 -0.05640471 0.15058514 -0.05320222
000330 7b d8 9d ba 73 5e d5 bd fa 9b 28 3e aa ec c0 bd
       -0.0012042666 -0.104184054 0.1646575 -0.0942014
000340 96 d6 f9 bd 9e 96 f3 3d a2 b5 1d 3e 78 f0 35 bb
       -0.12199132 0.11893962 0.15401319 -0.0027761739
000350 e7 09 65 bd ab 28 06 be 3d 90 0f be 8d 82 1e 3e
       -0.055917647 -0.13101451 -0.14019866 0.15479489
000360 58 88 06 be c5 2b d0 3d 15 91 9a bd 4f bb d8 bd
       -0.13137949 0.101645984 -0.075472035 -0.10582601
000370 d8 2d fd 3d f0 43 c8 3d 0c 18 65 3e 0a 1e a3 bd
       0.123622596 0.09778583 0.22372454 -0.07964714
000380 4d ec 61 bd 4f 61 b9 3d fc 3c a2 3d 2d 1a 54 3e
       -0.055156995 0.09051763 0.07921788 0.2071311
000390 52 aa ed 3d ee 1a 11 be 32 5c 0d 3e 26 11 43 3e
       0.11604752 -0.14170429 0.13804701 0.1904951
0003a0 b2 76 1d 3e b0 63 e0 bd a4 22 f0 3a 15 b2 5c 3d
       0.1537731 -0.10956514 0.0018320871 0.05388077
0003b0 d1 10 0e be c4 df cf 3d be cc b7 3c d5 41 0a bd
       -0.13873602 0.10150102 0.022436496 -0.03375419
0003c0 71 2c 89 bd b8 43 82 3d a6 8f e9 bd 9a e0 8d 3e
       -0.0669793 0.063605726 -0.11404352 0.2771042
0003d0 7f a8 f8 3d 32 44 d5 3d 28 36 0a 3e 35 b1 17 be
       0.12141513 0.10413398 0.13497221 -0.14813693
0003e0 eb b6 ce 3d b3 a2 09 be 1d e3 8d bd 0b b4 f1 bd
       0.100934826 -0.13440971 -0.06928084 -0.118019186
0003f0 d4 03 eb bd ae 7d 23 3d e6 72 03 3e 28 2e 45 3e
       -0.114753395 0.03991478 0.12836799 0.19255888
