checkpoint_actor.pth (torch_old, 110225 bytes, 6 tensors)

fc1.weight f4 [200, 33]
00000000: b53f 663d 6a18 81bc 9df2 a13d 9d81 c63c
00000010: 9d79 043d 4ce0 6ebe 847d d33c 7f92 a23d
00000020: 29c0 b0bb 6b98 4f3c d39d 84bc d2b0 9fbd
00000030: 49c7 66bd 6952 1bbd 79dc 0f3d 6942 db3d
00000040: 9669 2fbd e371 10bd e834 503d 3930 143c
00000050: 9235 9b3c 2df0 29bd a39d cebc e0e4 febd
00000060: 110e eabd e1db c9bd ba17 283b 96d4 b9bc
00000070: e0dc e63d 8288 3fbd 5899 713d c050 af3a
00000080: 7574 0c3e 1c67 90bd c483 9dbc 84f5 0d3d
00000090: 084f f73b 0ca7 c53c 8001 443d a8f9 ac3d
000000a0: 96d6 70bd 8ed9 cf3d 24b4 97bd b161 41bc
000000b0: f57b 40bc 238d 423d 2bc0 c8bd dc2f dd3c
000000c0: d47f 433d 87d8 c8bc 0432 80bd 474e b5bc
000000d0: 8ac3 2abd 467e 1fbd b833 863d 8ebb 73bc
000000e0: 7590 9bbd c574 c4ba 697b ea3d f461 773d
000000f0: 52c4 b33d fbb0 bbbc 68ba e2bc 40c5 e43c
00000100: 60ed d1bc ec77 90bd 4a19 77bb a8a8 743d
00000110: ae00 f23d 8fe2 133d 010d 1a3d 3cdf 41bd
00000120: 0e73 693d 2124 863c c410 8e3d adae 813b
00000130: b4f5 5a3d 3e5f 363d e47d bebd 2b5d 85bd
00000140: 033e 80bd f21a 0c3e 5fbd a03d 5ec2 b9bc
00000150: dc04 a3bd c361 20bd 5232 3f3d 5a49 1abd
00000160: b650 13bd c9af ec3c 24e5 29bd fd21 4c3d
00000170: 2297 90bc 24be 4bbd 6aeb fdbc ed01 8ebd
00000180: f4f6 453d cce0 57bd 8f61 9f3d aab8 193d
00000190: 96c0 16be 28bf 92bc c21b 353e 12b5 91bd
000001a0: 4ea1 2bbd 8103 d6bd 0bbb a0bd fbb1 263c
000001b0: 1049 c6bd e623 543d 3cbe 21bd 2a29 74bc
000001c0: b028 093d 79d4 d4bd a1ff b4bd 746f 0fbc
000001d0: faf9 a53d 1a17 58bc ab4f 6f3d 6076 c4bd
000001e0: 1106 f7ba 81fd 85bc 0715 f2bc 6411 93bd
000001f0: 2b41 10bd 7e69 0cbd 7bbe 41bd 7dfb f9bd
00000200: f019 a6bc 3306 653d 00ea 61ba 690b 75be
00000210: b59c c2bd f5ab 473d b984 59bd 8f46 cbbb
00000220: b0f6 e3bd 3ccc 99bd fd54 3bbd 5d39 873b
00000230: c217 403d 32d2 54bd f6dc 8c3c 0d01 bb3d
00000240: 2241 843c 9bec bfbc aa15 203e 59d6 01bd
00000250: a61f 00bd 27e4 cfbd 3bc7 03bd e840 513d
00000260: 906d 153c ea3e fd3b b583 b0bd 74b8 55bd
00000270: d912 153d e6e3 b7bd e6cc 893c b413 23bd
00000280: 4bd8 80bc f66a 783d d4f6 433d 02d9 9cbc
00000290: f9fe 1a3e e0fa 163e 236b 6a3c 8fb7 c13d
000002a0: 894d 293d d8df 56be 3c92 c6bd 4ced 9d3c
000002b0: 534f b4bd e6dc 053c 6a30 993c 1fba a2bc
000002c0: bdb4 ebbc 6520 0c3d f1da 8f3d 3d3f 2e3d
000002d0: 2f52 123e 188b 21be 8226 04bd 5571 1e3d
000002e0: 162f e03d 1efb 62bd ad05 4ebd 305e 3cbd
000002f0: ab99 78bc 3f86 cc3c 2b0a 10ba 2d44 4b3d
00000300: 42c3 c2bc 93ef 33bd 6a40 89bd 2bb3 833c
00000310: 3cb6 083d 85fa 08bd 5bd6 b7bd a4e2 ebbc
00000320: 7eae 053e d4eb 883c 687a a3bd 3865 b2bd
00000330: a30f 9dbd c62b b23d 4e17 1c3e 6adb 0cbd
00000340: 5b9a eb3b 9629 f23d cd82 b4bc a44e cc3c
00000350: 3797 b3bc 8c88 53bd 1275 a33d 7b39 0fbd
00000360: 44dc 99bc 3ab2 fc3d ccce edbc fce5 89bd
00000370: 3d66 abbc a461 a6bb c88d 38bd 815f 033c
00000380: 2951 36bd 28c6 c0bd c32d 90bd 80b1 bf3c
00000390: b27f ac3c dabb 683d 9c2a 6b3d 948d febc
000003a0: 7a09 a5bd 9c04 e0bc 40cc 063d 5d3c c5bc
000003b0: fef4 d1bd 59e0 a53c 394e 613d d8f8 62bc
000003c0: e3ef 863c a3df 1cbd 6374 4cbd b425 163e
000003d0: fe2f 91bd d45c 15bd 2f9a 3b3d ee16 05be
000003e0: bfa5 0f3d fcba 813d 8a54 813d 8f5b 37bd
000003f0: 0e0a 4ebc 7733 b2bc 2cc4 99bd c921 bcbb
0.0562131 -0.015758712 0.07907603 0.024231726 0.032342542 -0.2332775 0.025816686 0.07938098
-0.005394001 0.012670617 -0.016188538 -0.07797398 -0.056342397 -0.03792039 0.03512237 0.10706026
-0.042825304 -0.03526486 0.050831705 0.0090447 0.018946443 -0.041488815 -0.025221651 -0.12445998
-0.11428464 -0.09856392 0.0025648908 -0.022684377 0.11272597 -0.046761043 0.05898413 0.0013375506
0.137163 -0.070509166 -0.01922787 0.03465797 0.007547263 0.024127506 0.047852993 0.08446056
-0.058798395 0.10148917 -0.07407406 -0.011803077 -0.011748304 0.04749788 -0.09802278 0.02700036
0.04772933 -0.02451731 -0.0625954 -0.022132052 -0.041690387 -0.038938783 0.06552833 -0.0148762595
-0.07595912 -0.0014988413 0.1144932 0.06039615 0.087776795 -0.02291154 -0.027676776 0.027926087
-0.025625885 -0.07054123 -0.0037704282 0.059731156 0.11816536 0.036104735 0.037610058 -0.047332034
0.05699449 0.01637465 0.069367915 0.0039575906 0.053456977 0.044524424 -0.093013555 -0.06511911
-0.06261828 0.13682154 0.0784862 -0.02267569 -0.07959911 -0.039155733 0.04667885 -0.03766761
-0.035965644 0.028892415 -0.04147829 0.0498371 -0.01765019 -0.04974188 -0.030996043 -0.06933961
0.048331216 -0.052704617 0.0778228 0.037529625 -0.14721903 -0.017913416 0.1768637 -0.071146145
-0.04190188 -0.10449887 -0.078481756 0.01017427 -0.09681904 0.051792048 -0.039488062 -0.014902392
0.03348607 -0.103920884 -0.0883782 -0.0087546 0.0810432 -0.013189102 0.058425587 -0.09592891
-0.0018846412 -0.016356232 -0.029551042 -0.071810514 -0.0352184 -0.034280293 -0.047300797 -0.12206171
-0.02027604 0.055914115 -0.00086179376 -0.23930134 -0.09502546 0.048747975 -0.05310509 -0.0062034796
-0.11131036 -0.07509658 -0.045735348 0.0041267113 0.046897657 -0.05195827 0.017195206 0.0913106
0.016144339 -0.023428252 0.15633264 -0.03169856 -0.031280182 -0.101509385 -0.032172423 0.05108729
0.00912036 0.007728447 -0.08618871 -0.05217786 0.036394928 -0.08979015 0.016821336 -0.039813712
-0.015728137 0.06064888 0.047842816 -0.019146446 0.15136327 0.14744139 0.01430777 0.09458839
0.04133371 -0.20983827 -0.09695861 0.019278191 -0.088041924 0.008170342 0.018699843 -0.01986414
-0.028772706 0.03421058 0.07024182 0.042540777 0.14289163 -0.15775716 -0.032263286 0.0386823
0.10946481 -0.055415265 -0.05029838 -0.04598826 -0.015173356 0.024966357 -0.0005494679 0.049625564
-0.023774747 -0.043929648 -0.06701739 0.016076645 0.033376917 -0.03344204 -0.08976432 -0.028794594
0.13054845 0.016714014 -0.079823315 -0.08710712 -0.07668998 0.08699755 0.15243265 -0.034388937
0.0071900315 0.11824338 -0.022035027 0.024939843 -0.02192269 -0.051643893 0.07981314 -0.034966927
-0.018781789 0.123386815 -0.029029272 -0.06733319 -0.020922774 -0.0050775576 -0.045057088 0.008018375
-0.044510994 -0.09412795 -0.07039978 0.023400068 0.021056984 0.056819774 0.057413682 -0.03107337
-0.08058448 -0.027345948 0.03290963 -0.024076635 -0.10251807 0.020248579 0.05500624 -0.013853274
0.016471809 -0.038299214 -0.049915683 0.1466282 -0.07089232 -0.03646548 0.045801338 -0.12997028
0.035070177 0.063344926 0.06314953 -0.04476505 -0.012575639 -0.021753056 -0.0750812 -0.005741332

fc1.bias f4 [200]
00000000: 441b d73d 6968 2fbe 606f e33c e5a3 273e
00000010: 6a37 12bd 6d1a e23b 4d8a ff3d 2110 8dbd
00000020: 1c5e 9cbd 3487 67bd 5a92 d6bd 9f77 05be
00000030: c73d 453d 7a21 9e3d f3ff a3bd 714d abbd
00000040: a577 20bd 5259 e33d 7b60 a63d e9c0 633d
00000050: 44c9 f9bc 43cd 153e baa2 72bd d711 e33b
00000060: 3383 8abd 0142 1cbc 8cd5 92bb 88f3 973d
00000070: 7bf4 553e a272 1f3e b5a6 d03d b1a2 153e
00000080: 154d b53d c318 613e dbab a5bd 725a f93d
00000090: 29db 653e 59eb b63d c9c9 1ebe 7ef5 403e
000000a0: 9001 41bd e2bf 96bd 9511 d8bd 007e 553e
000000b0: aa1b 3b3e 8aed 9abd ed10 383d 0f22 efbd
000000c0: e2b7 dcbd 8337 b3bd 9f9e d4bd 3cc4 3a3d
000000d0: 7891 ffbb c485 5b3d 3b0f 90bd 66d0 183e
000000e0: 737b 0f3e bb49 b23d a123 13bd 9779 a7bd
000000f0: 6ed6 ec3d e074 b0bd 5f68 afbd cea2 8dbd
00000100: 9cbc 513e a123 8cbc 7d9e 523e 1822 bfbd
00000110: 4e20 143e 7c7e 4dbd 70e9 f03d cfbf 793d
00000120: 33d2 0d3d 2fe9 07be f8f4 b23d 6e39 0c3d
00000130: 7422 363d 6991 f3bb e1d6 aa3d e843 d7bc
00000140: c502 6a3d cb45 c1bc 0252 6b3e 0752 c2bc
00000150: 4a89 153e 759f 4c3e be2c 8a3d 7007 a6bd
00000160: adae 4a3e 2656 f6bc 0984 b33d 6f0b 33bc
00000170: b7cb 0d3e bc81 f3bd a520 493e 5600 51bd
00000180: 8f03 fcbd 218f bfbc f818 65be 5bf2 bfbd
00000190: 3c80 4ebd d63a f83d 962b 123d 9836 c43b
000001a0: 4193 ec3d 9a4a 7d3c 72e5 f4b9 bd81 a2bd
000001b0: 151e 603e 1311 1c3e e57a a13d ddcf 0c3e
000001c0: 25e3 343d b0e6 f73d 8b7c fe3d 44ba 9fbd
000001d0: 18fa 223e 0c88 9fbd 25af f03c c4f6 dabd
000001e0: e32c 27bd c8ec e83d 34f2 bf3d 6603 adbd
000001f0: 2f01 303e 5f0a 583d 9e50 3a3e 0623 f23d
00000200: d02b 9d3d 79d0 c7bd 17f8 1e3d 6680 923d
00000210: d964 7c3d 8735 fa3d 96a0 343d f939 f2bd
00000220: e4a8 4d3d d58e 833e a7fa b23d 3c66 753d
00000230: 7b28 8abd 26d7 dabd f502 53bd e38f 3abc
00000240: 5292 f0bc e87b 3dbd 30c4 0f3e b419 253d
00000250: 5ca5 b2bd 9010 72bd 737e be3d 04ea b53d
00000260: 187e 86bb 4f19 3a3d 8306 e5bd 63aa 6a3c
00000270: 913f ae3b a340 dd3d 1a64 403e ed84 263e
00000280: 51fa ae3d e007 39be 2cbb f6bc c6ed 8b3c
00000290: 1d06 673e a611 4b3e 039f 87bc d5b5 093e
000002a0: cbfa 9dbd 4931 d7bd 24e6 b03d cd18 f93c
000002b0: aaa2 06be cf40 2dbd ca7b f3bd 70c3 053e
000002c0: 7894 f3bd fa5f 363d b1e5 6d3e 6e8c 0cbe
000002d0: 6673 183e c7b9 203e 1c5c 313e 6b4e 023c
000002e0: 7d21 05be 414e 503e e76d 8cbc 0460 16bd
000002f0: f9ad bc3d e3f9 b53c 21ab 0ebd 9bff bfbd
00000300: 5d29 203e 0535 87bd 021b 213e 3050 7cbd
00000310: 77e1 85bd f161 543d c04b 0fbc 03af babd
0.105032474 -0.17129673 0.027763069 0.16371115 -0.03569738 0.006900123 0.12477551 -0.06887842
-0.076351374 -0.056525424 -0.10477133 -0.13033913 0.04815462 0.07721229 -0.08007803 -0.0836438
-0.039176602 0.11101021 0.08123871 0.055603895 -0.030491479 0.14629082 -0.05923722 0.006929617
-0.067633055 -0.009537221 -0.004481023 0.07419497 0.20894043 0.15571073 0.10188047 0.14612843
0.08852593 0.21982102 -0.080894195 0.12175454 0.22446884 0.08931608 -0.15506662 0.18843648
-0.04712063 -0.073608175 -0.105502285 0.20848846 0.18272272 -0.07564838 0.044938017 -0.11676418
-0.1077726 -0.087508224 -0.10381817 0.0455973 -0.0077993236 0.053594366 -0.07034155 0.14923248
0.14011936 0.08705469 -0.03592265 -0.08177488 0.11564337 -0.08616042 -0.08564829 -0.06915818
0.20482105 -0.017106833 0.20568271 -0.09332675 0.14465448 -0.050169453 0.11763275 0.06097394
0.03462429 -0.13272546 0.0873813 0.034234457 0.04446645 -0.0074331057 0.08341766 -0.026277497
0.057131547 -0.02359285 0.22980502 -0.023720754 0.14603153 0.19982703 0.06746815 -0.08106887
0.19793196 -0.030070376 0.08765418 -0.010928019 0.13847242 -0.11889979 0.19641359 -0.05102571
-0.12305366 -0.023383679 -0.22372806 -0.093723975 -0.050415263 0.12120597 0.035686098 0.0059879534
0.11551524 0.015459681 -0.00046710257 -0.07934902 0.21886475 0.15240888 0.078847684 0.13751169
0.044161934 0.12104547 0.124260984 -0.07799199 0.15915716 -0.07789621 0.02938039 -0.10691598
-0.04081429 0.113732874 0.093723685 -0.08447914 0.17187952 0.052744266 0.18194816 0.118230864
0.07674372 -0.0975656 0.038810816 0.07153396 0.061619613 0.12217241 0.04409846 -0.11827464
0.050209895 0.2569491 0.087392144 0.05991195 -0.06746002 -0.106855676 -0.051516492 -0.011386844
-0.029366646 -0.046260744 0.14039683 0.040307716 -0.08722946 -0.059097826 0.09301462 0.088825256
-0.004104387 0.045434292 -0.11182883 0.01432285 0.0053176363 0.10803344 0.18788186 0.16261645
0.08543838 -0.1806941 -0.030118547 0.017081153 0.22560926 0.19830951 -0.016555315 0.1344827
-0.077138506 -0.10507447 0.08637646 0.030407334 -0.13147989 -0.042298134 -0.11888845 0.13062835
-0.118935525 0.044525124 0.23232152 -0.13725445 0.14887771 0.15695868 0.17320293 0.007953267
-0.13001056 0.20342351 -0.01714225 -0.03671266 0.0921287 0.022213882 -0.03483117 -0.09374925
0.15640779 -0.066019095 0.15732959 -0.06159991 -0.06537145 0.051851217 -0.008746088 -0.09115412

fc2.weight f4 [100, 200]
00000000: df96 e6bc b874 bdbd 0d55 e53d df04 703d
00000010: b803 323e e044 1e3e 5feb 333d 5111 41bd
00000020: dccb 96bd bdf4 663d b868 863d c6ff a6bd
00000030: e245 e9bc 8ab8 bc3b 7f32 b83c a024 b0bc
00000040: dd0d 1e3d 2270 813d 87e6 96bb b5a5 243e
00000050: 5e0a bd3d 2726 843d 1436 bcbc 00d6 4c3d
00000060: 57ac a8bd 1909 26bd 3937 783d 8cb9 0cbc
00000070: e1de ac3d c3b3 1f3e 8af7 e53d 32b5 bebd
00000080: e504 563d b90c 90bc bc6a 8fbb 5c49 97bd
00000090: b267 d33d f9f8 c33d 3552 253d 2717 7d3d
000000a0: 08dc 30bd 2b11 a6bc 39b7 823c 621a 023e
000000b0: 4943 423e 13e9 6f3d 4383 b3bc 421c 91bd
000000c0: 7182 a0bb 5b9f 8f3c c185 ba3c f4a2 063d
000000d0: d356 3d3d 4bbd c4bd 4511 643d d606 86bd
000000e0: b345 babd 89ba 313e 2822 e03d 3e1b a13d
000000f0: d790 a0bc 85c6 a1bd f155 aabc b30e a73d
00000100: 0b50 02bc dea1 31bd 7216 083e 426e b0bd
00000110: e3ba 3f3d 2167 37bd 5a2f 28bd 5779 2c3e
00000120: f846 cf3d 6c0b 7d3b b219 9a3d fc25 49ba
00000130: e7ce 34bd bb94 3a3d 06a1 113d d029 82bd
00000140: 7f21 b63d 85bf b3bc da78 bd3d 94ef 193e
00000150: c645 7e3d 8f80 103e bde4 16be 3848 b93d
00000160: d641 7ebd 40ff 173e 7308 8abc 0da3 34bc
00000170: 0a15 fe3c 2795 4d3d 198e 043e f068 a2bd
00000180: 56b0 bf3d d6e5 91bd afb3 9ebd d3f1 b1bc
00000190: 3a2c 473d fd30 903c b0e1 053d 08dc 82bd
000001a0: 4c59 813c 52ad 3e3d 93a9 f73d 94d4 4f3d
000001b0: 2cda 523e 4dbc 5f3d 3fb7 bc3c 54cc 933d
000001c0: 3817 3abd cfd4 a7bd 73f4 4c3d 2d1f e1bc
000001d0: eb98 debc 75fb 2dbc 99be d93d b7ad 0abe
000001e0: 5330 213e 9b27 83bb bcfd 05bd 8e0e c43c
000001f0: 03a3 a33b 0113 833d c3fc 97bd 2a68 cbbc
00000200: 2288 4fbd 1fa3 7d3d 8577 afbd d4ff 023d
00000210: c066 bf3d 3c45 ec3d 9a1e 963d 819d 783d
00000220: cf62 a3bc 602b 8a3c f63b 8b3d 7ce1 6bbb
00000230: 5992 133d ca6a 17bd 7b76 d8bd 47d2 a3bc
00000240: d2f8 833c 2de6 ca3d 0d82 84bd 2533 2ebc
00000250: 5ec0 833d 54b4 e439 ffa8 3e3e 4ef7 06bc
00000260: e48e 78bd ecda 38bd ff9f 39bd 5365 353e
00000270: e01e 893d d526 7fbd e358 6c3d 8126 18bd
00000280: 688a 00be 1aad 2dbd 5b4a 893d 8ae2 413d
00000290: 1d2b 4fbd f0bc 9a3d 20e1 ddbd 8161 9cbd
000002a0: 6ebd 8b3d 0f2b 22bc 9c35 6ebd d9b8 c1bd
000002b0: cf5f 8a3d ad91 62bc 6694 e5bc 559a 56bd
000002c0: a717 b83c 15e6 903b c7d0 b6bd c413 1abd
000002d0: 17b8 843d f43a fd3c 84c4 753d 69f7 0f3d
000002e0: ebe5 95bd 637d 58bd 835a a3bc c20f e53d
000002f0: 9cf8 883d ffe8 ecbb 8ec3 8bbd 5e64 9e3c
00000300: cd41 07bd e1ac 293d f8f3 063e 2dc0 a63d
00000310: 2a55 8b3d 7e90 2d3d 59a1 303d 9d58 9a3d
00000320: b16a c1bc ec45 8d3c 4370 9f3c 8503 0f3d
00000330: fed2 93bc 78e5 313c 688e bc3c a6e9 eebc
00000340: 32f3 623d 2480 d63d fb0b 163e 3b32 a7bd
00000350: 9d50 b6bd 62ba 03be 75da 2b3e 108f d13d
00000360: f97f 86bd 4c83 d63d ee3d 7f3d d126 90bd
00000370: a78b 143e e363 563c 6475 8cbb a01a 233e
00000380: f0f9 0dbd 35a0 8c3d 36c6 c83d 5219 713d
00000390: 08fc 1f3d 2d4e 273d 619e 0ebd 701f 81bd
000003a0: ff23 40bd 1df5 6e3c 0aab c13d 0fe8 903d
000003b0: c7bf f13d 599c 06bd 57a7 223d 80e0 243d
000003c0: faf6 33bd a770 4ebd 817d d63c 4e7b 593d
000003d0: 97cc 26bd 46f0 7dbd 66a0 673d 902d 36bd
000003e0: 6a99 11be b140 c83a d529 403e 1a9b f33d
000003f0: 9b30 853d ea8b ecbc 3541 483a ffe3 c83d
-0.028148113 -0.09250778 0.11197863 0.058598395 0.17384231 0.15455961 0.04392564 -0.047135655
-0.07363102 0.056385744 0.06562942 -0.08154254 -0.028475706 0.0057593035 0.022485016 -0.02150184
0.03858744 0.06320216 -0.0046051177 0.16078837 0.09230493 0.064525895 -0.022975005 0.050008774
-0.08235996 -0.04053602 0.06059954 -0.00858916 0.08440948 0.15595917 0.11228855 -0.09311904
0.05225076 -0.017584192 -0.0043767374 -0.07387039 0.10322513 0.09568972 0.0403616 0.061789658
-0.04317859 -0.020271858 0.015956508 0.12705377 0.1897098 0.058571886 -0.021913176 -0.07085468
-0.0048983623 0.017532041 0.022768857 0.032870248 0.04622538 -0.09606417 0.055680532 -0.065442726
-0.09095325 0.17356314 0.10944015 0.07866524 -0.019600315 -0.07899193 -0.020792933 0.081571005
-0.007953654 -0.04336726 0.13289812 -0.0861478 0.04680909 -0.044776086 -0.041060783 0.16843162
0.10120958 0.0038611544 0.07524432 -0.00076732016 -0.04414263 0.045551997 0.035553955 -0.06355631
0.088931076 -0.02194191 0.09251566 0.15032798 0.06207826 0.14111541 -0.14735694 0.09046978
-0.062074505 0.14843464 -0.016849732 -0.011025202 0.031015892 0.05019107 0.12944831 -0.079301715
0.09359805 -0.07123916 -0.07749116 -0.021721756 0.048626162 0.017601484 0.032685935 -0.06389624
0.01578965 0.04655201 0.120928906 0.05073984 0.20591038 0.054622937 0.023036597 0.07216707
-0.0454323 -0.08194887 0.050037812 -0.027480686 -0.027172526 -0.010619034 0.10632057 -0.1354283
0.1574109 -0.004002524 -0.032712683 0.023932721 0.0049937977 0.06400109 -0.07421257 -0.024829943
-0.050666936 0.061923143 -0.085677184 0.031982258 0.0934577 0.11536643 0.073300555 0.060697082
-0.019944577 0.016866386 0.06798546 -0.0035992553 0.03602824 -0.036967076 -0.10569473 -0.019997729
0.016109858 0.09907184 -0.06470118 -0.010632311 0.064331755 0.00043621904 0.18619154 -0.008237673
-0.060683146 -0.045130655 -0.0453186 0.17714433 0.06695342 -0.062292892 0.057701956 -0.037146095
-0.12552798 -0.04240141 0.06703635 0.047335185 -0.050578225 0.07555568 -0.10833955 -0.07635785
0.0682324 -0.009897961 -0.058156595 -0.09459085 0.06756555 -0.013828677 -0.028024863 -0.052393276
0.022472216 0.004421959 -0.0892654 -0.037616506 0.06480425 0.0309119 0.060001865 0.035148058
-0.07319244 -0.052853953 -0.01994062 0.11184646 0.066880435 -0.0072299237 -0.068244085 0.019334968
-0.033021737 0.041424636 0.13179004 0.08142123 0.06803353 0.042374127 0.043122623 0.07536433
-0.023610445 0.017245255 0.01946271 0.034915466 -0.018044945 0.010857932 0.023017123 -0.029164147
0.05540771 0.1047366 0.14653008 -0.081638776 -0.089020945 -0.12864068 0.16782553 0.10232365
-0.065673776 0.10474262 0.06231492 -0.07038654 0.14506398 0.013085338 -0.004286455 0.15928125
-0.034662187 0.068664946 0.09803431 0.058862038 0.039058715 0.04084604 -0.03481901 -0.06304824
-0.04690933 0.014584807 0.09456451 0.07075512 0.11804157 -0.03286395 0.03971037 0.040253162
-0.043936707 -0.050400402 0.026182892 0.05309611 -0.040722456 -0.06199672 0.056549452 -0.044477046
-0.14218679 0.0015278069 0.18765958 0.11894818 0.065034114 -0.02887531 0.0007639111 0.09809112

fc2.bias f4 [100]
00000000: 2ab9 193d ae56 583c 8227 813d 046e 243d
00000010: c490 9b3d 0543 bf3d 920c 0f3d 90a8 27bd
00000020: 3028 71ba 01a9 58bd e57d 05bd a317 063c
00000030: 982b ba3c 9555 e1bc e8eb 0bbd fc25 863d
00000040: 08c7 743d 32b5 6c3d eeec 753d f382 acbb
00000050: 3794 993d b45b 92bc ece4 36bc 66c0 113b
00000060: 6755 003c 2f82 823d 903a 00bc 7a7c 713c
00000070: 31e4 d83d c1cf fdbc 181d 6c3c 265c a33d
00000080: f981 5cbc 1903 ab3d b3df 803d fc9b 803d
00000090: 0896 7f3d c956 0b3e d7a5 2c3d 5aa9 f4bc
000000a0: dd48 62bc b1d8 22bd 0544 c8bc 4782 12ba
000000b0: b3b4 bf3d eb9d 983d 60fc 2c3d c0fa a73d
000000c0: c0fb 2f3c a7e5 32bd 695f a13c 229b 733d
000000d0: da35 d33d 4c7a 7a3d fc4c 0fbd abed 493c
000000e0: 5c44 b73d 8500 7d3d 25f8 823d 0959 6fbc
000000f0: 6e2c 823d de1e 0d3d e547 6dbd c4f6 093b
00000100: ae36 b6bc d921 873d 7874 a43c f70c 513c
00000110: 81cb d4bb bad4 e1bb ea1b d93b 3805 9a3d
00000120: 750c 843b 0b6b b23d 7534 87bc 69ce cb3d
00000130: 945d 47bc 7fe7 2e3d 121d 903d 58f9 20bc
00000140: e45d bf3d 77da be3d c480 fa3d 65fc afbd
00000150: 0219 353d d4c4 963c 6431 7e3c 3d93 2abc
00000160: d4d0 4c3c 3ad1 e63c f8a6 cb3d dc05 e93b
00000170: 782d f33c 71d8 f33c 2e5e 0dbd 0492 9dbc
00000180: 9313 93bb f58a 363d 872e 493d 0b94 363d
0.0375301 0.01320426 0.06306364 0.04014398 0.07595971 0.09338955 0.034924097 -0.040932238
-0.0009199409 -0.05289555 -0.032590766 0.008184346 0.022725865 -0.027506629 -0.034160525 0.06550214
0.059760123 0.05778999 0.060040407 -0.005264634 0.07498973 -0.017865993 -0.011162978 0.0022239923
0.0078328615 0.06372487 -0.007826462 0.01473915 0.10590399 -0.030982854 0.014411233 0.0797656
-0.013458722 0.083502 0.06292667 0.06279752 0.06239894 0.13607325 0.042150345 -0.02986591
-0.013811317 -0.039757434 -0.024446497 -0.0005588871 0.093606375 0.074519955 0.04223287 0.08202124
0.010741174 -0.043676045 0.019698815 0.059474118 0.10313006 0.061151788 -0.034985527 0.012324731
0.089485854 0.061768074 0.06394986 -0.01460863 0.063561305 0.034453265 -0.057929892 0.0021051625
-0.02224287 0.06598253 0.020075068 0.012759439 -0.006493986 -0.006891814 0.006625642 0.07520527
0.0040298053 0.08711823 -0.016504506 0.09951479 -0.012168307 0.04270124 0.07036795 -0.009825073
0.0934408 0.093190126 0.12231591 -0.08593062 0.044213302 0.018404402 0.015514705 -0.010411081
0.01250096 0.028175939 0.09943956 0.007111294 0.029684767 0.029766293 -0.034513645 -0.019234665
-0.0044884174 0.044566114 0.049116638 0.04457478

fc3.weight f4 [4, 100]
00000000: 30e7 9cbc e04d 673d 5258 cdbc 0cce 57bd
00000010: 1b26 5ebb b3d6 63bd b4e6 583d fe2f 523a
00000020: 6dfc 53bd e19e 6a3c e103 cebc 8053 c43b
00000030: b375 0e3d 66ef 05bc 63f4 bc3c 9413 02be
00000040: 93bb 863d e671 f93c 8627 043a 6dfa 873d
00000050: 5172 75bd b5a4 fcbd 40ee 4a3d a1f8 00bd
00000060: 7993 cabc afa4 693c 82de 94bd 74ff 80bd
00000070: 2032 693d 7bb1 593d 9cd1 cbbd 7611 92bd
00000080: 59c4 ffbd d37e 473d 286d a73d 0066 be3d
00000090: 5c51 b4bd ffaa 23bd f2f0 513d 696e a83d
000000a0: f62c 3dbd bb38 08bd 43e6 803d 66d7 7a3d
000000b0: 9599 afbd 95b7 5bbd 97b2 2e3d 1264 0e3c
000000c0: fa3b 42bd cabe e03c c1fa fbba a74f 0dbd
000000d0: 76ea 933c 1a97 613d 9c64 3dbd 71f5 37bd
000000e0: fb3a 8d3d efd3 ffbd 9113 af3d a775 d5bd
000000f0: 8fbb 223d 14ff 693d 4e4d 903b e684 b1bd
00000100: 091b ba3d 03a2 943d 8825 8dbd 5bb0 33bd
00000110: 9ae3 f2bd 01fa 05be e8b0 1e3d 76fd 493d
00000120: 1378 3d3c 5431 973d c44d 9a3b 356f 9d3d
00000130: 6a13 773d 6184 b0bd 4d8b 903c 4f84 88bd
00000140: 9993 f6bd cd5d 623d ee18 74bd 43d4 d1bb
00000150: f177 4dbc d519 b53d 28cf 2e3e e828 8e3d
00000160: 4754 fb3c f3ac c13d bc29 98bd 4ef8 4fbd
00000170: 693a 443d 1f44 ee3c f1d6 86bd 51bc af3b
00000180: 568f 97bd 9aaf 54bd 738e 24bd ef56 0e3b
00000190: e7de 4bbd 05d3 70bd fb53 00bd a97c 31bd
000001a0: 6f81 afbd 2d18 04bd 74c2 abbd 09c0 70bd
000001b0: 1392 9abd 56d9 6fbd ea2c 59bd b2c2 50bd
000001c0: 390c 90bd 2188 7cbd 9434 3fbd a751 09bd
000001d0: aa5a 89bd b410 75bd c95a 87bd d4ae 4abd
000001e0: 7a96 65bd 825b f2bc c1b0 56bd 3883 41bd
000001f0: 5755 37bd dfc0 67bd b364 84bd 5f86 78bd
00000200: 5ff8 a5bd 9e16 7ebd a1c9 86bd 0975 31bd
00000210: ac80 44bd f223 6fbd 60c8 5dbd 69e6 55bd
00000220: 2baa 46bd 5858 d5bc 6562 71bd 4db7 81bd
00000230: 6ef6 6ebd a5e8 6ebd 8e59 90bd 092b 6ebd
00000240: a709 99bc 5508 56bd b047 48bd 3536 6bbd
00000250: 8250 babc 924f 5bbd 410d 8cbd 20c5 87bd
00000260: ab2d 8bbd fffd 8bbd fc55 2fbd 4893 c1bc
00000270: c610 60bd 32bb 1abd 5985 23bd ec66 14bd
00000280: 2482 61bd 96a9 77bd f18c 60bd d9e7 fcbc
00000290: 27b4 60bd 710c 15bd 8933 09bd d0e2 1fbd
000002a0: 33c2 29bd 3169 5ebd d72e b7bd 9f7d 97bd
000002b0: 99f2 6bbd 7386 79bd 6066 8cbd faac 97bd
000002c0: e2ec 85bd a0df 3bbd f8d5 a8bd a6b6 2abd
000002d0: 0a1d 66bd 8ca9 cfbc 99cd 15bd e06d 1bbd
000002e0: 0b10 1dbd 26ec 9cbd 8887 89bd 7615 7bbd
000002f0: 3e41 81bd c1f0 9bbd 2472 c3bc a491 61bd
00000300: 4903 cebd c6bd 82bd ea73 29bd a41d 93bd
00000310: 6dc7 00bd a614 abbc 5423 ebbc ac84 05bd
00000320: 840e 063d 62c8 883d 94c7 e63c 858e 013a
00000330: b3ec 59bc 6bf8 4bbd 767c d0b9 e8fd 84bd
00000340: a31c 28bd 04c9 93bd 67b5 04be 225d b73c
00000350: daef debb 0988 b3bd d700 b2bd 26b6 203c
00000360: 4ba6 123d 7c5a 09bd b520 babd 937f 933c
00000370: fef2 8dbd 9ed1 27bd 7569 e53c 4160 71b9
00000380: 648f d8bc 2921 4c3a 95aa 4a3d f2d8 66bc
00000390: 3766 943d 746e 5c3d ebbe 0abd a314 acbd
000003a0: a801 35bd 9c66 473d 3cd9 373d de73 5e3d
000003b0: 2342 31be 4584 1c3e 742b b23c a120 a53c
000003c0: 44f3 16bd 8ddd 5fbd 3056 733d 150a aa3c
000003d0: 64f5 35bd eb58 e8bd 49ee 61bd 278c 5ebd
000003e0: 9d90 fd3c d9e3 56bd 34a0 5dbd 12af 22bd
000003f0: eb80 e63c 562c f53c 3b4a 24be ac6a aebd
-0.019153208 0.05647075 -0.025066528 -0.052686736 -0.0033897224 -0.055624675 0.05295439 0.00080180157
-0.051754404 0.014320106 -0.025148334 0.0059913993 0.034780215 -0.008174753 0.023065751 -0.12702781
0.06578746 0.030449819 0.000504129 0.06639562 -0.059923474 -0.12336103 0.04954362 -0.03148711
-0.024728524 0.014260455 -0.072690025 -0.06298724 0.05693257 0.053147774 -0.09952089 -0.07132237
-0.12488622 0.048704933 0.08175117 0.09296799 -0.088045806 -0.039957996 0.051255174 0.08224184
-0.046185456 -0.033257227 0.06293919 0.061240576 -0.08574215 -0.053641874 0.042650785 0.008690851
-0.04742048 0.027434725 -0.0019224511 -0.03449979 0.018056136 0.055075742 -0.046238527 -0.044911806
0.06896015 -0.12491595 0.08548654 -0.10422831 0.03972965 0.057128027 0.0044037467 -0.086679265
0.09087188 0.07257464 -0.06891924 -0.043869358 -0.11859818 -0.1308365 0.03874293 0.049313985
0.011564272 0.073824555 0.0047089774 0.07687227 0.06032125 -0.08618999 0.017644549 -0.06665861
-0.12039871 0.055265237 -0.059594087 -0.0064034774 -0.012540803 0.08842818 0.17071211 0.06941396
0.030679835 0.094568156 -0.07429835 -0.05077391 0.047907267 0.029085217 -0.065839656 0.0053630252
-0.07400386 -0.05192528 -0.040174913 0.0021719297 -0.049773123 -0.058794994 -0.03133009 -0.043331776
-0.085696094 -0.03224962 -0.08386698 -0.05877689 -0.07547393 -0.058556877 -0.05302135 -0.050966926
-0.07033581 -0.06165326 -0.046681 -0.033525135 -0.06706746 -0.059830382 -0.06609113 -0.049483135
-0.05605171 -0.02958465 -0.05241466 -0.04724428 -0.04475912 -0.05658042 -0.06464519 -0.06067502
-0.08104014 -0.06203329 -0.065814264 -0.043324504 -0.047974274 -0.05838389 -0.05414617 -0.05222169
-0.04850213 -0.026043102 -0.058931727 -0.0633379 -0.058340482 -0.058327336 -0.07048331 -0.05814651
-0.01868136 -0.05225404 -0.04889649 -0.057424743 -0.022743467 -0.05354268 -0.068384655 -0.066293955
-0.0679582 -0.06835555 -0.04280661 -0.0236298 -0.054703496 -0.03777618 -0.039922092 -0.036230966
-0.055055752 -0.060464464 -0.054821912 -0.030872272 -0.054859307 -0.03638882 -0.033496413 -0.039034665
-0.04144497 -0.054299537 -0.08944481 -0.07397007 -0.057604406 -0.060919236 -0.06855464 -0.074060395
-0.065393224 -0.045867562 -0.08243936 -0.041678093 -0.056180038 -0.025349401 -0.036573026 -0.03794658
-0.038345378 -0.07662229 -0.06715304 -0.061299764 -0.06311272 -0.076142795 -0.023858137 -0.055070534
-0.1005922 -0.06383853 -0.04137031 -0.07183388 -0.031440187 -0.02088387 -0.02870337 -0.03259723
0.032728687 0.06678845 0.028171338 0.00049421965 -0.013301062 -0.049797457 -0.00039765582 -0.06493741
-0.041042935 -0.07216075 -0.12959825 0.022383276 -0.006803495 -0.08766181 -0.086915664 0.009809053
0.03580312 -0.03353356 -0.090882696 0.018005168 -0.06931113 -0.04097139 0.028004387 -0.00023019408
-0.026435561 0.00077869237 0.049479086 -0.01408981 0.072460584 0.053816274 -0.03387348 -0.08402374
-0.044191033 0.04868184 0.044884905 0.05430972 -0.17310385 0.15284832 0.021749236 0.02015716
-0.03685309 -0.054654647 0.059408367 0.02075676 -0.044423476 -0.11345085 -0.055158887 -0.05433288
0.030952746 -0.052463386 -0.05410786 -0.03971774 0.028137645 0.029928368 -0.16043942 -0.0851644

fc3.bias f4 [4]
00000000: 51ab d8bc 3e9f 05be 5a8e 663d 1dda bdbc
-0.026448878 -0.13049027 0.0562881 -0.023175294
