checkpoint_actor.pth (torch_old, 110225 bytes, 6 tensors)

fc1.weight f4 [200, 33]
0	0x3d7e7ca7	0.062130596
1	0xbc0a3a65	-0.008436774
2	0x3da25cde	0.07927869
3	0x3ba38a23	0.0049908324
4	0x3d178689	0.036993537
5	0xbe72b86c	-0.23703164
6	0x3c91f65e	0.017817672
7	0x3d89c58d	0.06727133
8	0x3b80ec35	0.003934408
9	0x3ccb9959	0.024853395
10	0x3b5ceb80	0.0033709705
11	0xbdb4d256	-0.08829181
12	0xbd5436be	-0.05181002
13	0xbd101098	-0.035172075
14	0x3d2e0204	0.04248239
15	0x3dc8e02f	0.098083846
16	0xbd1ced1d	-0.038312066
17	0xbd1aeaa5	-0.03782143
18	0x3d3ec22e	0.046571903
19	0x3b90ea3c	0.004422454
20	0xbbeb4963	-0.0071803792
21	0xbd09d0fe	-0.033646576
22	0xbcd4a5e7	-0.025958015
23	0xbde132cc	-0.10996017
24	0xbdfacf68	-0.12246591
25	0xbdb61f1a	-0.08892651
26	0xbbb5531b	-0.0055335886
27	0xbcdb2f0f	-0.026755838
28	0x3dfbbbd2	0.12291683
29	0xbd3f8882	-0.046761043
30	0x3d81236b	0.063055836
31	0x3aaf50c0	0.0013375506
32	0x3e1697fc	0.14706415
33	0xbd85aea0	-0.06527448
34	0xbc99bc69	-0.018766599
35	0x3d068d72	0.032849737
36	0x3c01810f	0.007904305
37	0x3cbf474d	0.023349429
38	0x3d68105a	0.05665622
39	0x3dd46c68	0.10372239
40	0xbd5bf913	-0.053704333
41	0x3dbfca25	0.09364728
42	0xbd74deae	-0.059782676
43	0xbc338e26	-0.010959184
44	0xbc0bc479	-0.008530729
45	0x3d2e666e	0.042578153
46	0xbdb9091b	-0.0903494
47	0x3ce5812f	0.028015701
48	0x3d433e68	0.047666937
49	0xbc7a499c	-0.015276339
50	0xbd43d8fa	-0.047814347
51	0xbcce0c7a	-0.025152434
52	0xbd4c0ff4	-0.0498199
53	0xbd169e2a	-0.03677193
54	0x3d9fdb9f	0.07805561
55	0xbc4482fd	-0.011994121
56	0xbda566a6	-0.08076219
57	0xb924192b	-0.00015649635
58	0x3dd6d5d4	0.10490003
59	0x3d9c17e8	0.07621747
60	0x3dad9fbc	0.084777325
61	0xbcc37ac1	-0.023862245
62	0xbce2ba68	-0.027676776
63	0x3cfd5869	0.030925946
64	0xbcd1ed60	-0.025625885
65	0xbd866e6e	-0.065640315
66	0xbac52b4d	-0.0015042812
67	0x3d4eb628	0.050466686
68	0x3dfdc4b7	0.12391036
69	0x3d1cb33a	0.03825686
70	0x3d277fce	0.04089337
71	0xbd49b843	-0.04924799
72	0x3d9af199	0.07565612
73	0x3c7b3c7a	0.015334243
74	0x3d85a64e	0.06525861
75	0x3ca5aa2d	0.020222748
76	0x3d72b89a	0.05925808
77	0x3d3e90c5	0.04652478
78	0xbdcc5e38	-0.09978908
79	0xbd6e0e45	-0.058119077
80	0xbd8b0de3	-0.06789758
81	0x3e0f0f64	0.13970715
82	0x3d9021a6	0.07037668
83	0x3b451d09	0.003007712
84	0xbda8f4c4	-0.0824981
85	0xbd40df9c	-0.04708825
86	0x3d3a536b	0.04548971
87	0xbcc185d6	-0.023623388
88	0xbd0904ff	-0.03345203
89	0x3d2ec3ea	0.042667307
90	0xbd489ff3	-0.048980664
91	0x3d45d935	0.048302848
92	0xbc22407c	-0.00990307
93	0xbd608f14	-0.05482395
94	0xbc38d6ab	-0.01128165
95	0xbd8e01ed	-0.06933961
96	0x3d5ac7e4	0.053413287
97	0xbd57e0cc	-0.052704617
98	0x3ddddbe7	0.10832959
99	0x3d115650	0.035482705
100	0xbe1b3b49	-0.15159334
101	0xbcc772ad	-0.024346674
102	0x3e2fd9dc	0.1717295
103	0xbda2209b	-0.07916375
104	0xbcb6243a	-0.022234071
105	0xbd9bc4de	-0.07605909
106	0xbdb020bf	-0.08599996
107	0x3bc69ef9	0.0060614315
108	0xbdc98879	-0.09840483
109	0x3d3ae7be	0.045631163
110	0xbd2ac066	-0.04168739
111	0xbc982dde	-0.018576559
112	0x3cf6fea5	0.03015072
113	0xbdd6052a	-0.10450204
114	0xbdad2331	-0.08453978
115	0xbc0649a0	-0.0081962645
116	0x3db82c71	0.089928515
117	0xbbb8b156	-0.0056363745
118	0x3d490f7f	0.049087044
119	0xbdbf15de	-0.09330343
120	0x3c0a47fc	0.008440014
121	0xbc405690	-0.011739388
122	0xbcfd0653	-0.030886805
123	0xbd8eed5c	-0.069788665
124	0xbd0b1f1a	-0.033965208
125	0xbd041eba	-0.032255866
126	0xbd349c59	-0.044094417
127	0xbdfc4d3c	-0.12319419
128	0xbca619f0	-0.02027604
129	0x3d57e411	0.052707735
130	0xba61ea00	-0.00086179376
131	0xbe777d3f	-0.24168871
132	0xbdc424c2	-0.095773235
133	0x3d34223d	0.043977965
134	0xbd8965eb	-0.067088924
135	0x3c4c1d1a	0.01245811
136	0xbe010189	-0.12598242
137	0xbd99a6a1	-0.07502485
138	0xbd8356d3	-0.06413045
139	0x3b8041c1	0.0039140885
140	0x3d3c7dc3	0.046018373
141	0xbd71ae1a	-0.059003927
142	0x3cacbf9a	0.021087456
143	0x3dbcd6d3	0.09220662
144	0x3c2edd4c	0.0106728785
145	0xbcda5b8b	-0.02665498
146	0x3e1669ab	0.14688747
147	0xbd40039d	-0.046878446
148	0xbd3f0f88	-0.04664567
149	0xbde278aa	-0.11058171
150	0xbd0c89ac	-0.03431098
151	0x3d8f51db	0.069980346
152	0x3c1725b5	0.009225299
153	0x3b7aad9a	0.0038250447
154	0xbdb0f743	-0.086409114
155	0xbd5b2902	-0.053505905
156	0x3d1c638e	0.03818088
157	0xbdae408e	-0.085084066
158	0x3ca0a475	0.01960967
159	0xbd413dee	-0.0471782
160	0xbabbff74	-0.0014343099
161	0x3d786af6	0.06064888
162	0x3d62210e	0.055207305
163	0xbc9cd902	-0.019146446
164	0x3dfba6c1	0.12287665
165	0x3e11c395	0.14234765
166	0x3cc56dff	0.024100302
167	0x3dbfc0ab	0.093629204
168	0x3cf6cf47	0.030128134
169	0xbe5ae079	-0.21374692
170	0xbd998e6f	-0.0749787
171	0xbc1010f0	-0.008793101
172	0xbd8723b7	-0.06598609
173	0x3bdbad84	0.0067040343
174	0x3a974ce8	0.0011543306
175	0xbc4cd71c	-0.012502458
176	0xbd0339a9	-0.03203741
177	0x3d38a3c4	0.045078054
178	0x3d89bfed	0.0672606
179	0x3d447d49	0.047971044
180	0x3e11cb22	0.14237645
181	0xbe0f1939	-0.13974465
182	0xbd41f2fe	-0.047350876
183	0x3d48d499	0.049030874
184	0x3dce1500	0.10062599
185	0xbd797133	-0.06089897
186	0xbd3a36af	-0.045462307
187	0xbd40464b	-0.046942037
188	0x3b5af4aa	0.0033409991
189	0x3ca04fee	0.019569363
190	0x3c436be0	0.011927575
191	0x3d54954c	0.051900193
192	0xbcb68e73	-0.022284722
193	0xbd59f9b2	-0.053216644
194	0xbd89406a	-0.06701739
195	0x3c6efc12	0.014586465
196	0x3d08b63c	0.033376917
197	0xbcdce9c8	-0.026966944
198	0xbdac2eb9	-0.08407349
199	0xbc910b5e	-0.017705616
200	0x3de52851	0.1118933
201	0x3d07e4c5	0.033177156
202	0xbdce3374	-0.10068408
203	0xbd543a48	-0.051813394
204	0xbd99ed13	-0.075159214
205	0x3dac0668	0.083996594
206	0x3e13e413	0.14442472
207	0xbd290109	-0.041260753
208	0x3b72a21a	0.003702289
209	0x3de2a7ac	0.11067137
210	0xbd07c4e6	-0.03314676
211	0x3cade9c0	0.021229625
212	0xbc4bb6b3	-0.012433696
213	0xbd6f0835	-0.058357436
214	0x3da2f794	0.07957378
215	0xbd611cbc	-0.054959044
216	0xbbf19a91	-0.007373162
217	0x3e008542	0.12550834
218	0xbc6fbd2b	-0.0146325035
219	0xbd858896	-0.06520192
220	0xbc719dea	-0.014747122
221	0x398c5590	0.0002676663
222	0xbd512924	-0.051064625
223	0x3c239f9c	0.009986784
224	0xbcee04a4	-0.029054947
225	0xbdd0c646	-0.10194068
226	0xbd80e14d	-0.06292973
227	0x3cbfb180	0.023400068
228	0x3cec805a	0.028869797
229	0x3d68bbda	0.056819774
230	0x3c12b171	0.008953438
231	0xbd23e09e	-0.040009134
232	0xbd6968ac	-0.05698459
233	0xbd19bad3	-0.037531685
234	0x3b3ca893	0.0028787002
235	0xbbab69c5	-0.0052311146
236	0xbdcdcb83	-0.100485824
237	0x3d14c73b	0.036322813
238	0x3d885fd6	0.06658904
239	0xbcd6e2ee	-0.026231255
240	0x3d13ed45	0.03611495
241	0xbbfc8458	-0.0077062063
242	0xbd55af8c	-0.052169368
243	0x3e084c3b	0.1331033
244	0xbd99b625	-0.075054444
245	0xbc9c06d6	-0.019046228
246	0x3cff2916	0.031147521
247	0xbe13e958	-0.14444482
248	0x3d22c419	0.039737795
249	0x3d4da22e	0.050203495
250	0x3d7731aa	0.060350098
251	0xbd53706f	-0.051620897
252	0x3ba34ad9	0.004983288
253	0xbcb21fd2	-0.021743689
254	0xbd23bb36	-0.03997346
255	0xbbc81f42	-0.006107242

fc1.bias f4 [200]
0	0x3ddf720a	0.10910423
1	0xbe2c5608	-0.16829693
2	0x3d0688ae	0.03284519
3	0x3e245b70	0.16050506
4	0xbce81a5d	-0.028332883
5	0x3bb1462b	0.005409976
6	0x3e07c554	0.13258868
7	0xbd818688	-0.06324488
8	0xbd948581	-0.07252026
9	0xbd8d76b8	-0.069074094
10	0xbde15a22	-0.110035196
11	0xbe0ae635	-0.1356438
12	0x3d347c7b	0.044064026
13	0x3dae3d6e	0.085078105
14	0xbdab778a	-0.0837241
15	0xbdd5770c	-0.10423097
16	0xbd0ab4ca	-0.03386382
17	0x3df3f73c	0.119123906
18	0x3d9d3348	0.07675797
19	0x3d685244	0.05671908
20	0xbd222957	-0.039590206
21	0x3e164c5f	0.14677571
22	0xbd82878c	-0.0637351
23	0x3c15434b	0.009110282
24	0xbd8685e0	-0.065685034
25	0xbc5f6b7a	-0.013636464
26	0xbc8ed81f	-0.017437039
27	0x3da49ece	0.08038102
28	0x3e51da80	0.20493507
29	0x3e236c48	0.15959275
30	0x3dcc263e	0.099682316
31	0x3e229b43	0.1587954
32	0x3dc67ebc	0.096921414
33	0x3e5de1e3	0.216682
34	0xbd92b730	-0.071638465
35	0x3e051ba3	0.12998824
36	0x3e6aa81e	0.22915694
37	0x3daa7646	0.0832334
38	0xbe21addb	-0.15788977
39	0x3e3eb0e0	0.1862216
40	0xbd7efe79	-0.062254403
41	0xbd8a2d35	-0.06746904
42	0xbdcc3711	-0.099714406
43	0x3e5d8285	0.2163182
44	0x3e44d926	0.1922346
45	0xbda451bc	-0.08023402
46	0x3d18e0dc	0.037323818
47	0xbdddcd9b	-0.10830232
48	0xbdd9b50a	-0.106302336
49	0xbdb92460	-0.09040141
50	0xbdd654b7	-0.10465377
51	0x3d272d84	0.04081489
52	0xbc7cbf99	-0.01542654
53	0x3d749f65	0.059722323
54	0xbd953ff5	-0.072875895
55	0x3e19c4f9	0.15016545
56	0x3e0b366d	0.1359498
57	0x3db67078	0.089081705
58	0xbd0ccf0b	-0.03437714
59	0xbdb77831	-0.089584716
60	0x3de5dc94	0.112237126
61	0xbdcbb9c6	-0.09947543
62	0xbda7ca10	-0.08192837
63	0xbd90a3a9	-0.07062466
64	0x3e45bb8b	0.19309823
65	0xbc219df4	-0.009864319
66	0x3e53a16b	0.20667045
67	0xbda05321	-0.078283556
68	0x3e1b2891	0.15152194
69	0xbd6de991	-0.058084074
70	0x3de9bb59	0.11412687
71	0x3d86edb9	0.06588311
72	0x3cfc2fd8	0.030784532
73	0xbe069e4c	-0.13146323
74	0x3da9a4ab	0.08283361
75	0x3d36a420	0.044590116
76	0x3d615fbe	0.055022947
77	0xbc18437d	-0.009293434
78	0x3dace15b	0.08441421
79	0xbc8436da	-0.016139437
80	0x3d9259a5	0.071460046
81	0xbcd0bddb	-0.025481155
82	0x3e6a2d34	0.22868806
83	0xbcba5c3c	-0.022749059
84	0x3e1523e8	0.14564478
85	0x3e511128	0.20416701
86	0x3d3ed5d8	0.046590656
87	0xbdb427a9	-0.08796627
88	0x3e4c1d73	0.19933109
89	0xbd1ee77a	-0.038794972
90	0x3dc4efef	0.09616076
91	0x3b7c423d	0.003849163
92	0x3e0b9815	0.13632233
93	0xbdf4519e	-0.1192963
94	0x3e51f9d0	0.20505452
95	0xbd240474	-0.04004331
96	0xbde985d7	-0.11402481
97	0xbd0e06c3	-0.034674417
98	0xbe580505	-0.21095665
99	0xbdbd6e7f	-0.09249591
100	0xbd8c0a29	-0.068378754
101	0x3e020a74	0.126993
102	0x3d16c110	0.036805212
103	0xba172621	-0.00057658745
104	0x3dec3abf	0.115346424
105	0x3c9c3020	0.019065917
106	0xbb841433	-0.0040307282
107	0xbda68096	-0.081299946
108	0x3e666ae3	0.22501712
109	0x3e20c229	0.15699066
110	0x3da563b5	0.08075658
111	0x3e0cb2c7	0.13740073
112	0x3d273cb3	0.04082937
113	0x3dfca555	0.12336222
114	0x3dfa9800	0.12236023
115	0xbdd61b96	-0.1045448
116	0x3e28dcd5	0.1649049
117	0xbdb5eb6d	-0.088827945
118	0x3cb404f4	0.021975018
119	0xbdf0436e	-0.11731611
120	0xbd2ee9ca	-0.042703427
121	0x3dc0a656	0.09406726
122	0x3dbcd2c5	0.092198886
123	0xbdab1cd9	-0.08355112
124	0x3e2bc620	0.16774797
125	0x3d406899	0.046974752
126	0x3e38dae1	0.18052246
127	0x3df3adad	0.118983604
128	0x3da2c3fa	0.07947536
129	0xbde1ad74	-0.11019412
130	0x3d0a6bf0	0.033794343
131	0x3da00897	0.078141384
132	0x3d838f1b	0.064237796
133	0x3df99bc2	0.121879116
134	0x3d205d92	0.039151736
135	0xbdfdf23a	-0.12399717
136	0x3d311c4f	0.043239888
137	0x3e8348ce	0.25641483
138	0x3da179ac	0.07884535
139	0x3d55315f	0.052049037
140	0xbd884e41	-0.06655551
141	0xbddee0db	-0.108827315
142	0xbd4440ff	-0.047913548
143	0xbcadef20	-0.021232188
144	0xbcf6bead	-0.030120218
145	0xbd43d8ff	-0.047814365
146	0x3e142e84	0.1447087
147	0x3d202b35	0.039103705
148	0xbda35add	-0.07976315
149	0xbd6ec531	-0.058293525
150	0x3dc21ea2	0.09478499
151	0x3dc3abb8	0.09554237
152	0x3b81d4c5	0.0039621317
153	0x3d211336	0.03932496
154	0xbdd9ebc4	-0.10640672
155	0x3c474073	0.012161362
156	0xbb72ad3b	-0.0037029523
157	0x3de936ce	0.11387406
158	0x3e43c4ec	0.19118088
159	0x3e2f4ae9	0.1711842
160	0x3db41acd	0.08794174
161	0xbe3e235b	-0.18568175
162	0xbcdbebd8	-0.026845858
163	0x3cc43ff5	0.023956278
164	0x3e640529	0.22267593
165	0x3e4701d4	0.19434291
166	0xbc86e9ac	-0.016468845
167	0x3dfab9ab	0.122424446
168	0xbda8b10b	-0.08236893
169	0xbdd989d7	-0.10621994
170	0x3da0ef99	0.078581996
171	0x3d1635af	0.03667229
172	0xbe0a1d37	-0.13487707
173	0xbd1c6c2e	-0.038189106
174	0xbdfe6c08	-0.12422949
175	0x3e018a87	0.126505
176	0xbdf78ad9	-0.1208703
177	0x3d4a6c01	0.049419407
178	0x3e6e28d1	0.23257758
179	0xbe08db7d	-0.13364978
180	0x3e1536f5	0.14571746
181	0x3e203fb8	0.15649307
182	0x3e2ff60f	0.17183708
183	0x3b68245f	0.003542207
184	0xbe04d155	-0.12970479
185	0x3e55b939	0.20871438
186	0xbd0371ba	-0.03209088
187	0xbd2bab04	-0.04191114
188	0x3da9c0d5	0.08288733
189	0x3cd0496c	0.025425635
190	0xbcb44120	-0.02200371
191	0xbdc614b7	-0.0967192
192	0x3e1d544d	0.1536419
193	0xbd8f77d6	-0.07005279
194	0x3e2136be	0.15743539
195	0xbd7a5fd6	-0.061126553
196	0xbd8e79de	-0.06956838
197	0x3d7bf2cb	0.061510842
198	0xbbbf1e31	-0.0058324565
199	0xbdb39589	-0.08768756

fc2.weight f4 [100, 200]
0	0xbd084d1a	-0.033276655
1	0xbdb18137	-0.08667224
2	0x3dd94bef	0.10610186
3	0x3d6e2705	0.05814268
4	0x3e25f8d3	0.162082
5	0x3e179fce	0.14807054
6	0x3d2f6b18	0.042826742
7	0xbd641d7c	-0.05569218
8	0xbd827eb6	-0.063718244
9	0x3d84091c	0.0644705
10	0x3d86e36c	0.06586346
11	0xbda26394	-0.07929149
12	0xbd248313	-0.040164065
13	0xbaefba8a	-0.0018289846
14	0x3ca4d2c2	0.020120028
15	0xbc8b6cf8	-0.017019734
16	0x3d198a99	0.037485693
17	0x3d758244	0.059938684
18	0xbc83a966	-0.016071986
19	0x3e18338b	0.14863412
20	0x3db17f00	0.086668015
21	0x3d48a25f	0.048982974
22	0xbc9e9748	-0.019359246
23	0x3d8066df	0.06269621
24	0xbda1f275	-0.07907573
25	0xbd560995	-0.052255232
26	0x3d79e22f	0.06100672
27	0xbcca1254	-0.024666943
28	0x3daad2bb	0.08340975
29	0x3e26a3b0	0.1627338
30	0x3dc926cd	0.09821854
31	0xbdcf972b	-0.10136255
32	0x3d402814	0.04691322
33	0xbc128b33	-0.0089443205
34	0xbc683f18	-0.014175199
35	0xbdabd0ed	-0.08389459
36	0x3dd3ebdb	0.1034772
37	0x3dbfc51e	0.09363769
38	0x3ccfa9fb	0.025349608
39	0x3d8c0908	0.0683766
40	0xbd20a49c	-0.039219484
41	0xbcab5327	-0.020913674
42	0x3cbbb70a	0.022914428
43	0x3e06ba01	0.13156892
44	0x3e423b61	0.18967964
45	0x3d581f12	0.052764006
46	0xbc9e8119	-0.019348668
47	0xbdb22413	-0.08698287
48	0xbc2862e5	-0.010277485
49	0x3c9b057e	0.018923517
50	0x3cc7f50d	0.024408842
51	0x3d0e1424	0.034687176
52	0x3d3bd73b	0.045859557
53	0xbdbdc6f4	-0.09266463
54	0x3d5425f0	0.051793993
55	0xbd6d01a2	-0.057862885
56	0xbdb255d3	-0.08707776
57	0x3e3b8d61	0.1831565
58	0x3df08724	0.11744526
59	0x3d861373	0.065466784
60	0xbca575f0	-0.020197839
61	0xbd90e3d2	-0.07074703
62	0xbcec3fcf	-0.02883902
63	0x3d9f88c8	0.07789761
64	0xbc039863	-0.008031937
65	0xbd31dad3	-0.043421578
66	0x3e073354	0.13203174
67	0xbdba3317	-0.09091776
68	0x3d31574e	0.04329615
69	0xbd476c98	-0.048687547
70	0xbd422ddc	-0.047407016
71	0x3e252089	0.16125692
72	0x3dc747c7	0.09730487
73	0xbb2dddea	-0.0026529976
74	0x3d6be01f	0.057586785
75	0xbc00b5fc	-0.007855888
76	0xbd4072d2	-0.0469845
77	0x3d4b8de4	0.049695864
78	0x3cf1c82f	0.0295144
79	0xbda0fc2b	-0.07860597
80	0x3d9f86b7	0.07789367
81	0xbc887c92	-0.016660962
82	0x3dbc994d	0.09208927
83	0x3e1c7ab7	0.15281187
84	0x3d549b7f	0.051906105
85	0x3ded8733	0.11598053
86	0xbe0c240b	-0.13685624
87	0x3dc2c731	0.09510649
88	0xbd5e0281	-0.054201607
89	0x3e040b17	0.12894855
90	0xbcfa6144	-0.030563958
91	0xbccf9a8b	-0.025342247
92	0x3cc25fc8	0.023727313
93	0x3d268716	0.04065617
94	0x3e09f737	0.13473211
95	0xbdb867cc	-0.09004173
96	0x3d99e8e1	0.07515121
97	0xbd9879a4	-0.07445076
98	0xbda4953b	-0.08036276
99	0xbd0963ac	-0.03354232
100	0x3d3d2fd4	0.04618819
101	0x3c9ec5f3	0.019381499
102	0x3d195d12	0.037442274
103	0xbd648227	-0.055788185
104	0x3c749e75	0.014930357
105	0x3d622a42	0.05521608
106	0x3de5d207	0.112217
107	0x3d521a52	0.051294632
108	0x3e533038	0.20623863
109	0x3d63f61b	0.055654626
110	0x3c934460	0.01797694
111	0x3d8ecbb6	0.069724485
112	0xbd620b70	-0.05518669
113	0xbda3ccc6	-0.07998042
114	0x3d5eccec	0.054394647
115	0xba6f8648	-0.0009137136
116	0xbd13ad46	-0.03605392
117	0xbc36dc3c	-0.011160906
118	0x3ddf28ea	0.108964756
119	0xbe02acc2	-0.12761214
120	0x3e1c1195	0.15241082
121	0x3c82b0e6	0.015953492
122	0xbd315e54	-0.04330285
123	0x3c861236	0.016366106
124	0x3b96e999	0.0046054837
125	0x3d908179	0.07055945
126	0xbda1c122	-0.07898165
127	0xbce03468	-0.02736874
128	0xbd358cd6	-0.044323765
129	0x3d6bba65	0.057550807
130	0xbd9db1e9	-0.07699949
131	0x3cf80cce	0.030279543
132	0x3dcab573	0.0989789
133	0x3dde5920	0.10856843
134	0x3d8d3681	0.068951614
135	0x3d811334	0.06302491
136	0xbac43517	-0.0014969435
137	0x3cac595b	0.021038702
138	0x3d7a90df	0.061173316
139	0xba608871	-0.0008565253
140	0x3cb1eae1	0.021718444
141	0xbd1d703a	-0.038437106
142	0xbdf3d18d	-0.11905203
143	0xbc1ac0d8	-0.009445392
144	0x3ca8a5a8	0.020586804
145	0x3dcba9d7	0.09944504
146	0xbd6b8ed6	-0.057509266
147	0xbc3091d1	-0.010776953
148	0x3d93dec0	0.072202206
149	0x3b608950	0.0034261532
150	0x3e38766a	0.18013921
151	0xbc48d3f6	-0.012257567
152	0xbd83a1f1	-0.06427372
153	0xbd245786	-0.04012253
154	0xbd4c7e6b	-0.04992525
155	0x3e2ba487	0.16761981
156	0x3d84a717	0.06477182
157	0xbd585fbc	-0.052825674
158	0x3d6c460e	0.057683997
159	0xbd405501	-0.046956066
160	0xbe03b0a6	-0.12860355
161	0xbd307246	-0.04307773
162	0x3d633bf6	0.055477105
163	0x3d221bfd	0.039577473
164	0xbd859548	-0.06522614
165	0x3d8a17e8	0.06742841
166	0xbde21c58	-0.110405624
167	0xbd847ece	-0.064694986
168	0x3d761013	0.060073923
169	0xbc8316ba	-0.016002048
170	0xbd3cb1f3	-0.046068143
171	0xbdde708e	-0.10861312
172	0x3d8555f9	0.065105386
173	0xbc994b52	-0.018712673
174	0xbcab496b	-0.020909032
175	0xbd61e82b	-0.055153053
176	0x3c2a77df	0.010404556
177	0xbbffed9d	-0.007810308
178	0xbda059d3	-0.078296326
179	0xbd02aaff	-0.031901356
180	0x3d81b6ae	0.063336715
181	0x3cf4daa0	0.029889405
182	0x3d38d83f	0.045128103
183	0x3d1957ca	0.037437238
184	0xbdaaacae	-0.08333717
185	0xbd5b6541	-0.05356336
186	0xbbd15692	-0.006388494
187	0x3ddfa320	0.109197855
188	0x3d8a2e60	0.067471266
189	0xbbf55546	-0.007486972
190	0xbda27b4a	-0.07933672
191	0x3c8ae794	0.016956128
192	0xbc960fcb	-0.018318078
193	0x3cd5cb4f	0.026097922
194	0x3e01b517	0.12666737
195	0x3da85251	0.082188256
196	0x3d773de5	0.06036176
197	0x3d1a93bf	0.037738558
198	0x3d23c95f	0.039986964
199	0x3d9ef39c	0.077613086
200	0xbc8e3d3a	-0.01736318
201	0x3cb5d564	0.02219648
202	0x3c802089	0.015640514
203	0x3d08d66a	0.033407606
204	0xbd039108	-0.032120734
205	0x3bb5d525	0.0055490904
206	0x3c95bbdf	0.01827806
207	0xbd0eeb02	-0.03489209
208	0x3d81aa7c	0.063313454
209	0x3de4e3c2	0.11176254
210	0x3e15755a	0.14595547
211	0xbda4a76f	-0.08039748
212	0xbdc020d8	-0.093812644
213	0xbe0d16da	-0.13778248
214	0x3e2772c3	0.16352372
215	0x3dd84220	0.10559487
216	0xbd8818c7	-0.06645351
217	0x3dcb16bd	0.09916446
218	0x3d69277c	0.05692242
219	0xbda167ed	-0.078811504
220	0x3e0d13a1	0.13777019
221	0x3ba0e1eb	0.004909744
222	0xba385acf	-0.00070325745
223	0x3e2e4f84	0.1702252
224	0xbcffddd6	-0.03123371
225	0x3d4c2916	0.04984387
226	0x3dc601be	0.09668301
227	0x3d5c4b8d	0.05378299
228	0x3d1c3bed	0.038143087
229	0x3d44732f	0.04796141
230	0xbd19cc07	-0.03754809
231	0xbd9027a4	-0.07038811
232	0xbd560d92	-0.052259035
233	0x3cbb9c68	0.022901729
234	0x3db1a0af	0.08673226
235	0x3d81a0d1	0.063295014
236	0x3df8c499	0.12146873
237	0xbd0f4a11	-0.034982745
238	0x3d0ebcb1	0.03484792
239	0x3d351b63	0.04421557
240	0xbd411d38	-0.047147006
241	0xbd5292f0	-0.05140966
242	0x3d04b2b6	0.032396995
243	0x3d6279ea	0.055292048
244	0xbd32bdd9	-0.043638084
245	0xbd8384c3	-0.06421807
246	0x3d62da87	0.055384185
247	0xbd475432	-0.04866428
248	0xbe0b5e79	-0.13610257
249	0x3af94562	0.001901787
250	0x3e415ae1	0.18882324
251	0x3df8c5d0	0.12147105
252	0x3d73f469	0.05955926
253	0xbcb6e5ad	-0.022326315
254	0xbb13ed0a	-0.0022571706
255	0x3dd802d4	0.105474144

fc2.bias f4 [100]
0	0x3d1b9740	0.03798604
1	0x3c5503e3	0.013001415
2	0x3d8d6403	0.06903841
3	0x3d3a2a4d	0.045450497
4	0x3d9ed0b0	0.07754648
5	0x3dba7a3d	0.09105346
6	0x3ce333f6	0.027734738
7	0xbd30abe9	-0.043132696
8	0xbb44e103	-0.0030041344
9	0xbd771165	-0.060319323
10	0xbd040e27	-0.03224006
11	0x3c4d3f84	0.01252735
12	0x3c9c3437	0.019067867
13	0xbcf2e328	-0.029649332
14	0xbd053d24	-0.03252901
15	0x3d8e18f0	0.0693835
16	0x3d65f174	0.05613847
17	0x3d4d8b8b	0.050181907
18	0x3d627166	0.055283926
19	0xbc252782	-0.01008022
20	0x3d9d32bc	0.076756924
21	0xbc7b656a	-0.015344003
22	0xbc72f88f	-0.014829769
23	0x3bc81458	0.006105941
24	0x3b872b6c	0.0041250493
25	0x3d853824	0.065048486
26	0xbc016a8a	-0.007898936
27	0x3ca33e8c	0.019927286
28	0x3dd7efd1	0.10543788
29	0xbcf40308	-0.029786602
30	0x3c6d17f8	0.014471047
31	0x3d9fd885	0.0780497
32	0xbc619d31	-0.0137703875
33	0x3da74c00	0.08168793
34	0x3d826571	0.06367005
35	0x3d76386e	0.06011241
36	0x3d6d8b48	0.057994157
37	0x3e0fe998	0.14053953
38	0x3d182435	0.037143905
39	0xbd0aa9b8	-0.033853263
40	0xbc3bd120	-0.0114634335
41	0xbd1bcfb1	-0.038039867
42	0xbcd692cc	-0.026193045
43	0xbb62a118	-0.0034580883
44	0x3dc7b650	0.0975157
45	0x3d948373	0.072516344
46	0x3d0a168f	0.03371292
47	0x3d9e20b2	0.0772108
48	0x3c0f93a5	0.008763229
49	0xbd44ea93	-0.04807527
50	0x3c9d1c3f	0.019178508
51	0x3d69adfd	0.057050694
52	0x3dda717d	0.106661774
53	0x3d79a2d4	0.0609463
54	0xbd18609d	-0.037201513
55	0x3c25ca3e	0.010119019
56	0x3db89b2b	0.09013971
57	0x3d85a80b	0.06526192
58	0x3d6cb1a6	0.057786606
59	0xbc298db0	-0.010348722
60	0x3d84ff11	0.064939626
61	0x3cd40541	0.025881412
62	0xbd6662b9	-0.056246493
63	0x3c13fc3f	0.009032308
64	0xbcf2a2ed	-0.029618705
65	0x3d82c154	0.06384531
66	0x3cb18d9e	0.021673974
67	0x3c4c5678	0.012471788
68	0xbb48005e	-0.0030517797
69	0xba448a14	-0.0007497382
70	0x3c058a01	0.0081505785
71	0x3d9b4370	0.07581222
72	0x3b396fe1	0.0028295445
73	0x3db27174	0.08713046
74	0xbcb89382	-0.022531275
75	0x3dc98333	0.098394774
76	0xbc633168	-0.01386676
77	0x3d45125f	0.048113223
78	0x3d8daadf	0.06917357
79	0xbc0d8fa9	-0.008640208
80	0x3dc2656b	0.09492
81	0x3dc15608	0.09440237
82	0x3e02e067	0.12780915
83	0xbdb5fb1e	-0.088857874
84	0x3d1a8db7	0.037732806
85	0x3c7deba7	0.015498078
86	0x3bd222f4	0.006412858
87	0xbc2a78fa	-0.01040482
88	0x3bd12168	0.006382156
89	0x3ccd1936	0.025036436
90	0x3dcd8d7d	0.100367524
91	0x3c11ffd1	0.008911089
92	0x3cfe2e3b	0.031027904
93	0x3cb80f54	0.022468247
94	0xbd091a8f	-0.033472594
95	0xbc940254	-0.018067516
96	0xbb85d6c9	-0.0040844423
97	0x3d3a5b6d	0.045497347
98	0x3d4420cc	0.04788284
99	0x3d2e35e3	0.04253186

fc3.weight f4 [4, 100]
0	0xbcbd654f	-0.023119597
1	0x3d50b519	0.05095396
2	0xbcad6fc6	-0.021171462
3	0xbd63bab9	-0.055597994
4	0x3ab4ce01	0.0013794304
5	0xbd75a294	-0.0599695
6	0x3d4c6d3b	0.049908858
7	0x3b15c1b5	0.0022851054
8	0xbd5be775	-0.05368753
9	0x3c418d22	0.011813434
10	0xbcd52b30	-0.02602157
11	0x3bd0e716	0.006375204
12	0x3d07fac4	0.033198133
13	0xbbbb5c5f	-0.0057177986
14	0x3cbd32a1	0.02309543
15	0xbdfd468a	-0.1236697
16	0x3d77ec95	0.060528357
17	0x3ce5747e	0.02800965
18	0x3a5b8f8d	0.0008375578
19	0x3d7519ea	0.059839167
20	0xbd6c5ce4	-0.057705775
21	0xbdfb2f63	-0.12264898
22	0x3d32cf6d	0.043654848
23	0xbcd84c1e	-0.026403483
24	0xbcdc9a01	-0.026928904
25	0x3cabe33b	0.020982375
26	0xbd617b4c	-0.055049226
27	0xbd65dfca	-0.056121625
28	0x3d54f150	0.051987946
29	0x3d6156ab	0.055014294
30	0xbdd0a853	-0.10188355
31	0xbd8f7e71	-0.07006539
32	0xbe0086e0	-0.1255145
33	0x3d3b6110	0.045746863
34	0x3d945833	0.07243385
35	0x3da71e81	0.08160115
36	0xbdbe32fb	-0.092870675
37	0xbd29b4e4	-0.041432276
38	0x3d43063f	0.04761338
39	0x3da7549c	0.08170435
40	0xbd330664	-0.043707266
41	0xbd0373fb	-0.03209303
42	0x3d613bd9	0.054988716
43	0x3d6b5a62	0.057459243
44	0xbdad309f	-0.08456539
45	0xbd501d6c	-0.05080931
46	0x3d2d451b	0.042302232
47	0x3c11ea13	0.008905905
48	0xbd44a268	-0.048006445
49	0x3cdb0017	0.026733441
50	0xbaa8d219	-0.0012879997
51	0xbd1fd198	-0.039018244
52	0x3cb1bd14	0.021696605
53	0x3d6107b2	0.05493898
54	0xbd37d89f	-0.04488432
55	0xbd364e30	-0.04450816
56	0x3d8ae6ab	0.06782278
57	0xbdedb1cf	-0.1160618
58	0x3d923e09	0.071407385
59	0xbdcdfdc2	-0.10058166
60	0x3d2533e8	0.040332705
61	0x3d55cc9f	0.052197095
62	0x3c394b73	0.011309492
63	0xbda6609d	-0.08123896
64	0x3dae0e29	0.084987946
65	0x3d76905c	0.060196266
66	0xbd929e7f	-0.07159137
67	0xbd25df9a	-0.040496446
68	0xbdea4786	-0.11439423
69	0xbdf75b54	-0.12077966
70	0x3d223342	0.039599665
71	0x3d419b42	0.047267206
72	0x3c72a06c	0.014808755
73	0x3d934ed0	0.07192767
74	0x3b19a8ca	0.0023446553
75	0x3d9a4d50	0.075342774
76	0x3d7abcb3	0.061215114
77	0xbda7eb20	-0.081991434
78	0x3c96eb86	0.018422853
79	0xbd8a883b	-0.06764265
80	0xbde4ac6d	-0.111657
81	0x3d3fcf34	0.046828464
82	0xbd64fd3e	-0.055905573
83	0x3b170a7c	0.002304702
84	0xbc868232	-0.016419504
85	0x3db519a2	0.0884278
86	0x3e21490a	0.15750518
87	0x3d8c7979	0.068591066
88	0x3cd91abe	0.02650201
89	0x3db9f3ff	0.09079742
90	0xbd9b7367	-0.075903706
91	0xbd47310f	-0.04863077
92	0x3d3e4675	0.04645391
93	0x3ccf1994	0.025280751
94	0xbd81fabb	-0.06346651
95	0x3bc2961b	0.005938304
96	0xbd9be30b	-0.076116644
97	0xbd49f4af	-0.049305614
98	0xbd128142	-0.0357678
99	0x3bfb724f	0.0076735388
100	0xbd2ade1e	-0.041715734
101	0xbd502f74	-0.050826505
102	0xbcd79ad1	-0.02631894
103	0xbd108638	-0.03528425
104	0xbd9ca453	-0.0764853
105	0xbcc1aef3	-0.023642993
106	0xbd9cf3c1	-0.0766368
107	0xbd54c361	-0.05194414
108	0xbd88e1d4	-0.06683698
109	0xbd5e5bb6	-0.05428668
110	0xbd40ba07	-0.04705241
111	0xbd290ee8	-0.04127398
112	0xbd802546	-0.06257109
113	0xbd7677f8	-0.060173005
114	0xbd37b26c	-0.04484789
115	0xbcce4b5e	-0.025182422
116	0xbd6c9259	-0.057756756
117	0xbd5e8f40	-0.054335833
118	0xbd715031	-0.058914367
119	0xbd2ea543	-0.042638075
120	0xbd474265	-0.048647303
121	0xbcbd8d43	-0.023138648
122	0xbd33936e	-0.04384177
123	0xbd30cd55	-0.04316457
124	0xbd11b6b6	-0.035574637
125	0xbd658f97	-0.05604514
126	0xbd72f7d4	-0.05931838
127	0xbd6018b6	-0.054711066
128	0xbd951b7d	-0.072806336
129	0xbd6163df	-0.055026885
130	0xbd6ef9ee	-0.05834382
131	0xbd175156	-0.036942802
132	0xbd263fe7	-0.040588286
133	0xbd4ec479	-0.05048034
134	0xbd549755	-0.051902134
135	0xbd347c07	-0.044063594
136	0xbd2740d0	-0.040833294
137	0xbc8afc2d	-0.01696595
138	0xbd4eabe3	-0.050456893
139	0xbd6dd57a	-0.058064915
140	0xbd4f5894	-0.050621584
141	0xbd550df2	-0.052015252
142	0xbd8129ea	-0.063068226
143	0xbd513d41	-0.051083807
144	0xbc79cb22	-0.015246185
145	0xbd414598	-0.04718551
146	0xbd4009f6	-0.0468845
147	0xbd5924ff	-0.053013798
148	0xbc8567f2	-0.016284917
149	0xbd54245e	-0.051792495
150	0xbd80c0df	-0.06286787
151	0xbd6fd189	-0.058549438
152	0xbd82d977	-0.063891344
153	0xbd7918de	-0.06081473
154	0xbd1d8193	-0.03845365
155	0xbca9ef04	-0.020743854
156	0xbd3d1b08	-0.046168357
157	0xbd0768fc	-0.033059105
158	0xbd077a4c	-0.033075616
159	0xbd0223e9	-0.031772528
160	0xbd490cad	-0.049084354
161	0xbd593806	-0.053031944
162	0xbd5d76d4	-0.0540684
163	0xbce242d1	-0.027619751
164	0xbd4cde66	-0.050016783
165	0xbcf6056a	-0.030031879
166	0xbcc5a902	-0.02412844
167	0xbcefd76f	-0.029277531
168	0xbd079dfe	-0.033109657
169	0xbd3d031d	-0.046145547
170	0xbda2025c	-0.07910606
171	0xbd8a157c	-0.06742379
172	0xbd5bcb0f	-0.05366045
173	0xbd541d28	-0.051785618
174	0xbd7fe2fb	-0.062472325
175	0xbd88ed9d	-0.06685946
176	0xbd716971	-0.058938447
177	0xbd1ba1c8	-0.037996083
178	0xbd9b4a59	-0.0758254
179	0xbd0f2806	-0.03495028
180	0xbd4da63e	-0.05020737
181	0xbca82267	-0.020524217
182	0xbcf15fd3	-0.029464638
183	0xbd10cd10	-0.035351813
184	0xbcebd227	-0.028786732
185	0xbd8ca273	-0.06866922
186	0xbd84bcdf	-0.06481337
187	0xbd56950d	-0.05238824
188	0xbd806452	-0.062691346
189	0xbd8b7892	-0.06810106
190	0xbc8a52d1	-0.016885193
191	0xbd5270fc	-0.05137728
192	0xbdc259d6	-0.09489791
193	0xbd70d022	-0.05879224
194	0xbd22efb8	-0.039779395
195	0xbd890541	-0.06690455
196	0xbcc437f2	-0.023952458
197	0xbca319fb	-0.01990985
198	0xbce06c9b	-0.027395537
199	0xbd0c88d8	-0.034310192
200	0x3cffee0d	0.031241441
201	0x3d881bea	0.06645949
202	0x3cc281d6	0.023743551
203	0xb8a88ba4	-8.036874e-05
204	0xbca5d551	-0.020243319
205	0xbd4ec4a4	-0.0504805
206	0xb8805d7d	-6.120929e-05
207	0xbd7f20fd	-0.06228732
208	0xbd25bb7e	-0.04046201
209	0xbd8dbd51	-0.06920875
210	0xbe02fd9b	-0.12792055
211	0x3ca56c91	0.02019337
212	0xbbb1755f	-0.005415603
213	0xbdaa1142	-0.08304073
214	0xbdb2bb3d	-0.08727119
215	0x3bb08606	0.0053870706
216	0x3d123d0b	0.035702746
217	0xbd044159	-0.032288883
218	0xbdbbb626	-0.091656014
219	0x3c95618f	0.018234996
220	0xbd89997a	-0.067187265
221	0xbd3a5c87	-0.045498397
222	0x3cebffdf	0.028808532
223	0xbba7a8cb	-0.0051165572
224	0xbceed070	-0.029152125
225	0xbbbe1b7b	-0.005801616
226	0x3d0ade42	0.033903368
227	0xbcb07b0c	-0.021543048
228	0x3d8c2a73	0.06844034
229	0x3d4ebbc6	0.050472043
230	0xbd0ada5a	-0.033899643
231	0xbda9fdb2	-0.08300342
232	0xbd3f8dfb	-0.046766263
233	0x3d457b01	0.04821301
234	0x3d2d8fde	0.04237353
235	0x3d694916	0.056954466
236	0xbe2c5f04	-0.1683312
237	0x3e18d0b9	0.14923371
238	0x3c9f59a8	0.019451931
239	0x3ca1a80f	0.019733457
240	0xbd2124d1	-0.03934175
241	0xbd6b7be9	-0.057491217
242	0x3d750e58	0.059828132
243	0x3cb2bbf0	0.021818131
244	0xbd39b081	-0.045334343
245	0xbdeabd64	-0.11461905
246	0xbd56f2cc	-0.052477643
247	0xbd4ec0cc	-0.050476834
248	0x3cd67eb1	0.026183458
249	0xbd4e86b2	-0.050421424
250	0xbd601035	-0.054702956
251	0xbd1cb68e	-0.038260035
252	0x3caf5602	0.021403316
253	0x3cd4d854	0.02598206
254	0xbe1fe3a7	-0.15614186
255	0xbda95928	-0.08268958

fc3.bias f4 [4]
0	0xbd0a9687	-0.03383496
1	0xbdfd8609	-0.12379081
2	0x3d7eec2f	0.06223696
3	0xbca64048	-0.020294324
