checkpoint_critic.pth (torch_old, 542628 bytes, 5 tensors)

fcs1.weight f4 [400, 33]
00000000: c52b 183c 4e06 2ebd 93aa 9b3d 93af c13d
00000010: b820 c4bd f44d eabd 6289 90bd 1fad 113d
00000020: 2326 d33d 36ee 353d c025 813c fae5 c03b
00000030: f30e 60bc d6d9 fabc 0d9b aa3d 38a1 38bd
00000040: 3587 74bd 51cd e83d 6451 c03d 2127 5d3d
00000050: d9e6 6c3d a2d1 f3bb 759d 26bd 09e8 87bd
00000060: ed57 92bc c2b6 1abd 8e65 1d3d 9791 ac3d
00000070: f91e a63b 585e 03bd fffc e9bd c2e0 a33c
00000080: 427c 0bbe 0325 8cbc 73d3 d9bb bcaf 3b3c
00000090: 4695 14bd 9433 dcbd 62c9 3ebe 2eb1 babd
000000a0: a455 c73d 3a10 45bd ecbd 84bc d3c9 493c
000000b0: 8e1c b93c 72d2 4bbd b170 e93c a641 cb3d
000000c0: 4265 583d ecfc 943d ac0e 303c f020 803e
000000d0: 02bb a1bd 2763 9e3b dc81 ce3c 333a 33bd
000000e0: f457 07bd f241 1b3c 9bc7 e83c 423a edbb
000000f0: 2f13 8d3d 3b7d 203d 3104 013d bd9f 953c
00000100: 8243 11bd 8182 cb3c 5623 153d 0f86 31bb
00000110: e18e 50bc d34b 623d ae91 26bd 6009 7cbd
00000120: f8fd 19be 69aa 6a3d c59a 963d b494 303d
00000130: 6c25 21bd 8026 41bd 27f8 95bd d61a 57bd
00000140: a398 fbbc 3365 ecbd 70c5 02be b87d 24be
00000150: a907 f8bd ebbc 20bd 56bb 443d fc99 67bd
00000160: dcb6 143d 1e5b cabc 28d2 0fbc b3f2 903c
00000170: 47f7 833c 6f65 193e dd83 f13c 140b 42bc
00000180: 975b 33be ba54 b4bc 0788 f3bd c3b1 d93c
00000190: a3b6 d83c 53b4 4d3d 8bc3 c53c d0c0 cc3c
000001a0: 5844 1bbe e8d8 9dbd 1a19 4e3d 75f3 df3c
000001b0: 0840 353e d524 193d 290b fd3c 707f 66bd
000001c0: 0e73 0c3d 8db0 143d 164d 3cbd 7668 36bd
000001d0: 406c f4bd 9bbd 343c 5b99 f93d 7d1a f8bb
000001e0: dc8e 763c 7bd8 383a f2ee c13b 287b bd3c
000001f0: 1c44 1abd 26ff 5ebc 32ab 09bd 58b4 4dbd
00000200: fa24 00bd eb14 8cbc a04b 883a 83fb 92be
00000210: 3928 bdbd cc74 65bd 75b0 c5bd 8413 8cbd
00000220: f4c2 473e c4b9 a63d c839 d83d 1008 263c
00000230: ccad c03d 3826 353d d82c c9bc 4e81 b4bc
00000240: cc2d abbc ec45 08bc 4290 963d 3062 abbc
00000250: ba6e 8a3e 6ceb a53d 8a82 dfbc 7f7a 7dbe
00000260: f7f7 013e 8e74 543d e2c9 2dbb a156 a6ba
00000270: e587 2b3c 9e6a 873a 5c65 f43d e881 7f3d
00000280: 7a55 82bc f424 89bc 91ef 78bd 9f2b 2a3d
00000290: ebd5 54be 8620 21bc 44a2 dc3c 780f 3e3d
000002a0: 7649 323e bcc4 a03d 931e f1bd 7fad 203d
000002b0: b613 e73d 950f 503e e3f2 133d 1e25 2bbd
000002c0: 2fc5 b13c 2968 f03c 6a5e 1a3d 5211 1b3d
000002d0: f87a 97bd fbb8 96bd 8e2f c9bc 53d9 f0bd
000002e0: 7dac 04bd 2c97 e53d 1f01 433d 772c 8f3d
000002f0: 563f 633d ea3c 093d 7386 2aba 100c 80bd
00000300: 6a6b dd3d 95c7 c03b 9d7a 0abd 142d 9dbd
00000310: faaf e43c edd9 15be 3cce 713c 0be6 993d
00000320: 2f16 da3d c52e 263d 38c7 933d 49e1 9d3d
00000330: f900 0dbe f57f 4abc 629e 203e 409c af3d
00000340: ec10 8cbb ec65 52bd 3261 c43d 07c0 a33b
00000350: 5163 cb3d 100b 123d c139 efbd 1ab6 023e
00000360: 9664 62bd 1396 d7bd 9712 113d 262b bd3b
00000370: f0c8 a83d 6a6c a1bd f42b e4bc acc6 c63b
00000380: ce1a c03c 3f82 eb3c 48e7 c8bc 9a5c b6bc
00000390: c655 42bd 9473 8bbc 2f60 193e bbc5 97bb
000003a0: df11 da3c 321d 55bd 5af4 453d dd81 59bc
000003b0: b97c 653e 7419 a6bd d4b8 e63c 6c1d debc
000003c0: 5692 b23d 443b 6fbc 3281 f1ba 30a8 9a3d
000003d0: f636 5e3d 7fe4 0f3e a7af 82b9 9485 e9bd
000003e0: c0d7 723e 00af a7bd 1e6a 0bbd d711 943c
000003f0: 8a2e 74bc 3617 e9bc a379 57bc 72ff c4bc
0.009287779 -0.04248648 0.07600894 0.09457316 -0.09576553 -0.1144065 -0.07057454 0.03556549
0.103100084 0.04441663 0.01576507 0.0058867903 -0.013675439 -0.03062145 0.08330355 -0.045075625
-0.059699256 0.11367286 0.09390524 0.053992394 0.05783734 -0.0074407617 -0.040677506 -0.06636054
-0.017864192 -0.037771948 0.03842693 0.084262066 0.00506961 -0.032072395 -0.11425208 0.020004634
-0.1362162 -0.017107492 -0.006647521 0.011455473 -0.03627517 -0.10752025 -0.18631509 -0.091158256
0.097331315 -0.048111178 -0.016203843 0.012316185 0.022596624 -0.049761243 0.028496118 0.09924631
0.052830942 0.072748035 0.010745686 0.2502513 -0.07896997 0.004833597 0.025208406 -0.043756675
-0.033042863 0.009476172 0.028415492 -0.007239611 0.068884246 0.03918193 0.031498138 0.018264646
-0.03546477 0.024842503 0.036410652 -0.0027087962 -0.0127293775 0.055248093 -0.040666275 -0.06153238
-0.15038288 0.057291422 0.07353739 0.043110564 -0.03934233 -0.047155857 -0.07322722 -0.052515827
-0.030712431 -0.1154274 -0.12770629 -0.16063583 -0.12110836 -0.039242666 0.04803022 -0.056543335
0.0363072 -0.024701651 -0.0087781325 0.017693853 0.016109122 0.149801 0.029481823 -0.011843462
-0.17515408 -0.022013057 -0.118911795 0.026574021 0.026454275 0.0502208 0.024141094 0.024994284
-0.1516279 -0.07707387 0.050316907 0.027337769 0.17700207 0.03738864 0.03088911 -0.056273878
0.034289412 0.036301184 -0.045971952 -0.044533215 -0.119347095 0.011031534 0.12187453 -0.007571517
0.015048709 0.0007051301 0.005918377 0.023130015 -0.03766261 -0.013610637 -0.03361053 -0.050220817
-0.031285264 -0.017099818 0.0010398515 -0.28707513 -0.092361875 -0.05601959 -0.09652797 -0.0683966
0.19507962 0.08140901 0.10557896 0.010133758 0.09408149 0.0442259 -0.024557516 -0.022034314
-0.020895861 -0.008317452 0.07351734 -0.020920843 0.27037603 0.08101544 -0.027283926 -0.2475376
0.12692247 0.051868968 -0.0026518037 -0.0012690612 0.0104694115 0.0010331457 0.11933395 0.062379748
-0.015909899 -0.016741253 -0.060775343 0.041545507 -0.20784728 -0.009834414 0.026932843 0.04640147
0.17410836 0.07850024 -0.1177341 0.03922796 0.112830564 0.20318444 0.036120307 -0.041783445
0.02170047 0.029346542 0.037687697 0.037858315 -0.07396501 -0.07359501 -0.024558809 -0.11760201
-0.03239106 0.11210474 0.04760849 0.06990903 0.055480324 0.033505358 -0.000650502 -0.06252301
0.10811503 0.005883167 -0.03380834 -0.076746136 0.027915943 -0.14633913 0.014758643 0.0751458
0.106487624 0.040571947 0.07215732 0.07708985 -0.13769902 -0.012359609 0.15685418 0.08574724
-0.004274478 -0.05136673 0.09588851 0.0049972567 0.099310525 0.03565508 -0.116809376 0.12764779
-0.055271707 -0.10526671 0.03541812 0.005772966 0.08241451 -0.078820065 -0.02785299 0.006066164
0.023450281 0.02874863 -0.024524346 -0.022260953 -0.04744508 -0.017022885 0.14978097 -0.0046317256
0.02661985 -0.052029796 0.048328735 -0.013275591 0.22410859 -0.081103235 0.028164305 -0.027113639
0.087193176 -0.014601532 -0.0018425344 0.075516105 0.054251634 0.14052008 -0.00024926403 -0.11402431
0.23715115 -0.081876755 -0.034036748 0.018074913 -0.014903674 -0.02845345 -0.013151559 -0.024047587

fcs1.bias f4 [400]
00000000: eec6 4f3d 975d d23d d399 18bd d10b c93d
00000010: dd29 a53c bc96 9c3d 54ba bb3d 19b3 babd
00000020: a0de 953d 9abd bcbd f81c b63d c1b4 463c
00000030: ebe1 97bd 8d3c 5dbe 9507 d23d eb43 76bc
00000040: c011 0d3c 7780 0cbe 2753 0dbe d7b9 f63d
00000050: 196b 46be ec11 ec3d b920 ab3d e709 f2bd
00000060: b3a4 21be 5a59 d9bd a857 6fbd 4bdc bcbd
00000070: a7cd f8bd e5bb 4cbe e318 fcbd fce2 a93d
00000080: 43d3 3d3d 2909 a1bc 83fb 033d 3fd6 bbbd
00000090: 53aa 99bd 4d47 3fbe 7b3e d63d 72bd d9bd
000000a0: a635 02be 5375 1cbe a1ec 943d c14d f6bd
000000b0: 5ad8 88bd d250 46be 5d59 b6bc 8e8d cabb
000000c0: f45e d23d 29ea 6bbe bc4c 54be 5206 9fbc
000000d0: e9fc b8bd b36f 23be be9b 5fbe f9f2 d43c
000000e0: 9d00 dbbc d28c 993d e913 e4bc 9b4e 063d
000000f0: 8860 14bc ef59 fdbd c2bd a9bd e05e 9fbd
00000100: 8a83 5cbe 6717 9f3d 4268 4abe 04ed 0ebe
00000110: c0c0 ccbd e43b 2b3d edeb 24be e4dc b6bc
00000120: 893f 6ebd 4680 43be 7d9f c43c c13c 3dbe
00000130: 8372 e5bd 62e9 17be 985c 2cbe 7420 27be
00000140: 14a6 7bbe 7fa8 bb3c e149 32be 931b 64bd
00000150: b548 d9bd a5a4 44be 5800 473d 3c2e ea3d
00000160: 77f9 14be a174 43be 8ac6 933d d66c f03d
00000170: 39e8 423d 70d1 c6bd 5a5a 3cbe d11a c1bc
00000180: 8a32 b23d 0abe 43be 0701 1fbc 1baa 25be
00000190: 9323 2bbe 1c8f f43d 9d5a 35bd d2b1 4b3d
000001a0: d41e afbc 02a1 a4bd a4c3 d93d b52f 9e3c
000001b0: a01c 50be 30ea 33be cb4e f43d ddf1 993c
000001c0: ce76 4e3d 11fc 23be f366 7bbc baed dcbd
000001d0: b9ae 51be 0a6f ff3c 689b 243d 08f4 d13d
000001e0: 77ea b03d cda8 25be 53c4 253d b8ac 623d
000001f0: eb1d 5bbe a691 f13d 42b3 763d 2b64 b13d
00000200: 4ade 4abe 2c29 db3c 3a26 663d 50f8 c2bd
00000210: 08ee 773d 36bc 16be c1e0 0bbe 9ae5 2cbd
00000220: a2e2 7abe 7539 26be 02eb 65be 78b6 4fbe
00000230: 9bd8 cabd a6e6 a83d 3acf 62be 8a53 ce3d
00000240: fd2e 78bd a8c5 42be 3378 553d a9db 643d
00000250: 2420 1dbe 8fea e53d 49ec cdbd 1935 5bbc
00000260: 4754 033c 9427 7cbd 4b5b 38be f704 683d
00000270: 8c8b 5fbe 0f41 dfbd 1db4 20bd a873 88bc
00000280: 3151 883d a63a 61bd 38c4 d1bc b0c8 39be
00000290: e1c3 fa3d b4e5 4abe 42b0 8abd edc4 bcbd
000002a0: cb11 38be edab d13c b03c 873d 9bfb 5b3d
000002b0: 511d 1cbd aeae 52be fa78 9d3d f453 69be
000002c0: eaf4 fdbd 6d31 43bc 6674 48bd 68cc b4bb
000002d0: c88b 36be d673 e3bd 992f 2ebd f7e7 073d
000002e0: 8bd3 d5bd ae79 23be f3eb 323c 32f8 8cbd
000002f0: 437f a0bd 918f 94bd e055 dd3b 2b58 13be
00000300: 3748 60bd 78dd 0dbe 3f22 00bd d235 20be
00000310: dce0 15be 2250 06be 3e34 a23c e511 aabc
00000320: eb1c 85bd 27e9 27bd ab7d 81bb aa22 c5bc
00000330: be06 5ebd 76bb aabd e2ee 8fbd 2a36 d6bd
00000340: 047d d6bd 293e 03be afe8 63bd e5fc d4bd
00000350: 236d 55be 3d1b 5d3d 8600 50bd d50c 7ebd
00000360: ad57 8b3d 897b 77bd 4ecd 03be 8c60 2d3e
00000370: 73d0 163c 0b9a 17be 26ea d93c d145 f2bd
00000380: 6ae1 d7bd dcda 24bc eeb7 f03c 972e 3ebe
00000390: 61f6 18be 6b92 1ebe 08c9 59be 7298 5abe
000003a0: 94d7 28be 8629 9d3c 4979 c63b 13e5 813d
000003b0: 9007 373d acbc 39be 02b7 f2bc c137 68be
000003c0: fb6c d53d 9283 54bc c8cb c13c c0c0 3abe
000003d0: f4f5 7e3d ce95 45be 5663 f4bb 3e58 2cbd
000003e0: eead 8fbd b65f 1abd 41c5 643d 2c35 a0bc
000003f0: 58ea 293d ea45 d7bd 8c82 b2bd 02a9 583d
0.050726824 0.10271757 -0.037256073 0.09816707 0.020161564 0.07645938 0.09166399 -0.091161914
0.07317853 -0.09215851 0.08892244 0.012128056 -0.07416137 -0.2160513 0.102553524 -0.015030841
0.008610189 -0.1372088 -0.13801251 0.12047165 -0.19376792 0.11526856 0.08355851 -0.11818295
-0.15785484 -0.106127456 -0.058433205 -0.09221705 -0.121486 -0.19993551 -0.12309434 0.08295247
0.046344053 -0.019657688 0.032222282 -0.091717236 -0.0750319 -0.18679543 0.10461136 -0.10631837
-0.12715778 -0.1527913 0.07271696 -0.12026549 -0.06681891 -0.19366768 -0.022259409 -0.0061814254
0.10272017 -0.23038544 -0.20732397 -0.019412193 -0.09032614 -0.15960579 -0.21836755 0.025994765
-0.02673369 0.074975625 -0.027841525 0.032789808 -0.009056218 -0.12370669 -0.082881466 -0.07781768
-0.21534553 0.077681355 -0.19766334 -0.13957602 -0.09997702 0.041805163 -0.16105624 -0.022322126
-0.05816606 -0.19091901 0.024001831 -0.18480207 -0.11203482 -0.14835122 -0.16832197 -0.16320974
-0.24575073 0.022907494 -0.17410995 -0.05569036 -0.10609571 -0.19203432 0.048584312 0.114346
-0.14548288 -0.19087459 0.07215603 0.11739509 0.047584746 -0.09707916 -0.18393841 -0.023572357
0.08701046 -0.19115463 -0.009704835 -0.16178171 -0.16712789 0.119413584 -0.04427587 0.04973013
-0.021377005 -0.08038522 0.106330186 0.019309858 -0.2032342 -0.17569804 0.11929091 0.018792087
0.05040627 -0.16014124 -0.015344369 -0.1078753 -0.20476808 0.031180877 0.04018727 0.102516234
0.086384706 -0.16177674 0.040470432 0.0553405 -0.21398132 0.11795358 0.060229547 0.08661684
-0.19811359 0.02675303 0.0561888 -0.09520018 0.06052974 -0.14720234 -0.13659956 -0.042211153
-0.24500516 -0.16232856 -0.2245293 -0.2028445 -0.099045955 0.08247118 -0.22149363 0.100745276
-0.060591687 -0.19020712 0.052116584 0.055873547 -0.15344292 0.11226379 -0.100548334 -0.013379359
0.008015699 -0.061561182 -0.18003576 0.05664536 -0.21830577 -0.10901081 -0.03923427 -0.016656712
0.06656111 -0.054987572 -0.02560626 -0.18142962 0.12244392 -0.19814187 -0.067719 -0.09217248
-0.17975537 0.025594676 0.06603372 0.053706747 -0.038113896 -0.20574448 0.0768909 -0.22785932
-0.12400229 -0.0119136395 -0.04893913 -0.005517531 -0.1782676 -0.11106078 -0.04252586 0.033180203
-0.10440739 -0.15964386 0.0109205125 -0.06883277 -0.07836773 -0.072539456 0.006754622 -0.14389102
-0.05475637 -0.13854015 -0.03128266 -0.15645531 -0.14636558 -0.13116506 0.019800302 -0.020760486
-0.06499656 -0.040993836 -0.0039517484 -0.02406438 -0.05420565 -0.083365366 -0.07027985 -0.1045955
-0.104730636 -0.12816681 -0.055641826 -0.10399798 -0.20842414 0.053981055 -0.05078175 -0.062023956
0.06803832 -0.060420547 -0.12871286 0.16931361 0.009204972 -0.14804856 0.026600908 -0.11829723
-0.10541041 -0.010061946 0.02938458 -0.1857246 -0.14937736 -0.15485542 -0.21268094 -0.21347216
-0.16488487 0.019184839 0.006056939 0.063425206 0.044684947 -0.18138379 -0.02962828 -0.22677518
0.10421177 -0.012970822 0.02365674 -0.18237591 0.062246278 -0.19295427 -0.007458131 -0.04207634
-0.07015596 -0.037688933 0.05585218 -0.019556604 0.041483253 -0.10511382 -0.08716306 0.052895553

fc2.weight f4 [300, 404]
00000000: da11 25bc 3777 533d 696d 213d ff95 b23c
00000010: bdf9 d93c 4019 3d3d 6774 6fbd aa35 debc
00000020: 4a37 5f3d 583b 923c 1a93 49bd 5e8d dabc
00000030: 6ef6 a6bd 5e9a d1bb ef7c 863d ed3d d33c
00000040: 8954 f53c ef27 2a3c 66cf 0d3d 350c f2bc
00000050: 5a6a a43d 26cf 123b 8a43 d13c 76eb 0bbb
00000060: 27dd c5bd 1e80 08bd 97a1 88bc 052f 873d
00000070: e506 92bc bdea b9bc 0f30 7fbd 539e e63c
00000080: c37d 923d 5410 06bd d477 283d 9e6b 8abb
00000090: f379 43bc decf 583a 5bf2 ee3b cd75 d53b
000000a0: e8bc 91b9 5f82 aebc bef7 bdbc f90d 803c
000000b0: ce56 bf3c 5a36 6e3d 1a07 a43c fbd9 9f3c
000000c0: 4e22 e83c 9a37 3bbd fe68 0ebb bada 61bd
000000d0: 6ce6 88bd 5265 b9bd 76b0 07bd 1917 8abc
000000e0: 18d2 95bd abb9 96bd bdbd 9dbc c552 7abd
000000f0: 11ea b53c 5497 5dba 528e d93c b872 3cbb
00000100: 72c1 8fbd d29b 0f3d 688d 2dbd 2340 87bd
00000110: cd18 fcbd eb28 21bd b738 db3c e4ee e43c
00000120: 810f 7a3b 3f04 f9bc 7bd8 823d 39df 44bd
00000130: 58dd f83b d9fa e1bd 52ab 31bd bd73 86bc
00000140: 70b7 32ba f2b1 923d 5a85 31bd 356d 4a3d
00000150: 5492 31bd 4e27 5d3a 6be0 4cbd b772 0c3d
00000160: 3f23 103d fca0 2e3d bc66 723a 6d43 fabc
00000170: 90b4 40bd a4db 82bd 965a 5e3d ff3c e7bc
00000180: fa84 303d 39b5 043c e0e6 9a3d b875 b8bd
00000190: a8fa 143d 6db1 1bbc de96 493b c4e2 1b3d
000001a0: 0f8b 83bd a1b5 703c 3014 25bb 4c78 d53b
000001b0: aa47 9c3d 9836 5d3d 628b 59bd 82ab 013d
000001c0: f6f2 30bd 9cb7 68bd 3f17 e2bc dd3b c43d
000001d0: a869 c7bd 7e69 c43c 96b5 44bb a037 e3bd
000001e0: becf acbd 33b0 623d 4d8d 303d 3b11 6dbc
000001f0: 737e 473d 1606 78bd 31b4 253d e813 193d
00000200: 878b 5b3d e62e 183d 9ee2 86bb c221 b2bd
00000210: 7b36 473d 2a66 2fbd b9a1 1cbe 3ac5 cb3d
00000220: 34e8 803d d0d4 0cbd 7b75 083d 40f8 e13c
00000230: d101 39be dd09 24bd 1cf6 e33d bb72 cc3a
00000240: a5fb a83c 5958 793d 7864 df3d 0048 f4bc
00000250: 7a0b cbbd c1d1 cabb a91d fcbc 1eec 6b3d
00000260: 3d22 883d 6501 e73c 25c3 eebd 6f7e 763d
00000270: 00ea 863c 3329 ac3d 7d1a 92bd 04fb 97bd
00000280: b34f dc3c cda4 76bd 2e70 4b3c 0b83 813c
00000290: 23da ffbd de61 163d 264e b0bc 4a55 fcbd
000002a0: 2797 213d a937 ca3b e7ea 513d 0580 00be
000002b0: 3a18 06bd db70 aabd e513 45bc a204 a6bd
000002c0: ae68 08bc d051 3cbd 4105 30bc dc5f 033d
000002d0: b972 b93d 3065 15bd 610c 16bd 8b12 b53c
000002e0: fe95 a4ba 210e f3bc 7faa 143d 5936 84bd
000002f0: ca4d 2f3b d39f 8abd 82cb 47bc 2bb4 e3bd
00000300: 38d4 1e3c d2cd 893b ab2e a6bc 2efa 2fbd
00000310: 4ffe 77bb ac74 64bc 4088 6c3d 336c 053d
00000320: aa02 b9bd bcac 443d fbec 413d 14f5 b23d
00000330: d0f0 babc ebdf 05bd 709f 153d 81d5 25bd
00000340: 09db 71ba 401a a9bd 20c4 cfbb 80c0 7f3d
00000350: 88f0 4c3d 50e4 6d3d 388e 58bd 6a04 2ebb
00000360: 6445 93bd 6d88 44bd d999 b3bd a152 343d
00000370: ffd7 86bc 76b8 b83d 1ee6 dfbd 022d 8fbd
00000380: e82b e23c 4528 20bd d324 4ebd 1704 f6bd
00000390: 633b adbd fabc d0bd bc38 9abd 4704 f4bb
000003a0: e2e3 92bd 3010 23bd 5b02 e5bd f953 e9bc
000003b0: 3ff5 613d b170 d03c a891 4cbd 5284 873d
000003c0: b9c0 a6bd e8b9 98bd 2284 903d fe3a 7f3d
000003d0: 206a 3cbd c949 5c3c be27 dd3d f1c8 bcbd
000003e0: 3ae1 13be 02de aa3d 4f77 c43d ca30 3abc
000003f0: d4d6 b9bb c0d8 8d3d 7df1 48bd 78b7 1cbd
-0.010075057 0.051627364 0.039410982 0.02180004 0.026608342 0.04616666 -0.05846062 -0.027125198
0.054496087 0.017850563 -0.049212553 -0.026678737 -0.081524715 -0.006396576 0.06566798 0.025786364
0.029947536 0.0103854975 0.03462162 -0.029546836 0.080280975 0.0022401302 0.0255449 -0.0021350062
-0.09661322 -0.033325307 -0.016678615 0.06600765 -0.017825553 -0.02269494 -0.06230169 0.028151667
0.071528934 -0.032730415 0.041129902 -0.0042242547 -0.01193093 0.0008270721 0.0072920746 0.006514287
-0.000277973 -0.0213024 -0.023189422 0.015631663 0.023356821 0.058157302 0.020022918 0.01951312
0.02833667 -0.045707323 -0.002173006 -0.055140235 -0.066845745 -0.090525284 -0.03312727 -0.016856717
-0.07315463 -0.07359632 -0.019255513 -0.06111409 0.022206338 -0.00084530306 0.026557121 -0.00287549
-0.07019319 0.03506071 -0.042371184 -0.0660403 -0.12309418 -0.039345663 0.026760442 0.027945943
0.0038156214 -0.030397533 0.063889466 -0.048064444 0.0075947456 -0.110341735 -0.043376274 -0.01641261
-0.00068174955 0.071628466 -0.043340065 0.049420554 -0.04335244 0.0008436338 -0.05001871 0.034289088
0.035189863 0.042633995 0.0009246876 -0.03054973 -0.047047198 -0.063895494 0.05428561 -0.028227327
0.043095566 0.0080998475 0.07563567 -0.09006828 0.036371857 -0.009502751 0.003076009 0.038058057
-0.06423008 0.014691741 -0.0025189035 0.0065145846 0.07630856 0.054007143 -0.05311144 0.031657703
-0.043200456 -0.05681573 -0.027598975 0.095817305 -0.09736949 0.023976084 -0.003001546 -0.11094594
-0.08438061 0.055343818 0.043103505 -0.01446944 0.048704576 -0.06055268 0.040455047 0.0373725
0.05359986 0.0371541 -0.0041163703 -0.08697845 0.04863594 -0.04282204 -0.15296067 0.09949727
0.06294289 -0.03438264 0.033315163 0.027584195 -0.18067099 -0.04004847 0.11130926 0.0015598157
0.020627806 0.06087527 0.10907835 -0.029819489 -0.09914298 -0.0061895554 -0.030775862 0.057598226
0.066471554 0.028198907 -0.116583146 0.06017917 0.016469002 0.084062956 -0.071339585 -0.07420924
0.026893472 -0.06021576 0.012416882 0.015809556 -0.12492778 0.036714427 -0.02152164 -0.12320955
0.03945079 0.006171186 0.05124941 -0.12548836 -0.032737948 -0.08322307 -0.012028669 -0.081063524
-0.008325739 -0.04597646 -0.01074344 0.03207384 0.09055085 -0.036473453 -0.0366329 0.022103569
-0.0012556908 -0.029669823 0.03629541 -0.064556785 0.0026749247 -0.06768765 -0.012194516 -0.11118349
0.009694152 0.004205444 -0.020285925 -0.0429632 -0.0037840789 -0.013943832 0.057747126 0.03257389
-0.09033711 0.048016295 0.047345143 0.08738151 -0.022819906 -0.032684248 0.036529005 -0.040486816
-0.0009226059 -0.0825696 -0.0063405186 0.06243944 0.050034076 0.058079064 -0.052870005 -0.0026552924
-0.071909696 -0.04798167 -0.087695785 0.044024114 -0.016460417 0.09019558 -0.10932563 -0.069910064
0.027608827 -0.039100904 -0.050328087 -0.12012499 -0.08458593 -0.101922944 -0.075303525 -0.007446799
-0.071723714 -0.03981036 -0.1118209 -0.028482424 0.055165526 0.02544436 -0.049943596 0.06617035
-0.08142228 -0.07457334 0.07056452 0.06231212 -0.045999646 0.013445326 0.10798596 -0.09218014
-0.14441386 0.08343126 0.09593069 -0.011364171 -0.0056713615 0.069261074 -0.049058426 -0.038260907

fc2.bias f4 [300]
00000000: 2ea8 183a 42ff b53c bbac a13d f78c 1f3d
00000010: 32ee 2fbd 211c 323d 6174 cf3c 78d0 873b
00000020: 36a3 bebc 0663 323c 417c 94bc 2de6 563b
00000030: e166 9d3d bc25 d83c 11ce 74bd ecf1 0abd
00000040: 8c0d 173d f5fc 3cbd dfde ffbc 6921 9ebc
00000050: b5bf 8e3c 5160 46bd ead8 93bc fb5c 01bc
00000060: 73d6 fe3d 5183 de3c f03b 0abc 63ad 6b3c
00000070: 79c2 a2bc 4435 7dbc 2063 34bd e129 a63b
00000080: 49c1 e8bc 91f5 5cbd f251 ddbb ecaf 563c
00000090: 09d8 51bb 2ba8 47bd 0f13 81bd c533 5abb
000000a0: 10e8 d03c 61f6 ed3c f558 7cbc 750a aebc
000000b0: 72d8 96bb a6b6 783b 1f31 d0bb eb4e a23b
000000c0: a63c cf3b d60d 033d e315 803d a9ff c73c
000000d0: b789 f03c d3b9 c93c 57cb b7bb 20e6 153d
000000e0: 8f4d 453d 901e 653b 920a 1a3b 6a92 1abc
000000f0: 8f46 18bd a483 383b 9bd2 f13c 820a c53c
00000100: 3896 8cbc ec02 1dbc a452 84bc 6b88 5e3b
00000110: a1c5 f43c 5172 d83c 8f43 febc 7dfb ff3b
00000120: 4722 12bd 301a 803d 4f3f 703b 13c4 8e3c
00000130: 33c2 a9b9 3aba 0f3d be42 70bc a13e 383c
00000140: d109 34bd bc72 0abd 0a77 2fbd d776 08bd
00000150: 3051 2cbc d3ee e7bb 8db8 7dbd 2a5d 7e3d
00000160: 9621 333c 19f4 b93c 5a3b fe3c af9f 73bd
00000170: 8011 20bd 6faf ba3c e1cc 62bd 3498 21bd
00000180: 284d a73c fadd 07bd c6bf 943d 6938 783c
00000190: 82e0 423d 4582 edbb 88e4 1ebc 89a6 eabc
000001a0: b832 08bd 5d0b 953c a23a 1c3d 441e 663c
000001b0: dc3e 23bd 7d34 4a3d 62c2 7a3d 17e3 31bd
000001c0: 1a07 c13c 835c 863d 8429 fe3c c3fd 5c3d
000001d0: 2930 d03b 4bb4 ea3c 5f18 423b cb6c 223d
000001e0: da5e 53bd 22cc d1bc c5dd 863c 1aba f9bc
000001f0: 90a9 c53d 071f b0bc 12dd 32bd 2af5 d1bc
00000200: 0dc9 253d 10cd 1bbd 7eaf 0abc 8800 b13d
00000210: 6dd8 013c b60a 753d 53f7 9cbc 954f 6e3d
00000220: 2f28 12bc f1ab 5dbc f49a 8f3c c0a3 a0bb
00000230: 11ae 60bd f402 34bc cc02 923d 1c6b 7d3a
00000240: 6dc5 b6bc 098b 193b 4fad f9bd 3d7c 2f3c
00000250: 66e9 8f3c 594f 6e3d 3c85 f63c 545d 163d
00000260: 9ced 09bd 2c73 e33c 12c3 67bc 4d9b 2bbd
00000270: 2508 033d 0ecb a2bc fbae 1b3e 8d27 e3bb
00000280: ff73 05bc 609d 69bd 46ef 013c 4da0 d1bb
00000290: 11a4 58bd 49d9 d13b 699e b13c b20a d93c
000002a0: 7a99 193d bf50 4b3d 47d5 a23c 06a4 c0bc
000002b0: 878d 2c3d b72e babc a68a 8a3c 5f6a edbb
000002c0: dd09 79bc eb54 863d 6285 383d 4f45 333d
000002d0: ead7 0abd 0995 c8bd a90a 193d 2240 823d
000002e0: a846 d6bb 6e56 993c 33c0 d6bc 7c67 913d
000002f0: 142d 8cbc 6a1d ae3c ae5c d23c b94a 143d
00000300: 539b a83b 7db5 373d 56e9 b93c c578 293d
00000310: c9ca 2bbc 1157 083d ae3b b13d 57b6 823d
00000320: 653f 213c 0541 513d 3ee5 4c3d 6712 c0bb
00000330: 3bf5 a6bc 684e 55bc a6d6 f33b 2615 5dbc
00000340: 5698 513d 9eb9 033d a2c0 923d 0904 5bba
00000350: c6b9 d43c 5f48 223d e00b 8ebc c7e9 9dbc
00000360: 49cb 243d 003d eb3c c1f8 2b3d 1402 27bd
00000370: dc8a 723d 398a 61bc 5652 be3c 985e ffbb
00000380: e57e c9bc 79d1 30bc 4520 4dbb fa65 ddbc
00000390: 7eae e1bc b71d 223c 1f79 44bc a283 2f3d
000003a0: 0e7e c6bc 62ef 173c 2c1c 19bd d5d7 353d
000003b0: 01c7 813c 64ea 293c 1b7d a4bc 90ef 3c3d
000003c0: ace9 743d fe97 96bb e80a 913b 64e9 72bc
000003d0: 45ae 693d 54d6 f33c 71d9 953c 0801 0ebc
000003e0: 1e3e 1b3d ff6b b53b 2b1e 3abd fe94 f9bc
000003f0: 12d4 42bd a0ae ee3d c388 2c3d 5088 28bd
0.00058234006 0.022216443 0.07894274 0.038952794 -0.04295177 0.043483857 0.025324048 0.0041447245
-0.023271184 0.010887867 -0.018125655 0.0032791004 0.07685638 0.02638518 -0.059766833 -0.03392212
0.036878154 -0.046139676 -0.031234203 -0.01930304 0.017425397 -0.0484317 -0.018047769 -0.007895703
0.12443247 0.027162226 -0.008437142 0.0143846 -0.019868122 -0.015454594 -0.044039845 0.0050709103
-0.028412478 -0.053945128 -0.0067541534 0.0131034665 -0.0032019636 -0.04874436 -0.06302463 -0.0033295017
0.025501281 0.029048147 -0.015402068 -0.02124522 -0.004603439 0.0037950664 -0.006353512 0.0049532554
0.0063243685 0.031995617 0.062541746 0.0244139 0.029362543 0.02462474 -0.005608957 0.036596417
0.04816967 0.0034960844 0.0023504836 -0.009434322 -0.037176665 0.0028154636 0.02951937 0.024052862
-0.017161474 -0.009583216 -0.016152687 0.0033955823 0.029879393 0.026421698 -0.031038074 0.007811962
-0.03567722 0.06254995 0.0036658829 0.01742748 -0.00032378882 0.03508971 -0.01466435 0.011245401
-0.043954674 -0.033800825 -0.042838134 -0.03331646 -0.0105174035 -0.0070780306 -0.06194358 0.062100567
0.0109333005 0.022699403 0.03103416 -0.059478458 -0.03907919 0.022788731 -0.05537117 -0.039451793
0.020422533 -0.033170678 0.072631404 0.015150168 0.04757739 -0.0072481954 -0.009698041 -0.028643863
-0.033251494 0.018193895 0.038141854 0.014045302 -0.03985487 0.049366463 0.061220534 -0.04342946
0.023562957 0.06560614 0.031025656 0.053952944 0.0063533974 0.028650424 0.0029616577 0.039654534
-0.05160413 -0.025610033 0.01646317 -0.030484248 0.09651482 -0.02149917 -0.04366786 -0.025629599
0.04047494 -0.03803736 -0.008464692 0.086426795 0.007925135 0.059824668 -0.019160902 0.058181364
-0.008920713 -0.013529764 0.017529942 -0.004902333 -0.054853503 -0.010987032 0.0712944 0.00096671446
-0.022310937 0.0023428819 -0.12191259 0.010710773 0.017567348 0.05818114 0.030092828 0.0367101
-0.033673868 0.02776488 -0.0141456295 -0.041896153 0.03199019 -0.019872215 0.15203469 -0.006932205
-0.008145331 -0.05703485 0.007930582 -0.006397283 -0.05289084 0.0064040762 0.021681981 0.026494358
0.037499882 0.049637552 0.01987709 -0.023515712 0.04212716 -0.022727353 0.016911816 -0.0072453464
-0.0152001055 0.065591656 0.04504908 0.04376727 -0.033897318 -0.09794051 0.037363682 0.063598886
-0.0065391846 0.01871797 -0.026214695 0.07099816 -0.017111339 0.02125426 0.025678959 0.036204074
0.005145469 0.044850815 0.022694271 0.04137494 -0.0104853595 0.033286158 0.08653961 0.06382435
0.009841775 0.051087398 0.05002331 -0.0058615687 -0.020380607 -0.013019182 0.0074413596 -0.013493812
0.05117067 0.03215944 0.07165648 -0.00083547883 0.02596749 0.0396198 -0.017339647 -0.019276513
0.04023293 0.02871561 0.041985277 -0.040773466 0.059214458 -0.013765865 0.02323262 -0.007793259
-0.02459664 -0.01079213 -0.0031299752 -0.027026165 -0.027549025 0.00989478 -0.011991768 0.042850144
-0.02423003 0.009273382 -0.037380382 0.044395287 0.015841963 0.0103708245 -0.020079186 0.046126902
0.05979316 -0.0045957556 0.004426349 -0.0148261525 0.057050962 0.029765286 0.01829216 -0.008667238
0.037901036 0.005536556 -0.045438927 -0.030466553 -0.047565527 0.11654401 0.042122614 -0.041145623

fc3.weight f4 [1, 300]
00000000: 4791 0cbd 4a5f 603e 3de6 973d 8c73 d33d
00000010: efa9 42bd 8e84 a13d 97ae a1bd b00d c7bd
00000020: 1752 02bd 50cb 033e 312b f7bd 33b3 8f3e
00000030: 38f0 e13d f7a1 3b3e f9fb 16bd a94b 58bd
00000040: 4523 043e 1df3 4ebc 2029 70bd 3ccc dd3d
00000050: 28fd a63d b38d c8bd 9ea8 0f3b 03be c6bd
00000060: 846b 5d3d b450 ec3d b1b3 d03d ace5 10bd
00000070: 6d9e e53d e5db 8a3d ae0f d63d 4dba f8bc
00000080: caf5 d4bc 0c83 d0bd 1cdd 9dbd 4bb7 dcbd
00000090: 09af acbd e3a8 37be 336f c9bc 8e96 28be
000000a0: f23b 4c3d 17de 9ebd 46f9 78bd 71b0 acbd
000000b0: 8212 0c3e 368f 00be 8613 66bd 5da1 e33d
000000c0: 1653 3a3e 61f7 603d 2871 ee3d 8a88 283e
000000d0: 1caa 9e3d 4f40 003e b0ae 713d 124f 74bd
000000e0: 6ffa 003e 2854 89bd f2c1 d3bd 7335 30bd
000000f0: 8b0d bfbd 4cba 8ebd d530 e8ba ccfb 693e
00000100: 0b84 143e 9287 0e3e cad1 62bd a8d3 0d3d
00000110: 2fad 3e3d d598 95bd acab 47bd 81bc 1c3e
00000120: d19e 87bc 5b46 353e 9391 d93d 6ac1 f93d
00000130: eb52 ccbd e10f 873d 1fb3 ab3d ef85 b4bd
00000140: c356 a5bd 6797 89bb 28d4 b7ba b68e 9fbd
00000150: c472 8eba 24b4 1b3e 1a5b 92bc b539 673d
00000160: e37c 96bd 92f5 7d3e a793 493d bd08 02be
00000170: 1e31 b73c ff49 0abe 6d3a 963d 9e8a aebd
00000180: bd16 75bb 5bc4 eabd 2ff5 11bd a151 21be
00000190: 4d2d 0b3d 68e5 f1bc 06bd c83d 6216 b7bd
000001a0: cbe7 e83d cf42 a93d e44f 1c3e 183f 443e
000001b0: 8142 473a e551 113e 8a3f c73d f2bc 78bd
000001c0: d768 e73d 39a8 db3d 6976 953d 9c1c f13d
000001d0: 2a22 853d a287 dabd 582e 833a 47b5 bfbd
000001e0: 7a01 31bd 55f9 87bd 2e7f 493d a5b9 e5bd
000001f0: 41c7 763d feed 063e ba36 cfbd 56c4 e53d
00000200: 8373 a3bd 4dd1 aebd 025f 9f3d 492a fb3d
00000210: e710 463e 6f7b 1e3e c03c 083e 54a8 3a3e
00000220: e0cc bd3d 1a08 d53d 0529 ddbc b95f e6bd
00000230: 8490 1bbd 7e9c c03a a8ec 043e 71c6 babd
00000240: 339b e73c c0df 6cbd 5cdd 1fbc cc3e c9bc
00000250: af3b 0c3e 610c b63d ccef fd3d 2981 17be
00000260: d03c ea3d 6041 063e e9d0 5abd 4c6a 62bd
00000270: ebb7 70bd 8379 14bd 58d1 113d c565 65bd
00000280: 4280 f5bd 45e1 babb 863d 9c3d 57eb 77bc
00000290: fb41 6fbd 11bb 213e 444b c33d afbd 803d
000002a0: 5c17 a3bd 452e 113d fb21 aebd 179a 89bd
000002b0: d662 253e 737d cfbd b509 5cbd 1303 673e
000002c0: 26ad b6bd 13b6 333d e2dd 053d 1a39 053e
000002d0: 4685 6cbc 7f66 f0bc 55a8 76bd a022 9a3d
000002e0: dec2 d73d e4db c63a 2656 76bd f31d 173d
000002f0: 52c9 cfbd 9036 5abd f811 0c3e d80a 263e
00000300: 65f0 2a3e 0d3c b3bd e200 863d 4370 43bd
00000310: 83c8 dcbd 1627 dd3d 0243 943d e040 0b3e
00000320: 3887 18bb 15a1 5fbd c16a 093e 5862 23bd
00000330: bc68 f43a 5f23 b8bd 7a6e 123e 7c3f a8bd
00000340: b9db dbbd d9f1 e43d c5b0 043e d14a ab39
00000350: b779 53bd 4ae6 11be 77e7 07be f0a0 0e3e
00000360: 75c0 09be 91fd bd3d aac9 75bd ecc6 a3bd
00000370: 395b ec3d 6b01 c33d 04d6 493e 7df6 a1bd
00000380: 816c 52bd e83b ac3d 9163 9e3d da3a 433e
00000390: 7a7f 033e 438e debd f26f 113e 0b4c 353e
000003a0: 63aa 153e 1e48 fdbd e713 41ba 1069 483d
000003b0: 6d17 f7bd 9258 de3d becc b73c 62a3 17bd
000003c0: 09cb 88bd 02b7 843d 019d cfbd ea1e 833e
000003d0: 6cb6 bf3d 12a1 d63d 026b cb3d f421 0bbe
000003e0: 7822 c83d c648 f7bd ad5d 8dbd 1f06 e9bd
000003f0: c585 e8bd f8f6 193d 515b d73d 5cba 2c3e
-0.034318235 0.2191135 0.07416961 0.10324773 -0.047525343 0.07886611 -0.078946285 -0.097194076
-0.03181657 0.12870526 -0.12068785 0.28066406 0.11032146 0.18323503 -0.036861394 -0.05280653
0.1290408 -0.012631205 -0.05863297 0.1082997 0.081537545 -0.09792652 0.0021920572 -0.097042106
0.054057613 0.115388304 0.101905234 -0.035375282 0.11211858 0.06780223 0.104522094 -0.030362273
-0.025996108 -0.10181245 -0.07708189 -0.10777148 -0.08431823 -0.17935519 -0.024589157 -0.16463682
0.049861856 -0.07757204 -0.0607846 -0.08432091 0.13678935 -0.1255463 -0.056170963 0.11114762
0.18195757 0.05492342 0.116426766 0.16458336 0.077472895 0.12524532 0.059004486 -0.05964572
0.12595533 -0.06705505 -0.103397265 -0.043019723 -0.09328755 -0.06969127 -0.0017714748 0.22849959
0.14503495 0.13918903 -0.05537585 0.03462568 0.04655188 -0.07304541 -0.048747703 0.15306284
-0.016555222 0.1770262 0.10623469 0.12195094 -0.09976753 0.065948255 0.08383774 -0.08814608
-0.08073189 -0.004198957 -0.001402502 -0.07790892 -0.0010867943 0.15205437 -0.017865706 0.056451518
-0.07348039 0.24800709 0.049213078 -0.12698646 0.022362288 -0.1350479 0.073353626 -0.08522533
-0.0037397586 -0.11463233 -0.035634216 -0.15753795 0.03397875 -0.029528335 0.09801678 -0.08939816
0.11372336 0.08264696 0.15264851 0.19164693 0.00076011574 0.14191397 0.09728916 -0.060727067
0.112992935 0.10725445 0.072979756 0.11773035 0.06500657 -0.10670401 0.0010008318 -0.09360748
-0.0432143 -0.06639353 0.049193554 -0.112170495 0.060248617 0.13176724 -0.1011786 0.11219089
-0.079810165 -0.08536015 0.07781793 0.12263925 0.19342385 0.15476774 0.13304424 0.18228275
0.092675924 0.10401936 -0.026997099 -0.112487264 -0.037979618 0.0014695076 0.12980902 -0.09119881
0.028272247 -0.057830572 -0.009757366 -0.024566077 0.13694642 0.0888908 0.12399253 -0.14795364
0.1143738 0.13110876 -0.05342189 -0.055277154 -0.058769148 -0.036248695 0.035600036 -0.056005258
-0.11987354 -0.0057031238 0.07628922 -0.015131793 -0.058412533 0.15794016 0.0953584 0.06286179
-0.0796344 0.035444517 -0.08502575 -0.067188434 0.16150984 -0.101313494 -0.053720195 0.22559766
-0.08919744 0.04387481 0.032682307 0.13010064 -0.014436072 -0.029345749 -0.060219128 0.075261354
0.10535215 0.0015171734 -0.06014075 0.036893796 -0.10145821 -0.05327469 0.1367873 0.16215074
0.16693266 -0.08751688 0.06543137 -0.047714483 -0.10780432 0.10798471 0.07239343 0.13598967
-0.0023273956 -0.05459698 0.1341963 -0.03988871 0.0018646936 -0.089911215 0.14299956 -0.08215234
-0.10735268 0.11178941 0.12958057 0.00032671404 -0.05162975 -0.14248005 -0.1327189 0.1392858
-0.13452323 0.092768796 -0.060006775 -0.07996926 0.11540837 0.09521755 0.19710547 -0.07908342
-0.05137301 0.08409864 0.077338345 0.19065419 0.12841597 -0.10866978 0.1420286 0.1770479
0.14615779 -0.12367271 -0.00073653314 0.04892832 -0.12065015 0.10856737 0.022436496 -0.03702105
-0.06679351 0.064802185 -0.10137368 0.25609523 0.09360966 0.104799405 0.099325195 -0.13587171
0.097721994 -0.12074427 -0.06902633 -0.11378121 -0.113536395 0.037589043 0.10515464 0.16867965
